notebooks/models/autoencoder-StatDict-V01.pt (torch, 200719 bytes, 4 tensors)

encoder.l1.0.weight f8 [256, 64]
-0.008994278751061404 -0.0709977881513859 -0.02169309109657876 9.405932469570248 -5.173599031135087 -2.726495267161874 -1.1973827342042698 -0.5165034361063248
-0.27348434038633435 -0.09073036018879084 -0.061184205323968295 -0.044602027174903025 -0.06196257594166183 -0.03613051719516605 0.011824005703375612 -0.06822814375738946
-0.060015965416574724 -0.10949626922563525 -0.0005203094335186897 -0.0018811032644343974 -0.08591085772152493 -0.07095141650670034 -0.0470278537803072 -0.03488415317232651
-0.04438480283992871 -0.06989062054554383 -0.02858908957802158 -0.060974166371537096 -0.03648409763186394 -0.12128780874606378 -0.04792198819770673 -0.04375739260090485
-0.10643368789611402 -0.11724569255027709 -0.16127622687469528 9.416019026644507 -5.164973624283909 -2.721107827096814 -1.1332383219610058 -0.48637218894744455
-0.237508964912784 -0.11058927004008642 -0.05483568650435413 -0.01643056558163565 -0.02371845723707206 -0.030127821013110602 -0.042566878867730175 -0.03133214079829885
-0.09015766363402865 -0.051224169161724516 -0.03494729347551824 -0.07192641226256521 -0.0873210155010934 -0.0365465737711808 -0.09137251776509231 -0.071688527215912
-0.04702495581965257 -0.0799689061248421 -0.010250252859485451 -0.052065711694319054 -0.025483691724101126 -0.014673907141540704 -0.04329722767994434 -0.04374944277635777
0.002620101838382707 -0.02869966254723357 -0.03835881576002515 -0.033645366423099496 0.024555209986859658 -0.13536027345921378 0.0010638456961016797 0.014125586095193722
-0.024199817649190467 -0.05990939566048246 -0.04307001246180412 -0.10684834901513111 -0.014659778912592148 -0.06466001725522065 -0.13036362296723897 0.0013458862696950089
-0.07034961573341475 -0.025466467301142454 0.029609934663648592 -0.014997558392588612 -0.0028185196156911532 -0.0018214979073581958 -0.6067769884093064 0.07603243627756787
0.16219305651575538 -0.019378750760491916 -0.14364133037847 8.0986650329367 -9.363242064467554 -4.856770293263531 -2.2629624792770047 -0.9959506386189897
-0.012088418149771348 0.004204507805519452 -0.0072218680567224455 -0.11087743144595039 0.038317841587755044 -0.11533685016937326 -0.0021419923523217986 -0.05728396200198758
-0.04316606986242013 -0.023769416971152688 -0.038201332834056245 -0.04842748226953925 0.025091896487839542 -0.055484592248446686 -0.06610745302896205 0.03221320062262741
0.0011419529429867422 -0.06900661618391059 -0.006288882243522444 -0.042863554199293996 0.028328997548839104 -0.029190727169972307 0.6720418525426042 0.1214795887228629
0.08554138262589737 -0.0059393245524912 -0.09586888769086353 7.498170881524097 -9.407992570049608 -4.8604005602344875 -2.3117819719020383 -1.4041636277709932
0.8935997462342161 -1.6265179479341272 -0.5669358624439533 -0.4355828254016521 -0.20532741633512264 -0.2670014479730406 -0.06356557692076088 -0.05793386541963767
-0.023967444755642747 -0.04230722486154278 -0.09155874249953716 -0.05234578386231929 -0.07866393826738759 -0.05029899544290159 -0.02027096623180192 -0.05074003491644665
-0.24859642440813245 -0.05276911665474031 -0.2330976548606833 -0.1269679495486149 -0.09506951344840259 -0.08127315521054612 -0.06699000191053414 -0.1317506853349845
-0.06057368746028975 0.02918657800434092 -0.1331162928418016 -0.025402949901291397 -0.038590223219477575 -0.05983818667540988 -0.04328129477017284 3.786351546953566
0.8730230906175751 -1.6250986323227385 -0.5587320802410392 -0.403429432590556 -0.19639995616513797 -0.13198940980135482 -0.01965592648286476 -0.029062751521937286
-0.037309719724335624 0.042832046991319574 -0.08916632343318394 -0.040828046554589666 0.0010134563628399068 0.016529039399185548 -0.06424036988510878 -0.07827324920041581
-0.09994097876969787 -0.05873883929948072 -0.25649772770914714 -0.12090368089154634 -0.05551331668775621 -0.06021140756380622 -0.017494309184332514 -0.088211613759382
-0.0346625077660837 -0.047557009096674034 -0.0062992156996990656 -0.03245305762477038 -0.06145090016994132 -0.1541371196941659 -0.19187448644074975 2.7473466458395652
0.020703968082049697 -0.0009799293381065354 0.024681177447219045 0.05376682333144615 -0.003886231498834072 -0.02300761337969748 0.060437488739004515 0.03083648135691238
0.026481828717723647 0.035351780367578266 0.037197664913955285 0.02834195375748954 0.053027271655510196 0.04797228927847161 -0.06485902479779869 -5.215748452486594
3.524811208151894 1.267775896490007 0.5943032308207561 0.3335873488478571 0.18748522202153947 0.10741078987238066 0.09151679372990401 0.03738057518178311
0.01535058738052762 0.033867887749576074 -0.0024022858420912415 0.022427883703000032 0.030733945105238542 0.026172310684158036 0.03437368834495058 0.026485441403932178
-0.013442618975608658 0.022669353922213618 0.03401126275598962 0.04641240350286008 0.03636556850027603 0.040873362253202525 0.01129773638891417 0.029658941351573726
0.05560704666172473 0.0017864010480508276 0.014873183116031453 0.027961821384919608 0.04046156503437814 0.023201646985338453 -0.0009147083045219467 -5.268275311192058
3.551901093873988 1.3062884429716999 0.5858746961421265 0.327120380479184 0.19107624982429555 0.1403892343192516 0.08549938137489876 0.01807248454653024
0.04715495675995937 0.024901522464337536 0.030469506182381135 0.06996769096069246 0.04426501051799585 0.03953450061425639 0.015031845795813023 0.04340486214342696
00000000: 4101 b2a8 976b 82bf 6fd3 323a e92c b2bf
00000010: 955e 3cb3 b636 96bf a160 7261 d6cf 2240
00000020: b45e c5f1 c3b1 14c0 b245 29c0 dccf 05c0
00000030: 073d 43cc 7a28 f3bf 3225 cb36 3287 e0bf
00000040: 255b 7b76 c480 d1bf 55e1 c3d9 1a3a b7bf
00000050: f1df cb41 8953 afbf c05f 1ab0 13d6 a6bf
00000060: 099f 7d0a 8fb9 afbf a44a 7bfb b27f a2bf
00000070: 8302 6e2e 2f37 883f 7dd2 1a4e 6677 b1bf
00000080: d073 67a1 69ba aebf 67ad 5b8f f207 bcbf
00000090: 0001 1900 ac0c 41bf b4c0 1240 ebd1 5ebf
000000a0: b606 4904 41fe b5bf 884b 803d df29 b2bf
000000b0: 3698 f9eb 0814 a8bf 1f2f 0cf2 55dc a1bf
000000c0: fc17 46d9 9ab9 a6bf 3f4e 8a09 5ae4 b1bf
000000d0: ee41 0a53 7546 9dbf 23e8 ee84 0138 afbf
000000e0: 684c 4e2c 0bae a2bf cdc4 f7c3 b70c bfbf
000000f0: ab0b 2318 3b89 a8bf 73b5 5b74 5e67 a6bf
00000100: ecdb b4f8 3c3f bbbf faad 194f d003 bebf
00000110: aa48 060c b3a4 c4bf 61e7 2372 00d5 2240
00000120: 0702 84d8 eea8 14c0 dc29 322e d4c4 05c0
00000130: d057 b681 be21 f2bf 2fa5 4dd1 b820 dfbf
00000140: f252 679a b166 cebf c655 1c12 944f bcbf
00000150: d33b 6150 6c13 acbf 34c7 4f97 2cd3 90bf
00000160: 3246 94b8 a649 98bf 7ae0 cdd7 d3d9 9ebf
00000170: 5567 4271 53cb a5bf 54b0 1530 c40a a0bf
00000180: 5fbb ca98 9214 b7bf 39f6 a0e6 0d3a aabf
00000190: ea43 1f95 9ce4 a1bf 96e6 62f4 c469 b2bf
000001a0: 19a9 d489 ab5a b6bf c692 4186 3bb6 a2bf
000001b0: 5ce3 8d77 3064 b7bf 0f08 e4e7 2d5a b2bf
000001c0: abb8 aeae a713 a8bf 91ca 809c d778 b4bf
000001d0: 0530 75a6 15fe 84bf 5fac f061 5ba8 aabf
000001e0: 9b3b 259a 6518 9abf fd3b 387a 5a0d 8ebf
000001f0: 9b20 c9e1 0d2b a6bf f6a6 e2b3 5366 a6bf
00000200: 394a a876 c076 653f 05b9 2fc0 7163 9dbf
00000210: d9ba 6746 c4a3 a3bf d6f6 e528 f739 a1bf
00000220: 5c22 5c3f 0025 993f 1dac d745 7c53 c1bf
00000230: ec7c 419e 176e 513f 2788 8612 e0ed 8c3f
00000240: 0960 7d45 d6c7 98bf 8d77 2bbe 71ac aebf
00000250: f56b eccd 450d a6bf 13ce a6d4 695a bbbf
00000260: ed29 f837 f205 8ebf d94f 7813 8f8d b0bf
00000270: 2abe 9d54 c1af c0bf 0966 cc60 0e0d 563f
00000280: 8476 dcb2 6e02 b2bf 05ef cfb0 e113 9abf
00000290: 227a 1114 1152 9e3f aa34 8736 0ab7 8ebf
000002a0: 3926 5232 dd16 67bf 090a 477c ead7 5dbf
000002b0: f0dd 2593 b76a e3bf da52 3f9b dc76 b33f
000002c0: 2ecd aff8 bdc2 c43f 47bc 03f3 05d8 93bf
000002d0: be2b 2ad0 d662 c2bf 9b71 2339 8432 2040
000002e0: dfd6 26dd fab9 22c0 3901 1731 556d 13c0
000002f0: fa8e 8412 8c1a 02c0 6390 a9df d3de efbf
00000300: 7ebc e804 d0c1 88bf bfe5 53f8 be38 713f
00000310: 1816 ea71 ad94 7dbf 3ec2 ec9d 7662 bcbf
00000320: ea07 f268 659e a33f c248 803f b786 bdbf
00000330: cf85 3f63 158c 61bf 1d87 c4ce 5254 adbf
00000340: 833e b6f4 dc19 a6bf 4cf4 2492 0257 98bf
00000350: 002c 5f06 208f a3bf 898c 26a9 7ccb a8bf
00000360: 4e53 3dab b0b1 993f 8d27 47fa 7968 acbf
00000370: e1ff c704 6bec b0bf 7beb 58a6 3f7e a03f
00000380: eff6 cba2 b2b5 523f 69af b7e7 6aaa b1bf
00000390: 9c78 07f9 5ec2 79bf 70dc f336 36f2 a5bf
000003a0: dfbe 00d8 4602 9d3f 467c 2a8a 2ce4 9dbf
000003b0: f4d6 46ea 5d81 e53f e73b b24c 4919 bf3f
000003c0: c735 d540 0ae6 b53f ce97 694b d553 78bf
000003d0: 4f0e 5609 dd8a b8bf a9dc ef81 20fe 1d40
000003e0: 84bf f266 e4d0 22c0 37ab 2ed8 0c71 13c0
000003f0: c569 e68b 877e 02c0 6925 b847 7477 f6bf
00000400: 8346 b97e 5e98 ec3f e7be 0baf 3706 fabf
00000410: ee0a 84ad 5624 e2bf f128 73c9 96e0 dbbf
00000420: e8d5 1035 2b48 cabf c2d8 c13d 8d16 d1bf
00000430: 95aa 066a d545 b0bf 96cd 9df2 81a9 adbf
00000440: e8a1 93fd eb8a 98bf 7b66 54e6 4aa9 a5bf
00000450: 2cca b2cc 6470 b7bf b656 8b0b 11cd aabf
00000460: 67a5 3be2 5123 b4bf 3cd8 e538 cac0 a9bf
00000470: c27b 1884 e9c1 94bf 63c9 200d 99fa a9bf
00000480: b823 5ef4 01d2 cfbf d6b5 8abc 8d04 abbf
00000490: ae51 33da 24d6 cdbf 10ca 795b 7c40 c0bf
000004a0: 8486 1bc3 7956 b8bf 000a ac47 51ce b4bf
000004b0: 665e 5dbb 4126 b1bf dda2 5eda 34dd c0bf
000004c0: 3ab7 47ad 8303 afbf 6c0e 0b18 16e3 9d3f
000004d0: 7cff 2866 f409 c1bf d41f 311c 3b03 9abf
000004e0: ef92 5805 19c2 a3bf c449 a55d 1ca3 aebf
000004f0: e002 2243 f728 a6bf ba98 0aae 724a 0e40
00000500: dc5e db1e ceef eb3f 9c9b 696c 6700 fabf
00000510: dc8f 7b19 22e1 e1bf fb18 ceae c9d1 d9bf
00000520: 0922 553e a223 c9bf caf0 416b 07e5 c0bf
00000530: e67a aae5 ae20 94bf 8523 463d a0c2 9dbf
00000540: f2f0 1374 421a a3bf cdce 1802 15ee a53f
00000550: 45d2 0cab 9ad3 b6bf 694d 6ce9 69e7 a4bf
00000560: 40e8 cb7b be9a 503f 127d 9d0e fdec 903f
00000570: ec4e bd8f 0e72 b0bf 6aaa 7735 b709 b4bf
00000580: e098 5863 bb95 b9bf 9ab0 9763 0413 aebf
00000590: 1895 0072 756a d0bf 972c 652b 8bf3 bebf
000005a0: e732 55cf 3d6c acbf 5854 aa94 07d4 aebf
000005b0: 0a54 4037 07ea 91bf 6e53 394c 0995 b6bf
000005c0: af5e 81c2 48bf a1bf 8f15 886d 6459 a8bf
000005d0: 1703 bbd6 34cd 79bf a4a3 4eea af9d a0bf
000005e0: 294e 140d 7e76 afbf 79d1 17e0 c3ba c3bf
000005f0: 8f93 19da 578f c8bf f43f d5e0 90fa 0540
00000600: 6a44 3dc7 6b33 953f 0a68 691d 1f0e 50bf
00000610: 32ae d9c7 0546 993f 8501 a337 5387 ab3f
00000620: 3951 26a6 04d6 6fbf 8168 19cc 4e8f 97bf
00000630: a93b 2c9b a9f1 ae3f f67d ce3b 9993 9f3f
00000640: 61a3 1f71 0d1e 9b3f a378 11e9 a019 a23f
00000650: b304 9684 920b a33f 6eff f851 ac05 9d3f
00000660: b9f0 1cfb 6326 ab3f 4c6d 21eb d28f a83f
00000670: 3f64 5bde 999a b0bf c05e 8e29 eddc 14c0
00000680: 6db1 fc37 d032 0c40 7c4e e160 cf48 f43f
00000690: 7e08 8935 8804 e33f 044c 6ac0 7e59 d53f
000006a0: 7f6c 8808 84ff c73f 8349 bd05 467f bb3f
000006b0: a4ce 1a04 a56d b73f a7a6 d2f7 8b23 a33f
000006c0: 37a7 30f6 2070 8f3f 13be 89bc 2157 a13f
000006d0: 11df 1364 f5ad 63bf f16c 17cc 55f7 963f
000006e0: 658e 6a24 b878 9f3f bffd cb09 eacc 9a3f
000006f0: a0a4 9196 6d99 a13f 049d 99e2 ff1e 9b3f
00000700: 5b8d fbc6 cd87 8bbf c992 de96 a236 973f
00000710: 5c1c 779a ec69 a13f 38da 58d6 5dc3 a73f
00000720: ec79 d1fe 819e a23f c664 4f74 5aed a43f
00000730: f945 7982 4423 873f b553 8edc e95e 9e3f
00000740: a9b2 addd 8678 ac3f e2ff 0c85 b544 5d3f
00000750: 34f2 90d8 d475 8e3f 140f 8a11 06a2 9c3f
00000760: 8fa0 22d5 60b7 a43f 03bc 0f2c 2cc2 973f
00000770: e62d 6c20 21f9 4dbf 9293 5fc3 b612 15c0
00000780: f385 e61e 4b6a 0c40 a54c dbb5 8ee6 f43f
00000790: f77f 6f4a 7cbf e23f d0d7 0052 8aef d43f
000007a0: 8ad2 04c2 2f75 c83f 164b 0e41 46f8 c13f
000007b0: 205b d596 49e3 b53f 29d9 56e8 9781 923f
000007c0: 1cb3 41ca b124 a83f 2475 6be2 c87f 993f
000007d0: ad7b 50f2 6533 9f3f 49eb 7310 67e9 b13f
000007e0: a653 1049 e7a9 a63f 7762 67b6 dd3d a43f
000007f0: 2575 bb30 04c9 8e3f ad6c c97e 2939 a63f

encoder.l1.0.bias f8 [256]
1.430532288290314 2.8644222142103946 -1.2178370173071598 -1.7926855725716715 3.9946755870184263 -1.668675831737858 6.670943603541536 -1.82520464738564
2.207133591566067 0.11482529701165001 -5.414572121651728 -4.564773682713155 1.428768283415068 -0.7350516902892286 -10.408098596762166 8.575591082775155
3.1724248546377853 7.808808444113385 9.931144848739203 4.090670179230145 1.8583109420828994 -9.878674466920144 2.248507374575265 -2.945934667414441
-6.2665398203148435 10.305801990042031 -11.356260449563816 -0.4275936786851101 -1.218644945098575 7.233965627700264 -11.102328886903482 10.269420614845092
6.55369102969644 2.2861040179603007 6.943613562163156 1.3719313465874086 2.753560781085282 0.7929530899629609 -5.979545613931238 1.7771236627269704
0.8448403469591774 1.969769853810956 -1.8347184777474936 2.318121818992243 15.458868670600125 0.897296223176778 10.087993802659367 10.554980232794955
-3.508207295968543 10.954219078047482 -7.61513681139052 -5.896988832016425 11.408122886339795 11.230426455982077 -5.514966047487739 -5.209188919900065
-3.249826562363724 10.99842585978077 8.453402656887443 1.8390213662584385 9.35239954242661 -0.1705693430245497 10.209525975449765 5.345091553916298
6.660779114387614 1.5760772566624484 11.695643724529308 0.010296056145389898 3.001707024152078 10.383587907627632 12.763450816937032 10.146594937988985
2.033633386463963 7.334468043933081 -4.947388251679179 6.608364369820311 0.6327927967827336 2.3059877436860914 3.5696800660485293 -1.6200867645552797
7.0838790853098015 9.120023959427556 0.41322730963848175 -1.783517269939976 1.9118278699499809 10.056362679052821 -0.01386644429790637 2.552881331084538
1.422836380745525 -8.246524201774461 -5.937731373229564 -1.6283770453809758 2.804150878902918 12.852503497318654 4.897234118118755 7.2424152005551825
0.16597555326448524 4.257332444307035 7.1053252237416515 -7.3112028318575115 9.614462188580129 5.717273087905595 10.231026841393962 8.104601144087091
1.864700720098688 -0.13699650995582885 -0.07627202805680652 9.797622665273424 -4.727181279943679 4.023324579940942 -0.9709726702089789 10.837233090078024
0.3475641732971426 -10.29791585465176 5.476082838419776 6.880206948167986 -3.436021007856396 -3.0473033075711795 3.836718555544365 7.800936841837868
-8.221828699457946 2.9419653443337856 -2.9686093108477163 0.4409459913928455 -0.84451263881177 0.9712773995421591 -7.825355826245407 -0.9347886572954843
10.902513135541719 -6.784667748245099 -4.447684829701983 -4.9241118909385 -0.9484820255456025 -7.173673438619285 2.3707092644144714 0.28620848962668965
10.209567383870993 -2.9665655972441405 3.9381841156242596 4.587971685127538 12.342850576275252 -6.843627928631553 10.413560447617629 -0.8382219654159399
1.2515797181194126 9.138989769189534 3.2725920563003186 13.95880635106554 3.410772243771864 -4.472843701720992 2.2569908030663224 -6.311459389078076
10.330247373674725 -0.632882955641107 -1.9975814393180376 -1.549059016628096 1.239949549729227 -10.096500230769708 11.45197143209567 1.4471660109051234
11.298419243905517 0.9178650601870662 -9.967957574035974 2.6171272692859 3.2571555533610588 1.427333605255638 -2.704405252984727 -5.222018138970134
10.794873960448705 4.81884966311906 1.7493494303249892 3.797637949437122 10.538558138261838 1.6847350767988647 -0.911502766741726 -8.141602812952646
10.200757542847446 -0.2599160830634606 -0.534776747372456 -0.494795611477759 -2.2664341544621616 -0.00561516116585331 11.63012274696638 1.8233878725591672
-10.967537038304044 4.41383324631674 -2.8109589985746912 10.803356696229837 -0.1434482865766086 1.1824498900705445 2.7970627124882705 -0.48177304496725465
-11.759121966719897 -2.437454942675964 10.297218848528008 8.335028461426038 7.3622807616364385 4.234506314251824 10.824279610718998 -8.602227951353244
8.801490028977575 0.4406597415428574 2.5090896802549802 7.529933133541991 -1.4340531500571365 3.8997768512118762 2.2657488778003905 2.5224311672737203
-0.6188303917874974 -4.106323187497256 2.736778896325129 1.654727221779461 -1.0542030725733507 -1.8816347728636775 -2.887541122039608 8.200220460453734
10.063398203293817 1.3476183121877572 11.859549946402362 8.505740111289967 -4.187997055263709 9.424913998950773 8.35623904983878 -6.472812644406941
1.4543758831699873 -9.811271026149358 -4.502240750975675 3.465868644504252 9.456476842381845 10.498614445243437 2.252727501397639 1.8237360748918143
2.8182063103041397 8.750574222511224 0.8138012540275845 7.632284363596551 12.244490229937472 -3.2174128568976856 2.6652073948186925 -4.846827877395323
13.014344267707214 -0.6651849122859158 2.1588707928968573 1.2088971485489237 9.893988129767552 9.645957741219052 -3.48172260886524 12.24902028488347
2.339228682346898 10.507477363217452 11.13498785464734 -2.0549040036728514 1.3384396131238 -9.320151324513308 -3.4561122538585978 10.77729274637483
00000000: 5943 21d3 75e3 f63f a4c1 9f31 56ea 0640
00000010: 3914 13ab 427c f3bf 444d 2311 d7ae fcbf
00000020: 6dfd 6279 18f5 0f40 0209 cf6d e5b2 fabf
00000030: 66af 0ad7 0baf 1a40 e274 d0c9 0934 fdbf
00000040: 2a6f 0da8 35a8 0140 5824 6bcf 3065 bd3f
00000050: 5e4f 2198 85a8 15c0 f393 4308 5442 12c0
00000060: c346 ad21 3cdc f63f 1e2d 551f 8b85 e7bf
00000070: 2446 9d4c f2d0 24c0 ecc6 d8df b326 2140
00000080: a77e 3d48 2061 0940 54c8 e047 383c 1f40
00000090: f558 8204 bfdc 2340 5010 baa4 d85c 1040
000000a0: 55b8 2041 a4bb fd3f 2781 a69e e1c1 23c0
000000b0: b8ec 346f f1fc 0140 cf94 e531 4691 07c0
000000c0: fc55 8dd0 ef10 19c0 8290 1414 929c 2440
000000d0: 3e78 07c5 67b6 26c0 c672 7be0 b15d dbbf
000000e0: 4125 8ad7 917f f3bf 6771 7daf 94ef 1c40
000000f0: 825f ad73 6434 26c0 7a41 b37f f189 2440
00000100: 028a 02c8 fa36 1a40 4626 43e7 f049 0240
00000110: 1636 36a2 42c6 1b40 dc33 9f48 6ef3 f53f
00000120: dc79 f2df 4a07 0640 e4e5 9428 df5f e93f
00000130: 8219 6301 0eeb 17c0 dbc2 c538 196f fc3f
00000140: a0fd 909f ee08 eb3f 723c ec64 2d84 ff3f
00000150: a0ad 34c3 015b fdbf c9b9 c573 838b 0240
00000160: e8c5 9ad5 f0ea 2e40 66cb ab91 a6b6 ec3f
00000170: 6758 1186 0d2d 2440 c58f 7b5e 261c 2540
00000180: 1930 9efc ce10 0cc0 cddd 2a67 8fe8 2540
00000190: b7f3 9d6c e675 1ec0 178d 893d 8496 17c0
000001a0: 3728 a37b f5d0 2640 0427 d974 fa75 2640
000001b0: 780a 7242 530f 16c0 18a0 c69e 35d6 14c0
000001c0: c431 9811 a5ff 09c0 6a7a 9eac 31ff 2540
000001d0: 8d80 9e64 24e8 2040 8c9a 0bab a16c fd3f
000001e0: 00b2 7bb6 6db4 2240 83cd fe5a 37d5 c5bf
000001f0: 4070 18fd 466b 2440 08c9 28ae 5f61 1540
00000200: d6b2 b847 a3a4 1a40 945a 15c9 9c37 f93f
00000210: c20a 0d6a 2b64 2740 d3b9 6043 1916 853f
00000220: d540 e7f8 7e03 0840 b2cd 5ca2 65c4 2440
00000230: b5b2 8506 e386 2940 fbd7 e07d 0e4b 2440
00000240: e454 b794 e144 0040 abff 78ca 7e56 1d40
00000250: 884e 5625 20ca 13c0 34b8 c111 f76e 1a40
00000260: 5a70 eaad d63f e43f 66de c0b3 a972 0240
00000270: 76e4 266c b48e 0c40 7628 6719 e0eb f9bf
00000280: 5ee5 2066 e455 1c40 a0f4 c8c7 733d 2240
00000290: ac86 2df5 5072 da3f f8e4 a367 4989 fcbf
000002a0: 9f43 10d2 d896 fe3f 5e7e ae91 db1c 2440
000002b0: 6fa6 2ba6 0266 8cbf c79d 1c0c 4d6c 0440
000002c0: ccc6 ad14 f0c3 f63f 6f96 906b 387e 20c0
000002d0: 0cd1 31a7 3cc0 17c0 907e b716 d50d fabf
000002e0: 6380 efa7 e66e 0640 226b a156 7bb4 2940
000002f0: aab3 688a c496 1340 4cc0 b9b0 3bf8 1c40
00000300: 9d6d 9ada af3e c53f 6bfe 0128 8207 1140
00000310: 38a8 1d60 da6b 1c40 9d00 85f4 ab3e 1dc0
00000320: 1529 b9c9 9a3a 2340 ff6b 1bd6 7cde 1640
00000330: 0c92 7026 4976 2440 dcf4 f947 8e35 2040
00000340: 9b6c 1a6c d0d5 fd3f 0a95 f604 1a89 c1bf
00000350: 1e84 1a4a 9086 b3bf a1cb 7bff 6198 2340
00000360: 707c 9e35 a2e8 12c0 3a28 1066 e217 1040
00000370: 7a6f fb46 3512 efbf 3d07 cad0 a9ac 2540
00000380: e8a3 64cd 7d3e d63f df60 496d 8898 24c0
00000390: 96cc 7442 82e7 1540 b65f 60f8 5485 1b40
000003a0: bfe5 0895 f87c 0bc0 3616 788e e060 08c0
000003b0: bf27 807f 99b1 0e40 b16b 97c9 2834 1f40
000003c0: e1f8 0288 9371 20c0 2b08 5f20 2589 0740
000003d0: 4c89 053d b6bf 07c0 9469 1589 7538 dc3f
000003e0: b32a 985e 3f06 ebbf 7814 4c57 b414 ef3f
000003f0: f925 e513 2a4d 1fc0 fb2f f8e6 c9e9 edbf
00000400: 65b9 a233 16ce 2540 31c1 33f1 7f23 1bc0
00000410: fff0 59e4 6dca 11c0 cab3 3563 4ab2 13c0
00000420: 89fd 11fa f659 eebf fb36 2c73 d7b1 1cc0
00000430: fedf 376b 36f7 0240 2030 b269 3d51 d23f
00000440: 8211 886a 4c6b 2440 7ed1 6cbe 86bb 07c0
00000450: efdc 71ac 6681 0f40 1c63 da3f 155a 1240
00000460: af08 591c 8aaf 2840 e5db edff df5f 1bc0
00000470: a9df ea31 bed3 2440 7f02 08df b6d2 eabf
00000480: 718e 5a74 7806 f43f 974b c2aa 2947 2240
00000490: 90ac 77be 442e 0a40 140c 82aa e8ea 2b40
000004a0: 6bd6 48f5 4249 0b40 820b ac23 31e4 11c0
000004b0: 4f57 b431 510e 0240 6a7d c835 ef3e 19c0
000004c0: b10b 0b2f 16a9 2440 7794 95c1 9340 e4bf
000004d0: 357b 8ff4 17f6 ffbf 90dd 7f1b f2c8 f8bf
000004e0: 696e cc56 d5d6 f33f b96c 6e7a 6831 24c0
000004f0: 8527 afcc 68e7 2640 4986 0b8c 9727 f73f
00000500: 7a24 3a68 ca98 2640 ea9f f48b 265f ed3f
00000510: cecc 9822 98ef 23c0 fb6b f86b e0ef 0440
00000520: 3f5d 1d92 a70e 0a40 36e0 30c3 5bd6 f63f
00000530: 9e99 a538 9fa2 05c0 67fb 17b9 58e3 14c0
00000540: 6c23 41b8 f996 2540 78bf ad86 8046 1340
00000550: 5b5a 08d4 55fd fb3f 2b0c 5701 9061 0e40
00000560: 92a8 6de4 bd13 2540 1b67 94c4 acf4 fa3f
00000570: bbd0 abd9 072b edbf 734e f529 8048 20c0
00000580: 03e9 51b1 c966 2440 2091 1d11 77a2 d0bf
00000590: cd07 1420 e41c e1bf 4115 6036 bbaa dfbf
000005a0: 829e df3a a821 02c0 3f12 1b59 ecff 76bf
000005b0: 615f dd72 9f42 2740 c308 09c3 982c fd3f
000005c0: 805e c203 61ef 25c0 2eb6 0be7 c3a7 1140
000005d0: a133 4a12 d87c 06c0 d6a8 a291 519b 2540
000005e0: 35c3 c171 835c c2bf 4430 7093 50eb f23f
000005f0: 42fc 576a 6260 0640 f5a2 0e9c 5ed5 debf
00000600: 6d79 69a2 ab84 27c0 7322 8260 e87f 03c0
00000610: 7a5d a411 2d98 2440 aa1b bad9 88ab 2040
00000620: 3dcb 5cba f972 1d40 18ab 596c 22f0 1040
00000630: 6d98 25fa 07a6 2540 3999 d738 5734 21c0
00000640: bc0e ade6 5c9a 2140 dfc8 a5ea c433 dc3f
00000650: ef68 3b9c 9d12 0440 c384 96ca a61e 1e40
00000660: f689 43b7 e1f1 f6bf 1239 ad34 be32 0f40
00000670: 9fcf 98f2 4020 0240 5ad0 4e64 f02d 0440
00000680: fff0 cf64 75cd e3bf c36d 54fc df6c 10c0
00000690: 94cb 8055 ece4 0540 e57f 5540 c379 fa3f
000006a0: 5eb9 800a 04de f0bf 4274 4710 2d1b febf
000006b0: 411f e828 af19 07c0 1747 d34b 8366 2040
000006c0: 518b b3ba 7520 2440 e864 2538 d88f f53f
000006d0: 4527 3aee 16b8 2740 1888 2c5e f002 2140
000006e0: 6268 d04c 82c0 10c0 5936 e253 8ed9 2240
000006f0: 3a3b f9f6 64b6 2040 ce73 73ff 28e4 19c0
00000700: 3fe6 64a5 1f45 f73f f901 7bea 5e9f 23c0
00000710: d2a2 4066 4b02 12c0 5a05 0357 19ba 0b40
00000720: 9fd2 2a55 b7e9 2240 7a44 7f64 4aff 2440
00000730: d66b 0aff 9505 0240 ca21 e3e0 052e fd3f
00000740: cc18 01c0 af8b 0640 0bd0 b543 4b80 2140
00000750: a0c0 6fed a80a ea3f 6dad 5d8d 7587 1e40
00000760: c28b cbd2 2d7d 2840 0ad8 b0f3 42bd 09c0
00000770: dd6d 2e41 5852 0540 1b04 dbd8 2663 13c0
00000780: 0760 c121 5807 2a40 bdf0 81de 3149 e5bf
00000790: b340 de0c 5e45 0140 acec 5389 a457 f33f
000007a0: 49ba e8cf b8c9 2340 8944 1af9 ba4a 2340
000007b0: 5f8f 1662 91da 0bc0 ef3a 3796 7f7f 2840
000007c0: 5d5c 0487 bdb6 0240 63f5 ac12 d403 2540
000007d0: 9322 ca20 1d45 2640 0d8e a182 7170 00c0
000007e0: 119a e0a7 3f6a f53f 8a1c d9df eaa3 22c0
000007f0: 2d05 6d2e 1ea6 0bc0 2232 9a50 f98d 2540

encoder.l1.2.weight f8 [32, 256]
0.4437932345999026 0.07591058467117129 3.2402988519728133 0.1538188500071426 0.012477733326318262 0.9543110341834047 0.2836143395350692 0.0975883233004302
0.003844890406466171 1.1493676952194847 0.4940239961816341 0.27004352843107826 -0.5424200784776164 0.783848858470237 0.29984092481764263 -0.16771605752204138
-0.11224120057521994 -0.218233108690589 -0.06228997902641575 0.8094810550488163 0.15788811485538795 -1.4952230316666308 -0.2632597513794348 0.4831746054643434
0.2138601102631873 -0.024237076613246412 0.0657071291190887 -0.023736180452192873 0.34276213576989767 0.012998164669422609 -0.04374946815909417 -0.04858844256815774
0.06792150826816097 0.08841981005082912 -0.18743217913140123 1.2272816599153566 -0.017193576375334866 0.07767414192382215 0.02628245475068222 0.016593819428768978
-0.20420838005226563 -0.07310851590589569 0.34716368855801183 0.024189669330323044 -0.004881593242463041 0.06078107133765439 0.1047862420735295 -0.20475511967696922
0.11925573672572118 0.0015706692746068184 -0.1941547228598701 0.005968875778351734 -0.06101189008622215 1.2885603782475243 0.11740013940252016 -0.0034824836798992708
0.03663210772339956 0.02441187852209735 -0.002095967199112622 -0.11789932582110828 0.04460617818917786 -0.07097796461774013 0.23903749663216273 0.5672176347013026
0.01489456973623979 -0.0326513494446395 -0.005529360779094013 0.4635433000974988 -0.028654352890417536 -0.020407675660396845 0.002899230408237238 0.02886108971324922
-0.026117483327162287 -0.33133579007029934 0.0030247319764035376 -0.05809632199218517 -0.011313418556287067 -1.3907782736933456 0.016122914372078308 -0.3372758636972952
0.4634975554852392 0.07741476519618669 0.21894116479183046 0.0162733738810798 -0.009424368891910518 -0.00477715108775463 0.737794105545946 -2.154100294195336
0.07885438559188139 0.06311264739787312 11.037961850973154 0.1901372085528117 0.06056330371465491 -0.028477888170192953 0.006551916700956528 -0.028464840897290143
-0.5790446654446761 4.306794640280506 -13.08590514171324 0.124064389681086 0.08807054467753617 0.07823242599743593 0.04975779404398089 -0.2588453077151939
0.10858739664594312 -0.37200970834283836 -0.40722609175804964 0.05705976199263942 0.7939738646389278 0.26555260959739657 0.03261988211417773 0.014666230224014877
0.7014141355970369 0.2028425032036435 -0.004593827624219806 -0.18337321980796792 -1.3550597165952714 -0.003216833117027537 1.0098702192254956 -0.005667922167614813
0.14531395506935138 -0.06698846157258481 0.05630101244292726 0.7137107920710065 0.8817395594697883 -13.639529134353621 -0.05756520898397629 0.4854599452649756
0.053616196510211975 0.1358619818986878 0.05445300826773518 0.06327057497825768 1.6339161837598173 0.16133490655331403 0.19847244897978397 0.9333572735761102
-0.05720266852814663 -0.0059000935618056735 0.14544456012693074 -1.6058586812575715 0.049175395955168705 0.12929279520014875 0.24908613200898977 0.64297118819015
0.009926966225252586 -0.2875969827949705 0.8035190061229749 -0.008972954667013118 -0.0015208803175414288 -0.3742734602350793 -0.0021784070684580633 -2.0198019269218945
-0.09248525666666538 0.14050288857976698 0.027622513069992714 0.3160913187455321 -0.26344707200155554 -0.012359596186451632 0.09627727277243271 -0.00908619860233345
-0.055950494234522016 -0.036125415104524834 0.16822365575406875 -0.42797649834152074 0.02914238925403128 0.5855067508837286 0.030878203865112128 0.030831208337661176
0.08171408651232594 0.2733932440938254 -0.17440258784827206 -0.0034067780416715955 -0.04392210502381266 0.671814925058793 0.09808914343734984 0.021981317609114016
0.14182606711396376 0.23897146319887516 0.09207561618349756 0.9519347724604307 0.25834280120280795 0.20745645507289912 -0.08113810973122712 0.0073726203773931895
0.07647987630370906 0.07611216830787897 0.0690261873404283 0.21703618783203923 4.260810909217183 0.3602104801187067 -0.02488303120024015 0.0054416881124700976
0.9526793031552547 0.004374188434850576 0.03595161053161412 0.011559481392279011 -0.09997954002461304 1.6925828860008927 0.0028894993777248633 0.35561080563763675
-0.07674504111049794 0.03497719604264359 0.08435562911537818 0.4100944993390711 0.017673959513406622 0.07036845284001478 0.07167385248526707 0.06884701023468731
-0.6562649919045432 0.05710486010504352 0.10833370311478144 0.023008055179126782 3.2395141595977823 -0.11069952088771531 0.0024096490260701454 0.0740170201457555
0.033638353172334594 0.3712891933280552 0.014787082040570882 -0.09017235087994202 0.0010170579259570847 0.03525216477643218 0.2542375567636065 0.7083446201118586
0.7509415320296138 0.2548800074608876 0.16047493398821014 -0.016305192899353307 2.838814084316764 0.033893965682316986 0.013024735387756833 0.36210674597827325
0.11073108201363857 0.013526949892125967 -18.142571726166338 0.07930996942371794 -3.6418043480933084 0.5289825406022446 -1.0994328370080573 0.03697686835783873
9.700797989267414 -0.45257845699928156 0.4056123936479574 0.23097064423433755 0.11127105986927974 -0.015746581800801743 -0.0558634463622188 0.15440441372437333
-0.31018262334521807 -0.12436417860755805 -0.07096688960632021 -0.055715439473171195 -0.1461656610429847 0.10369091874647735 0.02167171607331798 0.018386971474803882
00000000: 92ba 32bd 1b67 dc3f 383a 9546 e06e b33f
00000010: a8ea f3cd 21ec 0940 2dfe 2409 56b0 c33f
00000020: ac99 8404 ed8d 893f fcf2 404b b789 ee3f
00000030: 6cb4 3ec2 bc26 d23f 8ffc 0b61 8cfb b83f
00000040: e3e2 add1 517f 6f3f cdbe 6061 cf63 f23f
00000050: ab84 c2d2 169e df3f 48e8 c6a6 6448 d13f
00000060: e929 385a 815b e1bf 085f 8433 4a15 e93f
00000070: e106 86fd 9730 d33f d21d 0943 b877 c5bf
00000080: 1afe bbdd d6bb bcbf cd80 5d00 10ef cbbf
00000090: 3fef 92dd 78e4 afbf da51 45d0 44e7 e93f
000000a0: da90 dd80 ad35 c43f 16bf 53fc 6eec f7bf
000000b0: e0c6 a16d 3fd9 d0bf 1d88 2e2e 55ec de3f
000000c0: 7cea bfa1 c45f cb3f ad3f 9ead 9ad1 98bf
000000d0: 8f37 aeb2 2ed2 b03f abb3 181b 4c4e 98bf
000000e0: aa15 dc98 d0ef d53f 0138 4e21 c89e 8a3f
000000f0: 3ce1 eb8d 5466 a6bf 7e6e 9697 95e0 a8bf
00000100: 3ded b4d0 4d63 b13f c1a1 7c40 aea2 b63f
00000110: 552f cb13 c7fd c7bf a412 0518 f2a2 f33f
00000120: 11f1 ee60 319b 91bf 07c4 4edb 73e2 b33f
00000130: 987c 73ae c9e9 9a3f 5196 0c5f f8fd 903f
00000140: 2162 f20c 8023 cabf 9dfa df5c 3db7 b2bf
00000150: f4c8 2d0c ee37 d63f 98fc b23a 2dc5 983f
00000160: e292 42b5 b8fe 73bf fbdd 3853 b21e af3f
00000170: e1cb c66a 45d3 ba3f 3fbf 596f 6a35 cabf
00000180: 7eec 1841 8b87 be3f 3886 b44a ddbb 593f
00000190: e706 86dc 0fda c8bf a6c5 30e4 d172 783f
000001a0: f7c8 2c51 f33c afbf 80e9 b77c f19d f43f
000001b0: 2198 477f ef0d be3f 61dc 7230 4c87 6cbf
000001c0: 44a4 4f91 71c1 a23f dc9a 8b6f 6dff 983f
000001d0: c690 5bd2 8f2b 61bf 7f42 9f74 a62e bebf
000001e0: 6b4c 0bf9 9ed6 a63f 2b14 c5a4 9c2b b2bf
000001f0: c2c3 46db c798 ce3f d135 d898 a526 e23f
00000200: b1ba 3d4f 0b81 8e3f caea 117c adb7 a0bf
00000210: d584 6c7b f4a5 76bf 06b7 8c84 b1aa dd3f
00000220: c7a4 3512 9157 9dbf 4bf3 31ee bfe5 94bf
00000230: dfac 2e79 20c0 673f e903 c8f1 c28d 9d3f
00000240: ced7 f9a2 8abe 9abf 1429 9607 9b34 d5bf
00000250: 31c5 5e9d 52c7 683f 2fda f215 cdbe adbf
00000260: 7246 a455 7d2b 87bf 0d01 18b8 a040 f6bf
00000270: 92f2 c677 8682 903f a3d7 1381 ed95 d5bf
00000280: 6c71 a5a6 f1a9 dd3f 8dc1 be3c 74d1 b33f
00000290: 30b8 439b 4306 cc3f f092 75a2 f7a9 903f
000002a0: 27d9 6861 154d 83bf 5010 0abb 3491 73bf
000002b0: 8e0b 5062 029c e73f ccfb 5eef 983b 01c0
000002c0: e767 430f cd2f b43f 2eb0 8984 2628 b03f
000002d0: c4d9 58bc 6f13 2640 e857 3e82 6a56 c83f
000002e0: c195 9541 2702 af3f e986 66b9 4e29 9dbf
000002f0: 59be 4ebf 2ed6 7a3f 1675 f522 e325 9dbf
00000300: ba42 a0ad 8887 e2bf 165f ca5f 283a 1140
00000310: e86e 3cc2 fb2b 2ac0 6f49 4710 afc2 bf3f
00000320: 4884 218d ca8b b63f 664e 254f 0a07 b43f
00000330: 47ae 4784 da79 a93f 3207 d7e8 eb90 d0bf
00000340: 9b23 5a35 62cc bb3f 9720 c8ce 01cf d7bf
00000350: 1f70 8b06 fe0f dabf 8313 5ae7 ef36 ad3f
00000360: f817 d0e0 3b68 e93f 48a6 655f d0fe d03f
00000370: 0b71 c29d 8db3 a03f a78d 5719 5409 8e3f
00000380: 9cec aa0e fc71 e63f 5ccc bf3e bef6 c93f
00000390: 9c40 8d36 fad0 72bf e3ca 040f c678 c7bf
000003a0: a275 ee18 53ae f5bf 932c 1921 305a 6abf
000003b0: 1772 ccac 6d28 f03f 0cf3 8945 3f37 77bf
000003c0: 7f6f 56ce a599 c23f fce1 a9e3 2726 b1bf
000003d0: 9c1e 597e 7cd3 ac3f 4de9 d703 b8d6 e63f
000003e0: d863 70e1 3537 ec3f a7c6 d95c 7047 2bc0
000003f0: 8b79 f2e3 2f79 adbf d695 1b97 c611 df3f
00000400: be33 1805 9573 ab3f 5c26 83e8 ec63 c13f
00000410: d683 5bc3 43e1 ab3f e5aa 541a 8032 b03f
00000420: e874 da4b 8524 fa3f f7c2 ac49 9fa6 c43f
00000430: c739 c392 8b67 c93f a0c7 af12 10de ed3f
00000440: e506 250d ab49 adbf 18bf 424e b22a 78bf
00000450: b829 9066 ed9d c23f bbfb 5fdf 98b1 f9bf
00000460: cc64 ca7a 842d a93f be1c 7f93 aa8c c03f
00000470: e4d0 6eeb 0de2 cf3f a980 3150 3893 e43f
00000480: 86a3 49da 9654 843f 5017 e22c fd67 d2bf
00000490: 3a67 a07d 6db6 e93f 511a bf96 6960 82bf
000004a0: cdea 65ce 08eb 58bf 651b deab 18f4 d7bf
000004b0: fa91 b963 73d8 61bf f337 a4e9 8d28 00c0
000004c0: aed8 be20 1dad b7bf e7c8 b8a7 fffb c13f
000004d0: f667 1379 1349 9c3f ccf0 2315 d73a d43f
000004e0: 1750 9e1b 51dc d0bf b0f4 4ceb fc4f 89bf
000004f0: f9d9 e799 a0a5 b83f a061 bcee c89b 82bf
00000500: 8e57 dd0d 8ba5 acbf d151 dbc8 077f a2bf
00000510: f54a f04d 5a88 c53f ea56 f589 f763 dbbf
00000520: 4eed 17a3 80d7 9d3f 2c40 54a7 78bc e23f
00000530: 4c1d 0a2f 899e 9f3f 4092 065e 3792 9f3f
00000540: 7965 31e1 36eb b43f 0d24 9560 467f d13f
00000550: 42b3 92f1 d252 c6bf 5f3c c208 88e8 6bbf
00000560: 5029 4c49 f57c a6bf 5cf3 8203 827f e53f
00000570: 3ef4 27bf 5e1c b93f 9a3b 0441 4582 963f
00000580: 71c5 fc47 5b27 c23f 63e7 8eed 9d96 ce3f
00000590: 4765 4480 4492 b73f 6b91 74e9 3f76 ee3f
000005a0: 80ad 943e b088 d03f c4eb f0e0 ee8d ca3f
000005b0: ce3f c197 77c5 b4bf 18f4 81b6 c032 7e3f
000005c0: 5ccc 8667 2f94 b33f c3c1 b549 167c b33f
000005d0: 6fd8 3141 b3ab b13f 67c0 6480 d7c7 cb3f
000005e0: 7e1c d603 120b 1140 cc52 f241 b00d d73f
000005f0: 7ee8 ebf4 ef7a 99bf ca42 a607 064a 763f
00000600: aa17 544e 597c ee3f 6339 6344 abea 713f
00000610: 5291 f1de 3f68 a23f f8f7 4e54 7fac 873f
00000620: 0ec2 ac56 4298 b9bf 434a d2ca d114 fb3f
00000630: f351 882a b8ab 673f db57 14d3 53c2 d63f
00000640: bf23 b321 90a5 b3bf 4fc6 37f2 87e8 a13f
00000650: cfb7 489c 5498 b53f 4b92 bbff fc3e da3f
00000660: d354 6758 1f19 923f 0e34 9ebb aa03 b23f
00000670: 8b0d 67b4 3759 b23f e8a6 6229 f59f b13f
00000680: c5ab b770 1f00 e5bf ca08 3025 d93c ad3f
00000690: 3abc eeef c1bb bb3f ccd8 2772 6c8f 973f
000006a0: 1136 5366 86ea 0940 7246 e5c5 cd56 bcbf
000006b0: 5fbe 6078 66bd 633f af96 df88 c7f2 b23f
000006c0: 676f 88d5 0b39 a13f 26f1 acbf 33c3 d73f
000006d0: fde1 238e b048 8e3f c864 0802 8915 b7bf
000006e0: 258a eda1 d9a9 503f e9ec a75d 920c a23f
000006f0: 8ebc ed99 6d45 d03f fcb1 3556 c2aa e63f
00000700: 7ccf 2889 b607 e83f 4bb8 1c3c f44f d03f
00000710: c14f a750 718a c43f e7e0 07f9 4eb2 90bf
00000720: 7b84 9c28 e4b5 0640 e54b 46c4 8c5a a13f
00000730: 7e5a 3c64 b6ac 8a3f 79cf e8c5 c12c d73f
00000740: a836 e647 df58 bc3f f0e2 357b 04b4 8b3f
00000750: fc37 a594 7f24 32c0 d9ef eb7c a84d b43f
00000760: 4eee 6b51 6a22 0dc0 0e55 01cb 6ced e03f
00000770: d691 f1e2 4697 f1bf 4c5f 9cd0 a1ee a23f
00000780: 2003 7afe ce66 2340 5ae8 eba1 0bf7 dcbf
00000790: 107f 64af 8df5 d93f b048 a931 7290 cd3f
000007a0: 863b 219b 427c bc3f 71d4 6e37 df1f 90bf
000007b0: 09cd 5536 229a acbf 3df1 a619 86c3 c33f
000007c0: 5c88 c337 08da d3bf 44d2 e9af 54d6 bfbf
000007d0: ad3e f5d5 e22a b2bf a7cd d6ec bb86 acbf
000007e0: e129 fd6e 8eb5 c2bf 3c87 e8f0 7c8b ba3f
000007f0: 83e4 213f 1c31 963f ad87 a0c4 08d4 923f

encoder.l1.2.bias f8 [32]
0.2836430545778438 0.02373611296920058 0.5533050788856233 -0.3136075324897503 -0.6031092438732286 0.9793832846249155 -0.3534611827442247 -0.13406729206093337
0.37087258424482805 0.793602267447024 0.8527471795969181 -0.0697264726822059 0.38999786183812296 -0.06690464268393656 0.5916218761370613 -0.18545756606712677
-0.08526605550834077 -0.26586412226822664 0.1551182628332236 0.3750870444228196 0.2727537994517695 0.5275369465820758 0.4588939997187347 -0.8080812290663982
-0.36808538029437876 0.19600154699940484 -0.14970082241811875 -0.1573307025246464 0.0312766950452942 -0.1981786553791718 0.5083326814122884 0.10196430934769558
00000000: 7a8f c932 3527 d23f ef5c bf93 474e 983f
00000010: 50c8 50da acb4 e13f b1a7 f453 2512 d4bf
00000020: cc39 cbc1 ab4c e3bf 7cd1 369d 1b57 ef3f
00000030: e5ae 12a7 1b9f d6bf f8b7 6ef5 1d29 c1bf
00000040: 7221 145d 60bc d73f dcec 1695 3065 e93f
00000050: 0400 0474 b449 eb3f 19e4 d517 98d9 b1bf
00000060: d3b2 8697 b9f5 d83f ce2f 47a4 a920 b1bf
00000070: 3e6b 3300 91ee e23f baeb 86d2 12bd c7bf
00000080: b803 de07 ffd3 b5bf 0698 94f3 ea03 d1bf
00000090: 84c5 f04c eada c33f 7cc1 3c17 6d01 d83f
000000a0: 7053 205a cc74 d13f 0c0e a029 95e1 e03f
000000b0: a8d8 47f0 845e dd3f d740 6b2a cddb e9bf
000000c0: 4e01 a0fb b58e d7bf 03f7 2925 9416 c93f
000000d0: 032d 3c84 6529 c3bf ff01 0097 6923 c4bf
000000e0: f368 b1bc 7f03 a03f c034 cf0d eb5d c9bf
000000f0: a6eb 44e6 4244 e03f bdf0 013e 551a ba3f
