notebooks/models/autoencoder-V03.pt (torch, 202831 bytes, 4 tensors)

weight f8 [256, 64]
0	0x3f943198116673fa	0.019720436155342448
1	0x3f5e8db19b29dbb0	0.0018648371157305825
2	0x3f88819df0b73bd6	0.011965974720537103
3	0x3f9b3dd98358bf90	0.026603125230564795
4	0x3f8671b335077752	0.010959053092786473
5	0x3f9067aba870c936	0.01602047172145512
6	0x3f866cccb206f8f3	0.01094970625206002
7	0x3f807e1cfee5aafe	0.008053041962474247
8	0x3f810d956c214812	0.008326690065732865
9	0x3f9e4f3fcb72dd12	0.0295991866994117
10	0x3f8066bf1bd27091	0.008008473431168535
11	0x3f51910bb243d612	0.0010721792432922856
12	0xbf63ab4fafef6d8f	-0.002401023520617058
13	0x3f8cd381d19b84b5	0.0140752927868014
14	0x3f59e316ab39203e	0.0015800210357088808
15	0x3f8fca682dc8452e	0.015522779366650665
16	0x3f92ebaa9f00296c	0.018477121309879704
17	0x3fa1787e145c64ea	0.0341224098066933
18	0x3facbf0058721ba1	0.05614472465190735
19	0x3f8e54af983325a6	0.014809963066357689
20	0xbfe9ad33c172941e	-0.8023928430817511
21	0xc0134384628120f9	-4.815934695369145
22	0xc00121f2a175908d	-2.1415760625841984
23	0xbfeff99048185b39	-0.9992143066509477
24	0xbfdce80fa903e677	-0.4516638899363907
25	0xbfcb61cfc615ee9d	-0.21392247364189113
26	0xbfbcbcaff59bf027	-0.11225414034191826
27	0xbfa225913757afc4	-0.03544286537712041
28	0xbf890c26432d87a4	-0.012230204510789218
29	0x3f70b06c88107ed8	0.004074500991037865
30	0x3f9038aab1d18090	0.01584116659466922
31	0x3f908a429176d1c0	0.016152420166422266
32	0x3f83950e34722f88	0.00956164453079801
33	0x3f83dcb0244c8f31	0.009698272807845494
34	0x3f7eca3e3a57d4ee	0.007517092778916308
35	0x3f9aa26be50aef33	0.02601021371331953
36	0x3f86a2d4f18c6f5c	0.011052764531590924
37	0x3f964c7cbf1c2c9f	0.021776150860244866
38	0x3f83aebdb225ffd2	0.009610635756644035
39	0x3f9b54588ec06acc	0.02668894168173601
40	0x3f804411c0afd8bb	0.00794233197482829
41	0x3f87c5531f59b5e1	0.01160683574127125
42	0x3f437d14dffbe2a8	0.000594744866218984
43	0x3f96d10941b8acc4	0.022281784664454532
44	0x3f91f6e70b2c4227	0.017543420845926996
45	0x3f885949a4d005ff	0.011889052717381608
46	0x3f928a051aae984f	0.0181046292815597
47	0x3f87b349eecbb5f4	0.011572434997527893
48	0x3f9050bc43069e40	0.01593298110097252
49	0x3f967e4921987dd8	0.02196611659576128
50	0x3faa3c1dfef0e6a4	0.05123990761826505
51	0xbf6cf010e9d89d8e	-0.003532441171745843
52	0x3ff36452bc75c125	1.2119929658620745
53	0xc01344b966315114	-4.817113491783193
54	0xc00123f5752ac0b0	-2.142558017127236
55	0xbfef9f258a5fe958	-0.9881770804052321
56	0xbfddb536bdec3d14	-0.46418541476391906
57	0xbfcd412f5121efa9	-0.2285517831950277
58	0xbfbe1563b6aeb5ba	-0.11751387796422011
59	0xbfa91430a94e5fbf	-0.04898216311192937
60	0xbf9cf2e3e90682d8	-0.0282703028657377
61	0x3f8d43871831c44e	0.014288955140928785
62	0x3f6ce1a4614b6516	0.0035255632923109166
63	0x3f8283c4af4d1e74	0.009040390586633175
64	0x3fb17937a39b6fbf	0.06825587982478874
65	0x3fb59aa6ee27e285	0.08439105333662596
66	0x3fba360859825b29	0.10238697228701867
67	0x3fb6590cea7c591b	0.08729630207776433
68	0x3fbac4821ab150c0	0.10456097747493498
69	0x3fb41a866dc8c809	0.07852974109917467
70	0x3fb025ae5126771d	0.06307496529776953
71	0x3fb4f263f8206072	0.08182358558440386
72	0x3fb32ca10a8ab2ca	0.07489973552101073
73	0x3faf87c6252d2602	0.06158274844944957
74	0x3fb21e456c0e62d6	0.07077440155115808
75	0x3fb5d92eed7110c0	0.08534520432391712
76	0x3fbaee2772569927	0.10519644299947527
77	0x3fbc0953075ea491	0.10951727800297052
78	0x3fb6c7693220143b	0.0889802691818468
79	0x3fb9e005c74e2600	0.10107456317759755
80	0x3fb0fec1dab9234e	0.06638728704377891
81	0x3fb3701030b94be9	0.07592869939371351
82	0x3fbb7e38df000040	0.10739474720321684
83	0x3fba9adbbc89962b	0.1039254508301261
84	0x3fbb5d4eb3ccff56	0.10689250840823425
85	0x3f8ba26e6b376e63	0.013493406912792943
86	0x3fbc9682da4bdf64	0.11167161778928186
87	0xc00f123f26e36736	-3.883909515204233
88	0xc0093dd86a0c8b3c	-3.155197933681306
89	0xbff94000db42240f	-1.5781258168010515
90	0xbfea8b5c20f71b13	-0.8295117038586305
91	0xbfdc077fe2c6242a	-0.4379577364530315
92	0xbfc368e73a795ac4	-0.15163889269998354
93	0xbfa1953adcfffaf1	-0.034341659047631874
94	0x3f9861719e1b655c	0.02380921866902007
95	0x3fa8485479fbbd9a	0.04742683400206289
96	0x3fb909b1e573312a	0.0978041825466717
97	0x3fbb30c737157ad7	0.10621304602453151
98	0x3fbb949591fc8879	0.10773596586344238
99	0x3fb488b80cadde4b	0.08021116551923872
100	0x3fb7b263f245c317	0.09256577172142176
101	0x3fb945edad0cd342	0.0987232730374901
102	0x3fb2969defe08a5a	0.0726107321393469
103	0x3fb6800c742fb757	0.08789136730748957
104	0x3fb77b00e11fa75a	0.09172063347037121
105	0x3fb7ab7bc54c5b71	0.09246038023807814
106	0x3fae4e73372e235d	0.05919227646433598
107	0x3fb594b10c5aeb40	0.08430010368003327
108	0x3fb7261819971ac3	0.09042502045404448
109	0x3fbd8cac455030a8	0.11542774860589822
110	0x3fb6ad20662fce78	0.08857920164865074
111	0x3fb9046b9112027f	0.09772369663006407
112	0x3fb82628e2b678a0	0.09433227095584806
113	0x3fbbc5c59288a396	0.10848650767787968
114	0x3fb25fb665d1d48e	0.07177295671302117
115	0x3fb7fafa2d43e3fb	0.0936733589659439
116	0x3fb802cc85f189e6	0.09379270811181292
117	0x3f9374e8fb02b69c	0.0190006640629493
118	0x3fbff5a09f4ab040	0.12484172715147768
119	0xc00f37b6d1ac0a4e	-3.902204168379547
120	0xc0094a562a6ff91c	-3.1612971606656526
121	0xbff98b7aa0374da4	-1.596552491992818
122	0xbfe9a9447b5e03cc	-0.8019125375286591
123	0xbfdc24bc076a1e7a	-0.43974209522318797
124	0xbfc1d881c4911559	-0.1394197664068695
125	0xbfa6d5612d37754f	-0.044596707124336825
126	0x3f9fda32cf2b9a6a	0.031105798620865967
127	0x3fb16f21f221878a	0.06810199891472571
128	0xbf990efb718b5199	-0.024471215062321503
129	0xbf99b73976f0b0cd	-0.025113008389028125
130	0xbfa2c7427f18ba9d	-0.03667648126098764
131	0xbfa917cb3bc378ff	-0.049009657903058106
132	0xbfa6109cee4f6316	-0.04309549721774013
133	0xbfa18e0e6999dadd	-0.034286928549524844
134	0x3f7c5a6eec7c5f05	0.00692218141173107
135	0x4024578d926f6cae	10.171001983739497
136	0xc018623d8a6a3cd1	-6.095937884077288
137	0xc00abbb51a55c946	-3.3416540200643423
138	0xbffb6c23c6d180e0	-1.7139013067572293
139	0xbfeba6b2969f9025	-0.8640988294469066
140	0xbfdcee4cd314ec24	-0.4520446835846903
141	0xbfcdedbb046b7b76	-0.23381746021092525
142	0xbfc2261a39e0ab66	-0.14178779436164318
143	0xbfb8ec224f2673e3	-0.09735311920526572
144	0xbfb5ae7c31f4d716	-0.08469368190420953
145	0xbfa89d1acac5d0b4	-0.0480736134076393
146	0xbfa62a548638f112	-0.04329170359094027
147	0xbfa5fda741dbe8af	-0.04295084647124391
148	0xbfa691ac4024aad2	-0.04408014567373687
149	0xbfa5fbb4ad787fae	-0.0429359876400207
150	0xbfa59f427d8e7580	-0.04223068030044441
151	0xbfa52521774fec45	-0.04129890996406308
152	0xbfa6944a0b74fdad	-0.04410010709625154
153	0xbf9d49dcb3815561	-0.02860207410443161
154	0xbfa6dffd77edba9c	-0.04467765892956274
155	0xbf9d773910667a76	-0.02877511179542088
156	0xbfa48f6ddb1e5db5	-0.04015677737987337
157	0xbfa9b4cfcba4837b	-0.050207608803481706
158	0xbfa791c8ab00ae0e	-0.046034117578838005
159	0xbfa7346a39afff5f	-0.045321769277505856
160	0xbf9edd9411faf51f	-0.03014212951415118
161	0xbf9d06bc2df9a629	-0.02834600477800656
162	0xbf9bd843de6494eb	-0.027192173432145344
163	0xbfa81c3908d1569d	-0.047090322805769726
164	0xbfa4fbf0235cf7b9	-0.04098463470152986
165	0xbfa59427e362c17e	-0.042145964152385126
166	0x3f4ededa5af1ee27	0.0009420934856189709
167	0x402457b1eb3b345f	10.171279288270112
168	0xc01861427432658b	-6.094980063987701
169	0xc00a767315161ae4	-3.3078366896983074
170	0xbffb9d1754fbe283	-1.7258523292240688
171	0xbfeb5d063273913a	-0.8551054940585694
172	0xbfdce17ecdc1b2e8	-0.4512631425230169
173	0xbfce2f7caee03855	-0.23582418955669718
174	0xbfbe849298ecac21	-0.11921039803989732
175	0xbfba009d415baf18	-0.10157187314660765
176	0xbfb47f8fc32ec764	-0.08007143511966103
177	0xbfa8397d3924ffa2	-0.047313607431078056
178	0xbfa81909ee4df851	-0.04706603082648598
179	0xbfa2218b9486f820	-0.035412179833187674
180	0xbfa33dfb85286560	-0.03758226395093334
181	0xbfa3b074c2a67d6a	-0.03845562816718025
182	0xbfa0b97107d52203	-0.032664806562539915
183	0xbfa2c35a7522e7ae	-0.03664667777907425
184	0xbfa3b12a834a8b50	-0.038461044813877465
185	0xbfa246e730877b41	-0.03569719760320434
186	0xbfa1bbc2fc95eb19	-0.034635632832723036
187	0xbfa5dc46465d71fa	-0.04269618615100863
188	0xbfa065970908f943	-0.032025070050155445
189	0xbfa39f2da15dee07	-0.038323808620557336
190	0xbfb05f228327d924	-0.06395164205591591
191	0xbfa72d902277568d	-0.0452694933007197
192	0x3fc9c56a21a35221	0.2013371147392187
193	0x3fc53af42e9cbc7e	0.16586162830342127
194	0x3fc46a2a2a6b9184	0.15948988982485102
195	0x3fc4f63c4a61df99	0.16376451141308904
196	0x3fc8a5b35f0e5403	0.19255678311733967
197	0x3fcd6752802c1d69	0.22971564539350744
198	0x3fc01f6d895e49a3	0.12595910270154062
199	0x3fd8d2303aebb7db	0.38782888177854397
200	0xbffc21d3bcd21d75	-1.7582585693179145
201	0xbffdc34c7627a9ea	-1.8601803412844853
202	0xbfe443285847b2de	-0.633197948858278
203	0xbfc6d77c8ea1eeff	-0.17845112766723756
204	0xbfc1fea785c0ea51	-0.14058393507896708
205	0x3fca39bee1843a63	0.20488725673245076
206	0x3fbc3629999d7292	0.11020145416609697
207	0x3fc41490929eb66d	0.1568775859754398
208	0x3fc4cefbc5dccb0c	0.16256663476232125
209	0x3fc266cb6d40ffd2	0.14376204332984216
210	0x3fc2e77aad856143	0.14768918488221958
211	0x3fc8d7045f62b25e	0.19406180055138383
212	0x3fc0d039daf84d33	0.13135455314532293
213	0x3fc2d58ee6e1ef32	0.1471422793728095
214	0x3fb8c69345907be4	0.09678001831387878
215	0x3fcca5fc0f025fa5	0.22381544812082868
216	0x3fc74c1a79083ffe	0.1820099917390507
217	0x3fce87fb75b54c9d	0.2385248493907043
218	0x3fc4b2f711114846	0.16171158154844728
219	0x3fc843a66e9ea576	0.18956451798775803
220	0x3fc9adb0a2a5fb35	0.20061309758963267
221	0x3fce18c07e99e3b4	0.23513036901183926
222	0x3fc58c416e7b42a1	0.16834276098827153
223	0x3fd2b70e3f913784	0.2924228306554755
224	0x3fca04a567516cfe	0.20326678795650105
225	0x3fca68fb2a9a1e4b	0.20632876949479093
226	0x3fc93f9d6630cab6	0.19725387086653762
227	0x3fc37240df1dfc1a	0.1519242371977903
228	0x3fcb6cc77ca6841b	0.21425717913101114
229	0x3fd189e0d73a34bf	0.27404042261407463
230	0x3fbd8aaa32454588	0.11539710738477116
231	0x3fde03b7b4b29e3f	0.46897690435659806
232	0xbffbe5454fa4d053	-1.7434743033491216
233	0xc006714d4500c219	-2.805323161206854
234	0xbfdfa3b45b929a75	-0.49436673109668244
235	0xbfc96a98fd4da2d6	-0.1985656010467866
236	0xbfc4fd152879b280	-0.1639734695085231
237	0x3fcb39fca8f40170	0.2127071213690317
238	0x3fb4f4ff3076ea53	0.08186335499969148
239	0x3fba521827f03050	0.10281516051344508
240	0x3fc75e527491a887	0.18256598178715341
241	0x3fcce159becfbc07	0.22562715355840643
242	0x3fc26a35b96cacfd	0.14386626771861435
243	0x3fcec6a77afe82cf	0.2404374456937348
244	0x3fc1c5c0f20e783b	0.13884746379057042
245	0x3fc80add8c13efb0	0.18783158626308483
246	0x3fc7fd85fb20a4c2	0.1874244190414967
247	0x3fc8f7011a2e70be	0.19503797319783261
248	0x3fc5ca5fd7ffdf84	0.17023847624636457
249	0x3fcfba1860005302	0.2478666752582726
250	0x3fc394748bdbfbcb	0.1529679949671546
251	0x3fcc5aef9eb4636e	0.22152514695406061
252	0x3fc61404c183ad5b	0.17248591851180603
253	0x3fc9b683a28355e5	0.20088239131170763
254	0x3fc6edf5572f4057	0.1791369128900466
255	0x3fd232d350b8ecc4	0.28435213931124914

bias f8 [256]
0	0x401fa31d4b0ecc54	7.909291432169159
1	0x401e6f9978be9399	7.608983885413999
2	0x400cd27af2d5fb18	3.6027735683013695
3	0x40030db5f05de063	2.3816946772240484
4	0xbfe42469f9417412	-0.6294450634264896
5	0x401ea66152b15fd1	7.662480632854526
6	0x40204329648c4e2e	8.131175176741717
7	0xbfdb0629d3a82b3a	-0.42225118322010113
8	0xbfe7478998238671	-0.7274826022587161
9	0x3fe94989969c6a24	0.7902267400380123
10	0x40011c72bb7d707a	2.138890709653478
11	0x4019f5566839e8a0	6.489587429556337
12	0x402082bd20459108	8.255349167339332
13	0x4022b471bac610c3	9.352430187871851
14	0x3fe32f5f1f0c4ec4	0.5995326620490791
15	0xbff74f35da9d33be	-1.4568384685146465
16	0xc013a227159acaf1	-4.908352220127868
17	0x400c657155f4b92c	3.549532577067245
18	0x3fe603267fbc506c	0.6878845686756114
19	0xc00735ce0c513a9c	-2.9012719118394
20	0x3ffb0584d2c72b2e	1.688847373344014
21	0xc013d5dfae8c1acc	-4.9588610909474475
22	0xc022e7316d4e32b7	-9.451548972888629
23	0x401926ae7d2e790d	6.287774997674444
24	0xbffc4e7fe2d4b3bb	-1.7691649303990136
25	0x401acb9b74f807c6	6.698835208548138
26	0xc004052ce409692c	-2.502527028596111
27	0xbffeea39bf380728	-1.9321839780317962
28	0xc00b4ac1b4142945	-3.4115022724774087
29	0x401e0e6b5d4f5f6b	7.514081438035514
30	0xbf73c938e5bb3223	-0.004830572371883809
31	0x40202311beef5adb	8.068494765012863
32	0xc012ca153e1e814b	-4.6973466592902
33	0x401443e83a29751a	5.066315563946114
34	0x4020f8749f2a5222	8.485264753261678
35	0xc018f1d1ea094b8c	-6.236152321641281
36	0x3ff0aed13ef4a7b5	1.0426800212103278
37	0xc01b606159ec3386	-6.844121365586835
38	0xbfd5247577ee9405	-0.3303502722940837
39	0xc01036e08f52a696	-4.053591002864456
40	0x4021680413de72a0	8.703156109718577
41	0x40208bf5491e0afb	8.273355755727144
42	0xc000a73c5f3de63a	-2.081658119274633
43	0xc0039c833c0187b3	-2.4514221847502653
44	0x40208abffb59bacd	8.270995955184299
45	0x40041ea266524c57	2.5149581903329294
46	0xc020a5426538f7d2	-8.322772181705577
47	0xbfddf5f2b0b4e900	-0.468136475148313
48	0x4022a3f117c27087	9.32019876717119
49	0x4014b5aa7d71136b	5.177408180262186
50	0xc00a20f08201f6d4	-3.2660837323045175
51	0x4020ded04c2cad97	8.435182934240215
52	0x4027a04ac005c2bf	11.813070297911848
53	0xc01ff70fb7eef3bb	-7.991270898780324
54	0x3fe5d22858360d1d	0.6819040034173757
55	0xbfe86ff27f632b57	-0.7636654365572707
56	0xbfbc26f0fcd95e76	-0.10996919797013924
57	0x4006e298e852211f	2.8606432104171655
58	0xbfe97bbbfc94ccda	-0.7963542874553255
59	0xbfb8bb82f749ceea	-0.0966111997348055
60	0x400c8b534cbf7f35	3.568029975503942
61	0x40110c18a0ed4220	4.261812700730417
62	0x40105b1998819fd8	4.088964827453275
63	0xbfe86ed0459a5526	-0.7635270461493391
64	0x4022451d88f76a99	9.13499095936031
65	0x401d0512bac7b98f	7.254954260292279
66	0x3ff97d99bc237f9b	1.5931641911665568
67	0x3fd33ebaee47669e	0.3007037474577404
68	0xc013b24a7339b89e	-4.924112129591007
69	0x4022dcbaa2d465ae	9.431111420085326
70	0xc010d45ba4d925a4	-4.207380843881229
71	0xc00613fcce7c302b	-2.7597595340394228
72	0xbfec7b26ae9ad1ef	-0.8900330934762318
73	0x40145f1fe33240b3	5.092895078603919
74	0x4020ddcd7e6ef18e	8.433208418887059
75	0xbfe0ed7a02b36a5a	-0.5289888432265102
76	0xbfef40e040afdc82	-0.9766694320122868
77	0x402143e92b2dd66a	8.632638310761838
78	0x4017bdf51858ade3	5.935505276119758
79	0x3ff97bd69139caea	1.5927339241867977
80	0x3fe1abb110a719e7	0.5522084546326455
81	0x3ff75d1154aa3299	1.4602216059894657
82	0x4020fc047ae8b212	8.492221680550788
83	0xc0016ad76f28796e	-2.177168720648459
84	0x401f8904114e6905	7.883804579172879
85	0x40212bb883f77a96	8.585392116508313
86	0xc00cef98eb3d344a	-3.616990888409906
87	0xc000061190f3cef0	-2.0029631924061206
88	0xc020e8b406429b9a	-8.45449847758373
89	0xc0125a7c21e338ad	-4.5883641524252825
90	0xbfd66215411ef158	-0.34973651275119755
91	0xbfe1eb0fac70db95	-0.5599439971909869
92	0xbfcf2ce9b7263731	-0.24355813448749467
93	0xc0158c1b65d7c8ab	-5.386823264403726
94	0x401ffda3c1ff3f00	7.997694998935685
95	0x3ffeb07eacbf353a	1.91808955649624
96	0x402351e64ba8eaea	9.659960140580967
97	0x3ff2e8b754501964	1.181815461489884
98	0xc0122e63455199f4	-4.545300562959245
99	0x40216a5515222ae0	8.707680378361545
100	0x401d82243051fe95	7.377091174130006
101	0x4014ae3892bb1fa8	5.17013768450844
102	0x4022a722c8e2d5d6	9.326437261285644
103	0x402116c576e8e065	8.544475284507095
104	0x3fb64b2af95ce6c6	0.08708447063409172
105	0x3fdd4f2afab83aae	0.4579570244249379
106	0x4021da0fa41fc7bf	8.92590058219855
107	0xc015e5e2dee26098	-5.4744982553167105
108	0xc01145093da756d6	-4.317418063486647
109	0xc017f0586a86a848	-5.984712280720551
110	0xc00de8dc90d3f922	-3.738701945752056
111	0xbf71fdc6b889950d	-0.004392410519902923
112	0xbfe0cc161bdfd16c	-0.5249128860873902
113	0x3fe3c37c44edb436	0.6176129671345112
114	0x4021078ee1a40214	8.514761973639033
115	0x3fc44e07e7ff171d	0.15863131359054075
116	0x401f87632b8309aa	7.882214240906629
117	0xc0002881850436c9	-2.019778289023496
118	0x3ffb8ba5f1b5e910	1.7215938035793137
119	0xbff8bc3074fbc479	-1.545944649664561
120	0x3ffdc9f13127ec46	1.8618022842554338
121	0xbfeb2fb0d67826f3	-0.8495716275076276
122	0x40103f7037c5c27e	4.061951514668747
123	0xbfc835e35a033c67	-0.18914453406475504
124	0xc00926095c608d6f	-3.143572541901157
125	0xbff48db5b8fe5794	-1.2845971323308492
126	0xbff77b1e87e6cf40	-1.4675584133774038
127	0xbff49f8665efa324	-1.2889465314748998
128	0x402175d67adfbed0	8.730151977360407
129	0x40029cf993ae034d	2.32664790510936
130	0xc0102576ae41580a	-4.036585543382907
131	0x40027ef97c7d5caa	2.311999294830078
132	0x401b530b7dda2d6c	6.831098524514669
133	0x4004ad58827270dc	2.5846414748358324
134	0x400fb58571117402	3.963633426041725
135	0xbfe48ec5e9c3c16c	-0.6424283567157949
136	0x3fcc8884272796eb	0.22291614448402383
137	0x40238eda668025d2	9.779010012763056
138	0x3fba8a74a530adc4	0.10367516549074823
139	0xc008a49111d9219b	-3.0803548235309797
140	0xc01da43187a59878	-7.410345191461708
141	0x3fd7200e3d949714	0.3613315202113523
142	0x4002d59a4dfb5424	2.354298218948786
143	0x3ffc270821ffd274	1.7595292404268124
144	0xbff0a3b83d681d2b	-1.0399706267069841
145	0x40077f2d9a266167	2.9370986979449074
146	0x40176aa2e316c1db	5.854136989845268
147	0x4022208b87753f37	9.063564522802706
148	0xbfa12be15e21eb32	-0.03353790544584569
149	0xbfd1ad8c2d097d26	-0.27621750257636035
150	0xc0215346003bbdbb	-8.662643439571971
151	0xbff5a41595f7f08e	-1.352559648336896
152	0x4021a661cb21575d	8.82496485502241
153	0x400fd9bb717a0e7b	3.981314550912257
154	0x3fdb0c0b4e9d5782	0.42261011769493717
155	0x401b978d6acc6e35	6.898000401236961
156	0x40054dd8b3a23c1a	2.6630109819302676
157	0x40204018406af439	8.125185025268467
158	0x402335d868bb92cb	9.605166695496697
159	0xbfcef553ca57488f	-0.2418617952340054
160	0xc00d7ff079f9beb8	-3.6874703912106632
161	0x40086ce431a5dc28	3.0531696203938914
162	0x3fe6450485b14643	0.6959250079327791
163	0x401f1666b2ce6f78	7.7718761385439095
164	0xc011ff60b40cef20	-4.4993923313993776
165	0x40042dd7ec3e5986	2.5223844963576907
166	0xbfe177698d3607d7	-0.5458266981152019
167	0xbffda0d591e6aaa2	-1.8517661761531277
168	0x40259243a02a55fe	10.785672192733724
169	0x3fe1847fdca8d7c6	0.5474242505795182
170	0x40215078271124ca	8.657166691630113
171	0xbff284c3cfe33553	-1.1574133034331069
172	0x4020ed64acc63d00	8.463658713530549
173	0x4021379757a36dfb	8.608576525401977
174	0xc014ec036d929d18	-5.2304818268524045
175	0x402697d908fb1de0	11.296577721265692
176	0x40204b7deac67287	8.14744504616216
177	0x3ff9ed3a05e5762a	1.6204166632009085
178	0x401764a2152b325d	5.848274546395797
179	0xc00392629b07cde3	-2.4464771377331416
180	0x3fe31a3cfd9acf20	0.5969529107300993
181	0xbfec9e3ac979493e	-0.8943151412043233
182	0xc00d0b5d39b965b0	-3.6305489072517148
183	0xbf9b29787bc7ba2f	-0.026525385432188905
184	0xc027c209d33b3a2f	-11.878981209735768
185	0x40244b6775610910	10.147273700804845
186	0x3fe064695f67b629	0.5122572768575014
187	0x4002b67c9768d965	2.339104826819652
188	0x4024790e18bed1ba	10.236435673993459
189	0x3fed258f77e1ac98	0.9108350125728917
190	0xc002025fc9381f53	-2.251159259820193
191	0xc003c6ec3b932fc5	-2.472130265645293
192	0x3ff20c08595462cb	1.1279376496733444
193	0x400ae54129ede4ca	3.3619406963085554
194	0xc009cdb59bff3d8b	-3.225444048621005
195	0xc008b77f968231c8	-3.089598823402614
196	0xbfe69d34da7eab27	-0.7066902415730042
197	0xc0116b6ea5e3bb29	-4.35491427614651
198	0x4021e88df23af7be	8.954207963655673
199	0x402074638276c43c	8.22732169818675
200	0x4025e9256b104ad0	10.955363603342818
201	0xc0075794cd8636f9	-2.9177642876228416
202	0x3fe4493e3b5b4a41	0.633940807276595
203	0x3ff1766805f49c0e	1.0914077980648957
204	0xc022a742b72d96b5	-9.326680874171283
205	0xc006b9f450a97a2c	-2.8407980252952907
206	0x4010a28713c07c09	4.158718403456995
207	0xc00940ef3082ea60	-3.156706217761254
208	0x3ffa71608103305d	1.6526799239682284
209	0xc007a05430ed4a4a	-2.9532855818190784
210	0x4027f51966cbc895	11.97870942342369
211	0x3fe1c138b7fb9156	0.5548366158878177
212	0x3fd7f05c93b64868	0.3740455095768369
213	0x401b0e1f56cf99c8	6.763791424199049
214	0xc01098f5ec4b9a18	-4.149375621904731
215	0xbfe50419e42b0347	-0.6567506271750084
216	0xc020c66ee14cd1bf	-8.38756469786392
217	0x4021ff9eac7f6ecf	8.999257460170524
218	0xc00f979b91e22b17	-3.949027194704637
219	0x4019f8e8da34fecd	6.493075761303499
220	0xc01cc3e49a446a05	-7.191301737237613
221	0x401eca194e5c2e64	7.697362160087867
222	0x4016ef817b94af61	5.733892374944703
223	0x3fed7b6a78c49f82	0.9213154181243086
224	0x400baf55de8019a2	3.460613001140886
225	0xbff44e4b11b7a256	-1.2691145603258938
226	0x3ffe0b36b3456458	1.8777377131248354
227	0x3fb0eb3e3e1ce476	0.06608952537944099
228	0xbff79cfae5776317	-1.4758252109078904
229	0xc019a671f51a2cd0	-6.4125440880990965
230	0xc01321643b8a2025	-4.782608919435039
231	0x401e2379bd460908	7.534644086265196
232	0xbfebe0eaab835a74	-0.8712056493630613
233	0x4005d8acb3c8290f	2.7307981534442045
234	0x3ffe1288711efd0c	1.8795246523657765
235	0xbffee007f956c08d	-1.9296951045799091
236	0x3f660040b7e037fe	0.0026856674221624735
237	0x3fd3a620da42ab7b	0.307014668602896
238	0xbff223ff935cd795	-1.133788657794388
239	0x3ff32d63355be052	1.1985809406596855
240	0xbff30cc0607da2c5	-1.1906131524248604
241	0x3fc3803624d8c0e9	0.1523502044597145
242	0x401d669a2d558044	7.350197513907975
243	0xc020694c5f0031e0	-8.205660790227682
244	0x3ffcd771b21ad88c	1.802598663065086
245	0x4022ef59e237d8fe	9.46748263293966
246	0x4023dfde6e8798bb	9.937243894626922
247	0x3ff830856897aafa	1.5118459783213312
248	0xc021552e7f862a94	-8.666370377662396
249	0x4000c8e674628312	2.0980958073199725
250	0x3ffc0eeef38b7a9a	1.7536458505125325
251	0x4006a8865662483b	2.8322874783271152
252	0x3ff64d254ee222f2	1.3938344079380696
253	0x4011a0dc526fe65d	4.407090461807084
254	0x4010206feae91a5e	4.031676931836584
255	0x4004d3139edd42f7	2.6030647670053173

weight f8 [32, 256]
0	0x3f897aa332c1e4bd	0.012440943705075086
1	0x3fa90c4c0a098f96	0.04892194387937747
2	0xbf57486b9d48b8bf	-0.001421074955156906
3	0xbf6c5f88a285d8a5	-0.0034635227822788655
4	0xbfa8491e19a581bf	-0.047432842856099715
5	0xbf5499768cce3d1d	-0.0012572915759142052
6	0xbf9ee7ef73203b0d	-0.030181638147094115
7	0x3f96be53ef26f12e	0.022210418197333208
8	0x3faac873538271d3	0.052310565895115645
9	0xbf8e53025a18d0b8	-0.014806764959850546
10	0x3f7554603287c98e	0.0052074201307611544
11	0x3f7402e49f4e3a0b	0.004885571533022058
12	0xbf83c39c41e9ce6a	-0.009650440942301237
13	0xbf743409023d4e06	-0.004932437124654415
14	0xbf983f1eca5d57e4	-0.02367828474174151
15	0x3fa587c41d3362b5	0.042051437916318525
16	0xbf854982a6fa710c	-0.01039411613538068
17	0x3f979bbef5ab6844	0.023055061096649135
18	0xbfb2cd473e8735fe	-0.07344479824606506
19	0x3f789ae58782027b	0.006007095908103661
20	0x3fa6419424ce2a2e	0.043469075672949095
21	0x3f7d1e5fb0f0bb01	0.007109044831891565
22	0x3f817192a8ab88b4	0.008517404339219638
23	0x3f7db5cfa2049626	0.007253466669032293
24	0xbfc2b5a8da58a9e8	-0.1461688104767085
25	0x3f8ad3c10357fd1e	0.013099201120893297
26	0x3f94594ae5ecf100	0.019871874125997557
27	0xbf65b2253ec17af0	-0.0026484229511390886
28	0x3f90ba4af318a4ee	0.016335650527399652
29	0x3fc81e86273a0d42	0.1884315196549356
30	0xbf93a0df22a68869	-0.019168364038371886
31	0xbfbd7dffe2d8e615	-0.11520385063422396
32	0x3f84b7bb1ffe52b8	0.010116063989508248
33	0xbf9fa819c75c3026	-0.03091469077394051
34	0x3f887f960bacce1a	0.011962101203244525
35	0xbf928867865d0a22	-0.01809846646870928
36	0x3f863b15d1bf5cbe	0.01085488363598441
37	0xbfa33178992ff0e1	-0.037486809444063025
38	0x3f7bb6126c7b34f8	0.006765434234421656
39	0x3f7dfa1b22176c11	0.007318597783036133
40	0x3f698ed49115bae6	0.0031198646253679406
41	0xbf84673c4ac0e461	-0.00996253111962825
42	0x3f20dec6757789b1	0.00012870953172157204
43	0x3f86c211782287a1	0.011112343291021011
44	0xbf4fc1729bddba1a	-0.0009691056836638762
45	0xbf8c23d9a6401037	-0.013740253816656984
46	0xbfa910ced15a2e13	-0.04895635896272323
47	0xbf9a9020d0c644eb	-0.025940430395682872
48	0x3fa2f02fb03cdfd4	0.0369887259134313
49	0x3fa2fc2fa3148851	0.03708027711606177
50	0x3fa1c16fea4bf301	0.034678933478039305
51	0xbfb0bf48de39ed49	-0.06541877198644842
52	0xbf96fca58f115a5d	-0.022448145730175607
53	0xbf57310ba0735a6b	-0.001415501932390174
54	0xbf7984702d1f1ee2	-0.006229818523884241
55	0xbf702ff19d2633f2	-0.003951972774655298
56	0x3f7c657ff82562bc	0.0069327353288250425
57	0x3f79d8c315d14c28	0.0063102360264393545
58	0x3f80a4ffad6a51f5	0.008127210120883336
59	0xbfa4c1c70e806383	-0.040540905494885336
60	0x3f9e959407b43abb	0.029867470712867866
61	0xbf799ccc4b2d585b	-0.006253049871551476
62	0x3f8602ea74968759	0.01074774902628277
63	0xbfa65a7bec226625	-0.04365908868312499
64	0x3f9555cf9d8790e0	0.020835155477372136
65	0x3f955fe3c0d392cf	0.02087360252780251
66	0xbf910c7a64d3d3e8	-0.016649162677783297
67	0xbf3ead8cdf1f3720	-0.00046810807463947175
68	0x3f849f541593a233	0.010069519909351765
69	0xbfa0bbc54073f1e1	-0.03268257533816033
70	0x3f8b7bb93a641961	0.01341957768864849
71	0xbf9535cc40c5ad9b	-0.020713035062198775
72	0x3f8e2a847bc48e00	0.014729533221333746
73	0x3fa2fa621ade8648	0.037066522388397305
74	0xbf928080be14f9d3	-0.018068324662857748
75	0xbf0b36c4357521da	-5.1906454866360466e-05
76	0x3f9d0f5598aeb7a8	0.02837880844497645
77	0xbf944e3a9c767132	-0.019829669761393727
78	0xbf752ee4907e99ce	-0.005171673612414952
79	0xbf984c797e9aa2c2	-0.023729227402017335
80	0xbf97c474534b5d81	-0.023210351547132916
81	0xbf48b69f24a33d02	-0.0007541920724864206
82	0x3f91bc5e4e599189	0.01732013085565279
83	0x3f92a1e797ecde14	0.018195742271215634
84	0xbf93da273985c243	-0.01938687599744272
85	0xbf6b57e0407ff91a	-0.0033378009720756
86	0x3f7d9f89f133f8b4	0.007232226216045291
87	0x3f7a13ff4a8e5a4c	0.006366727095971369
88	0x3f33f17d07710bdb	0.00030431082217690996
89	0x3f95cba9a9fd16cf	0.021284724235804128
90	0xbf9b92c14fe89cb2	-0.02692701387618674
91	0xbf5cba14d5e5f478	-0.0017533496353217253
92	0x3fa2a7e4268d7036	0.03643715830432408
93	0xbf422e28ccfef35c	-0.0005548190329061997
94	0x3f784e7cdfabbdd9	0.005934226787516172
95	0x3f9077177a22bd39	0.016079298810550233
96	0x3f97d8ead5fc5c24	0.02328841143670614
97	0xbfa2e0b665067979	-0.03687067015856633
98	0x3fa6ea583db23f4a	0.0447566581070747
99	0xbf82b8de2f2d32fe	-0.009141670050348601
100	0xbf950023e18d64bc	-0.02050834716951465
101	0x3f658e7760a85e1a	0.0026314097970148278
102	0x3f8bb8fcebc1528e	0.013536430306126303
103	0x3fa16f868718f2c9	0.03405399703158236
104	0x3f862a038cfd166f	0.010822322597628912
105	0xbfaa9db1bd8bbab3	-0.051984362018506224
106	0x3f6a08b5e6e03016	0.0031779816408796886
107	0x3f73201159e20a00	0.004669254091029362
108	0xbf9fa39e0141520a	-0.030897587610825318
109	0xbf7fdf85600a3b7e	-0.007781525608733795
110	0xbf8217d5900c064d	-0.008834522684540458
111	0xbf738fb1a461819a	-0.004775709070685608
112	0x3fa1865de6ed7148	0.034228262366669926
113	0xbf830433844bc8c2	-0.00928535697446298
114	0xbf4a98642e53514a	-0.0008116234936559688
115	0x3f9d752faca1b639	0.02876734248314092
116	0xbfa414438fc65897	-0.03921710138381334
117	0x3fd623e9ce5a03bc	0.3459419741776022
118	0xbfa21c77ec4e4558	-0.03537344703284856
119	0xbf4ba92dc2405310	-0.000844142287408008
120	0x3fa9fd5e0a68bcc4	0.05076116444649295
121	0xbf9f4296ef16bc60	-0.030527456610510817
122	0x3f9e96d7aa682797	0.029872293258484808
123	0x3faa8a2417418e02	0.05183518203628169
124	0xbf87a4550f3b102f	-0.011543907668404156
125	0x3f94d588463acf22	0.020345811163408396
126	0x3f8a7f914af8b9fb	0.012938628292514123
127	0x3f9a56fadedc16a4	0.025722427227285252
128	0xbf7cdc9742d54c6e	-0.007046309340995467
129	0x3f9fc1ada1fc210f	0.031012261401913096
130	0x3f957f0aa3d1109a	0.020992437599730886
131	0x3f86c75bd86466dd	0.01112243417860575
132	0xbfcc483608e94f62	-0.22095370707631462
133	0x3f8b8bbf8cff7f00	0.013450142374437757
134	0xbfb13d0b88ed54da	-0.06733772366472426
135	0xbf92d7c4b0064d38	-0.018401215785684516
136	0x3fa22552d7b6fcf4	0.03544100650059959
137	0x3fa080de96f0e3f0	0.032233196187412605
138	0x3fa1cc859d4ece34	0.034763503506294674
139	0xbfa688fae1b6b02d	-0.044013824513371304
140	0x3f93eced28f7b923	0.01945849001452261
141	0xbf9d0e761bd66ee9	-0.028375478219102943
142	0xbf7d3a01c26ff3e1	-0.007135397790077187
143	0x3f793876502d3590	0.006157362137697034
144	0xbfa37ea602b19b23	-0.03807562621005036
145	0x3f6d1d8d9c439331	0.003554131110023916
146	0xbfa10c2f08a58cf3	-0.033296079450133485
147	0xbf929fa0e188fff5	-0.01818705917889925
148	0x3f86d0206bcbb802	0.011139157571474104
149	0xbf98345faef0cecb	-0.023637290051012266
150	0x3f8079119cadfbe4	0.008043420404417696
151	0xbf91bae8c1eeb59c	-0.017314564549158015
152	0xbf80eb74eaaa9a91	-0.008261598025751911
153	0xbf7f1bcfcd2578f3	-0.007594882701907435
154	0xbf722fa75eb1fe5b	-0.004439977444348732
155	0xbfa12093a9cc686d	-0.03345166633353434
156	0x3f8371204993063a	0.009493114705381268
157	0x3f4f964e18d66a0f	0.000963962682067278
158	0x3f56d48f48484e4e	0.0013934516183597037
159	0xbf685fbfd526738d	-0.0029753443461246255
160	0xbf6588ad6a2b19de	-0.0026286494261029544
161	0xbfa55e163873418f	-0.04173345030870045
162	0xbf82b0dc33807ede	-0.009126396486009932
163	0xbf900b1518bb3616	-0.015667276033857723
164	0xbf62aeef513aff04	-0.0022806810537473483
165	0xbf883d5611d56279	-0.011835739535557043
166	0xbf82430e0ac9d309	-0.008916959480509872
167	0xbfa0807787468f2b	-0.032230124724519214
168	0x3f9083bda2e7b8d5	0.016127551143591063
169	0x3f72d476d53465d4	0.004597152891869755
170	0xbf8826a4a4b24e33	-0.01179245593656395
171	0xbf8aa9dd9896844d	-0.013019305438151241
172	0xbf5a0c68ca517bb2	-0.0015898726790266435
173	0xbf6e0c67170b76d9	-0.003668023441021667
174	0xbf7484144f0758a6	-0.005008773165590485
175	0xbf9a31257e372fce	-0.025578103855693084
176	0xbf978339ebc2767c	-0.022961525931000967
177	0xbf99792b2413905b	-0.024876283718996067
178	0xbf75e616cee98f3c	-0.005346383185130862
179	0xbf6760c64bf21084	-0.002853762911003756
180	0xbf9a8c20c9c61c7c	-0.025925171199130834
181	0x3f949f92e12440f6	0.02013997553973553
182	0x3f9cf36d155ccd4b	0.0282723469055786
183	0x3fa4e3148640f773	0.04079498423423802
184	0xbfa07ff3200884aa	-0.032226178798972896
185	0x3f616db33eabdc19	0.002127504432219773
186	0x3f9d8ea764d30be4	0.02886449387439062
187	0xbf90a2ce100b970c	-0.016246051530195024
188	0x3f5aeca7625af123	0.0016433367358522153
189	0xbf946a3f1c583341	-0.019936548333180374
190	0xbfa36b5e23c3ace0	-0.03792852579666728
191	0x3f791995da0de4b8	0.006127915724271897
192	0xbf90a946ad736baf	-0.016270737015343147
193	0xbf84984d9d160874	-0.01005612025869971
194	0x3f97922dea63add4	0.02301856749629201
195	0xbf8cecd6f27cda6c	-0.014123610758912629
196	0x3f8ea0223b824526	0.01495386833292629
197	0xbf80be33cb142395	-0.00817528213021194
198	0xbf95e813ab4edd8c	-0.02139311535912962
199	0xbf8961410527bf07	-0.012392528505159385
200	0xbf939b382cda7fb6	-0.019146802652016702
201	0xbfa25128be3198b2	-0.035775445191391766
202	0xbf7fcd34c7be7e8b	-0.0077640592316182795
203	0xbf8544818d2f29f1	-0.010384571190930255
204	0xbf6d31bdc1489d27	-0.003563757529508788
205	0x3f94c0da6466dd30	0.02026692617229492
206	0x3fa6127c22f78ab6	0.04310977866022851
207	0xbf862811ae8abe76	-0.010818613185022512
208	0x3f82cd4be9b2afb6	0.009180634564778117
209	0x3f6b299b4233ebf1	0.0033157379526733634
210	0x3fa21fb680384db6	0.0353982001799084
211	0xbf79458a1c6639d5	-0.006169833656157715
212	0x3faf980533df0ff5	0.061706698018980356
213	0x3fa58f55d5c93318	0.04210918650333023
214	0xbf8b321041d8c5aa	-0.013279082307323293
215	0x3f93d808a5846277	0.01937879095302938
216	0x3f938317e8ff5123	0.019054769130734017
217	0xbf88ffcc9a016463	-0.012206648301957118
218	0x3f8ee9485dde48f9	0.015093388905175408
219	0xbf2ba04a353b1444	-0.00021077066286615171
220	0xbfaaae6f95258534	-0.052112090069167755
221	0xbf99881d5f4d0c25	-0.024933299009045968
222	0x3f21ad3460759054	0.0001348616062656372
223	0xbfb47bffda9a0d9d	-0.08001708113629609
224	0xbf89d222dddb4521	-0.012607834239505568
225	0xbf7c1e071a7bc028	-0.0068645741919084804
226	0xbf7c4652c97c4e3e	-0.0069030031079538295
227	0x3f81d5ddbc374cc8	0.008708698564907982
228	0x3fae30a2c3d9fe3f	0.05896481171384637
229	0xbf8c3094507d4612	-0.013764532762851753
230	0xbfa72368a8771cbe	-0.04519202286206213
231	0x3f912d2b181149b8	0.01677386602779915
232	0xbf7fc4f8df22bc79	-0.007756206660061265
233	0x3fc6db1ca9e4c026	0.17856176658233486
234	0xbf93821f30953f03	-0.019051062908430626
235	0x3f64ec1b6efefecc	0.0025539909183577066
236	0x3f951768fec640a9	0.020597115087696825
237	0xbf7a8df0df1a6791	-0.006483021644862933
238	0x3f884f378bd0498d	0.011869844393036977
239	0xbf64be8fd2a2f22a	-0.0025322732008972353
240	0xbf940f74c085f9c6	-0.0195902102000163
241	0x3f919ff604017e89	0.017211765284058465
242	0x3fc190a87b612a99	0.13722711586372752
243	0xbf9e7215f1b0a0fb	-0.029732077480873347
244	0xbf881d07855c538c	-0.011774119145721483
245	0x3f9b30701f5cf098	0.026551963724373268
246	0xbf897b967ebe34cc	-0.01244275640763206
247	0x3facf6558a1444b3	0.05656688032662185
248	0x3f8bc94ede07f1b2	0.013567558432435376
249	0x3f273aada7c0d536	0.00017722482505325995
250	0x3f83e9aa6a20f8b3	0.009723025668901241
251	0xbf9487bfdd431e3b	-0.020049093131801348
252	0xbf931367079a5d21	-0.01862870201020173
253	0x3f83805aedd40098	0.009522161848963415
254	0xbf870df1d7cac53e	-0.011257066152526304
255	0xbf4fc9b780a961fc	-0.0009700914391244648

bias f8 [32]
0	0xbfa2f3baef51aca0	-0.03701576396346096
1	0x3fcba7e5db16092f	0.21606133649408707
2	0x3fe6f3053d44c829	0.7171655842450991
3	0xbfd8ee640ad65853	-0.38955021913841853
4	0xbfc30259a34a49e7	-0.14850922082094017
5	0x3fc0d8d6eae16891	0.1316174170377207
6	0x3fd9615423fd2954	0.3965654708341806
7	0xbfce55874a0c1454	-0.23698512187562193
8	0xbf9b41b438560803	-0.02661782831047078
9	0x3fd7bbafaf215b54	0.3708304605728945
10	0x3fcab223fe3987bc	0.2085614196139981
11	0x3fd7fbefd9c26fa5	0.3747520090635084
12	0xbfd844e576466460	-0.379205098631763
13	0x3fd9b7889813e6b3	0.4018270001539392
14	0x3fd7e7e50c94255e	0.37352873066318704
15	0x3fcec8d4e8defa34	0.24050389643339687
16	0x3fbcad8b387357eb	0.11202306869685656
17	0x3fb1b2180a2cadf0	0.06912374733354176
18	0xbfd68421947c76f4	-0.3518146467266512
19	0x3fe68dce25d7f9ee	0.7048102130063947
20	0x3fd904ffb5a91959	0.39093010654723553
21	0xbfdee238826b2bbc	-0.4825574182147496
22	0x3fc4d3d163ddb502	0.16271417022964135
23	0x3fdaf82d0b454a66	0.4213974580826857
24	0x3fcc7c7ee1978f18	0.22254930510745718
25	0x3fd3f30d2f8b4013	0.31170968668902893
26	0x3fd9d6d2d71571a6	0.40373679165147747
27	0x3feb8078e30b627e	0.8594326433622681
28	0xbfd5426fba5e6fa5	-0.3321799583443357
29	0x3f70c012572d246b	0.0040894237925580374
30	0x3fe6f870ee421fe0	0.7178272870523834
31	0x3fc2b7a5111488dc	0.146229394283245
