notebooks/models/autoencoder-SateDict-V02.pt (torch, 101391 bytes, 4 tensors)

encoder.l1.0.weight f8 [128, 64]
0	0xbfb5a190f15f06a1	-0.08449655430652082
1	0xbfb6daa21ea7463d	-0.08927357910513307
2	0xbfb3a69ee5218a8a	-0.07676117986697242
3	0xbfba21c7c9acf358	-0.1020779483196298
4	0xbfaceed872b9fcdc	-0.05650974655599736
5	0x4026f13d8300418d	11.471172422200448
6	0xc01821d6872897ce	-6.033044921734428
7	0xc007dbac417962a7	-2.9822621455353615
8	0xbff68820c09bc282	-1.4082343601004657
9	0xbfe8702422f0f529	-0.7636891062208281
10	0xbfda8afddd36eb2e	-0.41473337748509465
11	0xbfcef975bedc1815	-0.2419879133159958
12	0xbfc5cc936f3101a3	-0.17030566148060897
13	0xbfc2a3636836b112	-0.145611215482298
14	0xbfbff580612bda12	-0.1248398053392992
15	0xbfb86a1fc029c249	-0.09536932412607614
16	0xbfbbc4217fae090d	-0.10846146933730356
17	0xbfb6638e68463522	-0.08745660825498594
18	0xbfb513e4da1450fd	-0.08233480762675423
19	0xbfb6a9fc0041ee0d	-0.08853125578200878
20	0xbfb55bf2456e096a	-0.08343424029411542
21	0xbfb7a504e8d0cd0d	-0.09236174282050431
22	0xbfb8a03b8676be3c	-0.09619495423134422
23	0xbfb73689122139ff	-0.09067589466688018
24	0xbfb37cb858b553f4	-0.07612182775240212
25	0xbfb8d3e297d137e5	-0.0969831104896169
26	0xbfb376bb41b04f67	-0.076030448472293
27	0xbfb88a72778b4362	-0.09586253565363514
28	0xbfb48ec3fb2fd61b	-0.08030342943660466
29	0xbfb79d6f648c91f6	-0.09224601940929475
30	0xbfb3db978ec1efae	-0.07756945834438397
31	0xbfb7700dc287bbb0	-0.09155355452797553
32	0xbfb7e2ed97939a0b	-0.09330639792060695
33	0xbfb3223b5c0730b7	-0.0747410869291255
34	0xbfb42b41e00f1fdc	-0.07878505439941769
35	0xbfbba6a349468902	-0.10801144160226175
36	0xbfaa4477b0d819a1	-0.05130361589185673
37	0x4026f160f269f709	11.471442771372965
38	0xc0181ba82f00c179	-6.027008757039192
39	0xc007d63794fa7fe3	-2.9795982016512297
40	0xbff69fb9f1d0ff48	-1.4139956899598065
41	0xbfe892a21c85f73a	-0.767899566373422
42	0xbfdb53728efeb957	-0.42696823086125363
43	0xbfd0473138ae4ff5	-0.2543452313923347
44	0xbfc4e50ba7bfa02d	-0.16323991480681013
45	0xbfc2985d27f40f46	-0.14527477694366037
46	0xbfbe3a6ddfc6f347	-0.1180790587740833
47	0xbfb7c139c6c735e1	-0.092792140035463
48	0xbfb853090e522f1d	-0.09501701926836544
49	0xbfb81fea6e35f9f1	-0.09423699560827693
50	0xbfb96a5c1952b792	-0.09927917116394117
51	0xbfb631483b17495d	-0.08668948595667332
52	0xbfb4c32060f9c4fd	-0.08110239379472613
53	0xbfb4632e23dabc14	-0.07963837027885773
54	0xbfb45b41674ef8e0	-0.07951744815997897
55	0xbfb57d948212619f	-0.08394745040494066
56	0xbfb800ca41573584	-0.09376205535155263
57	0xbfb8b0c0f4b1a31c	-0.09644704793903397
58	0xbfb6949efec2375c	-0.08820527763074665
59	0xbfb4dad4ae3815e7	-0.0814640927638589
60	0xbfbb8fb698c315c8	-0.1076616404489733
61	0xbfb155919608c03b	-0.06771192467636038
62	0xbfb574cad5e26378	-0.08381335946832091
63	0xbfb237315c807aa5	-0.07115467556330175
64	0x3fc5c6b26ad9fc00	0.17012624947889776
65	0x3fb8db21741b4350	0.09709366879111525
66	0x3fc7f212e770fd9e	0.18707500744674815
67	0x3fc6dfa3d5b64d5b	0.1786999505535317
68	0x3fcb52bc9c9af2c4	0.2134624256776957
69	0x3fc848c53c0411bc	0.1897207778021207
70	0x3fc6fec282d1d8f8	0.17964965236360064
71	0x3fcfcb36bdb990c3	0.24838909400853568
72	0x3fcca8c0de083fee	0.2238999447004057
73	0x3fccbe0a5e7f4443	0.2245495759403032
74	0x3fccd0cc32d220e6	0.22512199861035426
75	0x3fd1ab5e4a2cabd1	0.2760844921455688
76	0x3fe3a7ac0b08866e	0.614217778729836
77	0xc010b062262873ee	-4.172249408930822
78	0xc000b24094692afb	-2.087037238559217
79	0xbfeb0df8d644b211	-0.8454555687836224
80	0xbfd86e94c635c95c	-0.38174933773475117
81	0xbfb90d958e426208	-0.09786352847221036
82	0x3f820634d58f5074	0.008800900237396748
83	0x3fb73c9f7c1cc760	0.09076878337944327
84	0x3fbf5d01049c353d	0.12251287806085016
85	0x3fca7a79211f3f41	0.20686258427894624
86	0x3fd05cc900c0f98d	0.2556631572114377
87	0x3fcf72268412ff8f	0.24567109536110052
88	0x3fc8fe5976b43ab4	0.19526212974638713
89	0x3fcb4f3de927f596	0.21335576901030312
90	0x3fcb6cdcd4694aa7	0.2142597233929184
91	0x3fcc421ffd60c3f4	0.22076797363254708
92	0x3fc9041a84e47af5	0.1954377316369215
93	0x4020f86ba763d478	8.485196333824419
94	0x3fccbf9f3fae16d2	0.22459784135224098
95	0x3fd02b9c9df423e5	0.252661852122911
96	0x3fca1c663639e41d	0.20399167678604693
97	0x3fc05e0bd3a3a299	0.12787006219811728
98	0x3fc31e1f81bd09df	0.14935678324589127
99	0x3fc68ebb600dfa0a	0.17623083295980307
100	0x3fccf07523e587d8	0.2260881829525363
101	0x3fcab976e104af49	0.20878492343160307
102	0x3fc74ebd2a4dfee8	0.18209042134912257
103	0x3fcc124d9ca0499e	0.21930856845626762
104	0x3fcd4e73e40ff94e	0.2289566863618781
105	0x3fc9d0d6456e3fb1	0.20168569936913408
106	0x3fcc55d7d91a3d5b	0.22136972523410745
107	0x3fd44e9dd73f71a0	0.31729837436957986
108	0x3fe56c7e0aff464f	0.6694936957157526
109	0xc010b6c0c8f20351	-4.178469791194247
110	0xc000991e007cd91d	-2.0747642553425423
111	0xbfee67f4815d3573	-0.950189831413509
112	0xbfd8c84c203b0c2e	-0.38722518107914794
113	0xbfb22499e63e4559	-0.07087098952458372
114	0xbf8b029ff0a7dbaf	-0.013188600093583107
115	0x3fb71dadd6c6236c	0.09029661649232218
116	0x3fc2f87f9c911e8e	0.14820857186190434
117	0x3fc2807e1563143e	0.1445462803295942
118	0x3fca0f0a5ce15590	0.20358399901548951
119	0x3fc8a8e9d6552dbc	0.19265482869591988
120	0x3fcc4f2e98f81c90	0.22116644353102233
121	0x3fce5edca0a474df	0.23726995319240182
122	0x3fc5611a72554e09	0.16702585776020865
123	0x3fc94f1441eb4ea0	0.19772580355367086
124	0x3fcfc709703ab6b2	0.24826162319134465
125	0xc02182e54cdd8e3a	-8.755655672116621
126	0x3fca9f2733355004	0.20798196792986812
127	0x3fd056f4e1cbca25	0.2553074078597624
128	0xbfcd2704dc79452f	-0.2277532650501057
129	0xbfacac29f73068db	-0.05600100653119152
130	0xbfa3ebf5285194a1	-0.03890958897754016
131	0xbfb254558aedc93c	-0.0715993370229499
132	0x3f89381bfbe8050c	0.01231405127055265
133	0x3fa6133905842f44	0.04311540787065707
134	0x3f8818f022b15a67	0.011766315516223714
135	0x3fa56d2e8a446e66	0.04184861600716942
136	0x3fa576423852a354	0.04191786706480252
137	0x3f9a790b0c5a982c	0.025852368001004475
138	0x3f92e979504c3d7b	0.01846875717734296
139	0xbfb7050859b996e3	-0.08992054167319057
140	0xbfb865b6d5bee209	-0.09530203550719575
141	0x3fd3b8da4cf1312e	0.3081575156582116
142	0x3fd255ad7b214c85	0.28647934936925196
143	0x3fc77a9020f21ae3	0.18342782601049298
144	0xbfa9cf9da9ea02e0	-0.050412108413188994
145	0x3faf623f95755b29	0.06129645060962325
146	0xbf8c0db8a173164e	-0.013698046137856992
147	0xbfa590bae141c6c3	-0.04211982726782317
148	0xbfa03f7c7bf08a3a	-0.03173436177191431
149	0x3f94f67355dd52d2	0.02047138415885536
150	0xbfa3aab19dc86354	-0.03841166544970656
151	0xbf908121d3ff4bcc	-0.016117600025449083
152	0x3fb18eebdc4f4f66	0.06858705643327098
153	0xbfc779ce3b65dcca	-0.18340471172607514
154	0xbfb5178be7a0be77	-0.08239054112413578
155	0x4012ee2cdda2fa76	4.732593024322901
156	0x4023616ee431bc6c	9.690299159117977
157	0xc01dffbeac7c25c7	-7.499750800206534
158	0xc009644b4f892115	-3.173971768734314
159	0xbffa87ad0a1e4047	-1.6581240077248525
160	0xbfa8dc889ad4d78d	-0.04855753793746862
161	0xbfa26b088b4a86ee	-0.03597284984904357
162	0xbfb41d3f50ef6c6c	-0.07857127881963927
163	0x3f98e88ea7f25665	0.024324635506295062
164	0xbf8e3f5fb6b7f3ef	-0.014769313586834058
165	0xbf7525a5127da5c7	-0.005162854016682989
166	0xbf949e017b216973	-0.020133994236269225
167	0x3f88a58c6a9a6bac	0.01203450870825925
168	0x3f7c3bd88d5be7a7	0.006893011004416672
169	0x3fb8bef125496bdf	0.09666354332277603
170	0xbfae96c8e155c09e	-0.05974414587660813
171	0xbfa83861764b85f6	-0.047305150690373596
172	0xbf999dfcb432564e	-0.025016735552148277
173	0x3fcfe35c16118a9e	0.24912596776546975
174	0x3fd3e6db6de47583	0.310965401951613
175	0x3fc300717472fdff	0.1484510248755981
176	0x3fc26482daa6015b	0.1436923568362641
177	0xbfafef86f3bf90d0	-0.06237432218020589
178	0xbf4177f84545e8e0	-0.0005331003435878022
179	0xbfa623b32188840d	-0.04324111732808698
180	0xbfb22c10ab1560f5	-0.07098488022655032
181	0xbf639ea70f604a3b	-0.002394987382112105
182	0x3fb06b9a4a7ad34c	0.06414188688615957
183	0x3f833370c7ca8599	0.009375458809986624
184	0x3f983ab2a2e193c0	0.023661414329030128
185	0xbfcb0c5ccbdff40f	-0.21131477312874877
186	0x3fb43979a64b3232	0.0790020018568576
187	0xc00e30465e483766	-3.773571716860647
188	0xc0180c703fc7b8ff	-6.012146946492293
189	0xc01e189bc0ea9fc8	-7.524031652756044
190	0xc009c891304f01b5	-3.222933175479023
191	0xbffb59c00dfcfd3a	-1.7094116732040008
192	0xbf97e70de21e4d54	-0.023342339445276153
193	0xbf9693061c72e97c	-0.02204522656095652
194	0xbf9717e05c4a130b	-0.022552018769164166
195	0xbf72197d1d48f14f	-0.004418839195349313
196	0xbf9961a9697f7095	-0.02478661257178823
197	0xbf9f9c81b422fb66	-0.030870463008564462
198	0xbf8e9e91a4c548c1	-0.01495088371362774
199	0x3f55a6a78fd32a6f	0.0013214718194826355
200	0xbf982b2bc7c352f2	-0.02360218436008927
201	0xbf913ebfd6905d5c	-0.01684093234152094
202	0x3f82aa7ab5d2c9d3	0.009114226030168126
203	0xbf82eba121672f52	-0.009238489944344206
204	0xbfaa263fa08ccf9c	-0.051073063228982835
205	0x3f9c9ba5579ada33	0.027937491867044705
206	0x3f5579aec5ef9f15	0.0013107496995363223
207	0x3f6bf95fc4e5c363	0.003414809273799711
208	0xbf579db7430557d8	-0.0014414109865206106
209	0xbf806db095aaa369	-0.00802171665903169
210	0xbf850dd172c83676	-0.010280262294169545
211	0xbf8e56fcc472a61d	-0.014814352746117138
212	0xbf7bf73e7c638f59	-0.006827587209247665
213	0xbf8ce657ad598f07	-0.014111218431203122
214	0xbf8c76ea3060c922	-0.013898686982518674
215	0xbf6266aa3dc17678	-0.002246220114144045
216	0x3fac104578efa4d0	0.05481164075156075
217	0x40010bb6886cb44a	2.1307192476438432
218	0x402385ee020e98c3	9.761581482202365
219	0xc00946317a3892ed	-3.1592740582003587
220	0xbff4aed212a98d0f	-1.2926808098789626
221	0xc02630b57d2510d1	-11.095134650015469
222	0x40129a0acd6b1739	4.650431832944201
223	0x4000328bc76a9504	2.024680669727447
224	0x3f86254ee88b12af	0.010813347312600056
225	0xbf9e24488c487e02	-0.029435285150723807
226	0xbf819f5c202b3ba7	-0.008604736072269704
227	0xbf891a1bc4fcb2f0	-0.012256829213208559
228	0xbf94d4caeb496327	-0.020342989550360315
229	0x3f78ce995b605f8e	0.006056403208297824
230	0xbf99559b0d6afb65	-0.024740622228587656
231	0xbf8d27147732c265	-0.01423469532741812
232	0xbf88d52b42cae85f	-0.012125337577675475
233	0xbf8651ba7f067fe0	-0.010898072244174217
234	0x3f92c20920dd9457	0.01831831229300848
235	0xbf9d10381a777a9c	-0.028382183661842406
236	0xbfb06ea23734a685	-0.06418813560289933
237	0x3f8f0cac4c32632c	0.015160890651075919
238	0x3f874cbeac2817a8	0.011376847866823983
239	0xbf7121b64a016c0e	-0.00418254095719829
240	0xbf81306adf1f9f7e	-0.008393130239667587
241	0xbf608f89aceea0e9	-0.0020215691542554326
242	0xbf9eb1ecff76c6e7	-0.02997560796001766
243	0xbf8e71fba5201b5d	-0.014865842797019796
244	0x3f922a51de67e5cc	0.017739562224937264
245	0xbf619f4971d5c187	-0.002151149222008711
246	0xbf757fa88ebfc946	-0.0052486976892274825
247	0xbf8661057ac7de55	-0.010927241143675529
248	0x3fb3399809e32027	0.07509756318461368
249	0xbff2d3e80d66f30d	-1.1767349742432913
250	0x402380a46c44d98d	9.751254447369115
251	0xc0098bea8195277f	-3.193318378795936
252	0xbff45f59ec9d1bad	-1.2732791178438945
253	0xc02634f81b4bead9	-11.1034554033444
254	0x4012b706765e7a24	4.678735589519906
255	0x4000d730a9da4552	2.1050732869850117

encoder.l1.0.bias f8 [128]
0	0x4005d0c886533e0a	2.7269449705270334
1	0xbfcad34f6fdf8635	-0.20957367861324064
2	0x4002850b2f0c534c	2.3149627376209647
3	0xc00196ae6df89874	-2.1985748855104763
4	0x4010ac870631ffc9	4.168483826448161
5	0x402209ae5db283a7	9.018908432046215
6	0x40138ffec36d9aab	4.890620282711704
7	0x401e97f29b1c376a	7.6483864055606805
8	0x400205078aa0d9f9	2.2524557905519456
9	0xbfef447d45f939ca	-0.9771105162306466
10	0xc00e9d7c23f589a4	-3.826896935396876
11	0x4017f0d503062233	5.985187575578084
12	0xbfe9e2a0e06cb584	-0.8089146025937883
13	0x40230cc94074e232	9.524972929256453
14	0x402afb357ac676bf	13.49064239189772
15	0x40039753a9566c24	2.448890040349868
16	0x4022141788ddcd72	9.039242055011275
17	0xbff1c2d0ba7b0a14	-1.1100623402022665
18	0xc011716ceaaafa54	-4.360767046628627
19	0xc02dfd60a7285346	-14.99487802855732
20	0x3fc127977dfad266	0.1340207448135004
21	0x40193c3b28eb1ec2	6.3088194268709135
22	0xbfee8b0062516116	-0.9544679565688365
23	0xc013de70a7b9244a	-4.967226620364338
24	0xc013e7dd87da0018	-4.976431009941756
25	0x4030a8605c1eaf14	16.65772033452147
26	0xc010ca1908a44455	-4.1973611212025235
27	0x4014b012dd424a4b	5.171946961566003
28	0x4025009e67c27de9	10.501208536616973
29	0xc024599b983b5bb0	-10.175015218015545
30	0x3ffec84b2472acb5	1.9238997863529168
31	0x401027d02b6fd7f1	4.038880041791331
32	0x3ff94219cf91fccf	1.5786378963674002
33	0xbfbeb9a22dbe1281	-0.12002004257926481
34	0x4013b1f08bfc4b72	4.923769175790641
35	0x402227f3a539628f	9.07803074193478
36	0x4004aa705e49a1dc	2.583222138044432
37	0xbffc0b1a2416588e	-1.7527104768428532
38	0xc0215f7222e192da	-8.686417665515751
39	0xc01a1d2e28dec75f	-6.528496397588099
40	0x40261f241c061fc8	11.060822368381096
41	0xc0090d178857cc47	-3.1313925411027728
42	0x4003dd6185e68ac7	2.4830961667042604
43	0xc02c10ba0548a475	-14.032669224851114
44	0x3ffd4240efab661a	1.8286752092448126
45	0x3ff05cb0ca090181	1.0226295368193805
46	0x3fef3da5c06ddd83	0.9762753256208473
47	0xbfbab73c0f213ebb	-0.10435843819981987
48	0xc01e135a84394e44	-7.518899980542816
49	0xc01538f4f24668a3	-5.305621896312149
50	0xbfe8228ad4b3eadf	-0.7542165903426755
51	0xc01b47781c1f0a28	-6.819794120211135
52	0x4007a1c30c41525c	2.9539853055414778
53	0x4027ccbe3e6edfc9	11.899888945612377
54	0x4023050aac7ca834	9.509847059456753
55	0x40242c4cc61dce4e	10.086523238314069
56	0xbfed0623a0afe96a	-0.9069994104786876
57	0xc01fff910e17607f	-7.999576778580489
58	0x3ffba71db1afbe57	1.7282998028639633
59	0xc00bf904ee8f383a	-3.4965914380509533
60	0x401b2d6eb1365880	6.794367569868086
61	0x403025c232ec54a3	16.147494490335372
62	0x400b5ad089d6bb45	3.4193430679946766
63	0x40287e84b9f454cb	12.247106371951665
64	0xc02112626ae9050c	-8.5359071168373
65	0xc014596908ffdd3c	-5.087314739815437
66	0x402a2de71ed921b3	13.08965393448384
67	0xc00c7bb703b14a3b	-3.5604076660613635
68	0xc003f90189071e3c	-2.4965849595353387
69	0xc01a9a236ee8b427	-6.650525792077167
70	0xc01eb4c4d3e40422	-7.676532088081361
71	0x4027bc9b67c03375	11.868373148166691
72	0x4012498d3a637565	4.571827804871053
73	0xc016e33b913017a3	-5.721906918106387
74	0xc0145d9ac985e778	-5.091410778806555
75	0x4022810cd7cb7e50	9.252051108923439
76	0x4003ef1f6a149c7d	2.4917591369190277
77	0x4011084cac4ffcfe	4.258104984647842
78	0xc016c15187969cae	-5.688787573402051
79	0xbff1fafd23b15801	-1.1237765688179027
80	0x4023bb4987dd874f	9.865795369903621
81	0xc02c83b858af7050	-14.257265826621875
82	0xc0208c6cff88f0db	-8.274269090143596
83	0xc000fdc2b1c22c71	-2.123906506288727
84	0x40194395e3c12a44	6.316001471199858
85	0x3ff694e7597af43e	1.4113534446071436
86	0xbfcf02b5072d2072	-0.24227011537937276
87	0xc02dc46527438dbc	-14.88358423900251
88	0x401419cf86abb1d1	5.025205711583525
89	0xc0069fb5814d4711	-2.8279829122265103
90	0x4023f677e8a0a99c	9.981383580791594
91	0xc01c718e685ff511	-7.110894804817932
92	0x40198a0d6644782c	6.38481673996834
93	0xc01110530e6189b9	-4.265941834166761
94	0xbff5a555af13a4de	-1.3528649176535548
95	0x3ffc78497595b37c	1.7793669312625005
96	0x401ad70a556eb3e4	6.710000357515103
97	0x4025048f53ef30fd	10.508906004856266
98	0x4006d70cea4e6f54	2.8550051026522087
99	0x4016322d6ad0b660	5.5490013780487
100	0x400c8683619b2c76	3.5656802773933647
101	0xc0224dab4c5ffa1c	-9.151697527614537
102	0xc030c03066f216d2	-16.750738557914538
103	0x40232bbac168368a	9.585409206363028
104	0xc0234130fd236175	-9.627326880043919
105	0xc01ea23692caec0d	-7.658411306033497
106	0x40035c1541a3749a	2.4199624183662083
107	0xc00d2e3a73bbc535	-3.647572426002308
108	0xc0083a5b0cfda41b	-3.028493978014479
109	0x4024ab0c24195e9b	10.334077003571386
110	0x4026110a25356ab7	11.033280527849781
111	0x40195a65a14c9190	6.33827831296766
112	0x401ebf92a2ca390d	7.687082809059814
113	0x40305e48ef6b542f	16.368300403312045
114	0x4023d2866fb6e988	9.911181918218759
115	0x4022319c7556c047	9.09689680751775
116	0xc019bc14332e8f02	-6.433670806614602
117	0xbffd54082b88b6fb	-1.8330156040714758
118	0xc01a514c56836da1	-6.5793927686421805
119	0x4012f599b01be71f	4.739844085410168
120	0x401b0e986f6a79bd	6.76425336921096
121	0x4011755e031bcafe	4.364616440364214
122	0x401ef0dd28370701	7.735218647345165
123	0x4026e9e9cc90902d	11.456861870428918
124	0x400e650c20220112	3.7993395338418248
125	0xbfb1891f5dc8a7c4	-0.06849857368129536
126	0x400b7d6528e47e91	3.4362281031352
127	0x3ffcb5511b302c4a	1.7942668020284764

encoder.l1.2.weight f8 [32, 128]
0	0x3f7cce56070834cd	0.007032714886475233
1	0x3f8dd1fcc2381d4a	0.014560675313090816
2	0xbf7e8a9e42b74857	-0.007456415372376033
3	0x3f873203edf6bd58	0.011325865459041282
4	0x3f8fbfac15648d5c	0.015502304461341758
5	0xbf7d8f3b0b48bcea	-0.007216673508579444
6	0x3f908338a7e33ec4	0.016125569579172674
7	0xbf70343c29d3c5d4	-0.003956065190537445
8	0xbf782220ab1b6db7	-0.005891921625984001
9	0x3f536cf1f4f5368f	0.001185642515184968
10	0x3f97df4000c21136	0.02331256870867656
11	0xbf8e1128b3e1c2c5	-0.014681165685233375
12	0xbf984f6073ab88ea	-0.023740298328342492
13	0x3f908be903bb88b4	0.01615871510774332
14	0xbf3db812874cb295	-0.00045347645145702695
15	0x3f777bc87d9aafe3	0.005733283201760006
16	0xbf91acaf9cfde537	-0.01726030727102065
17	0x3f85c495fd7349f2	0.010628864094916122
18	0xbf839223185fbf06	-0.00955607813008853
19	0x3f76ad7206e08732	0.0055365041899067425
20	0xbf945afcccc478ac	-0.019878339765562344
21	0xbf834c86d55d6b60	-0.009423306833630185
22	0xbf7dc0d9279a3969	-0.007263992558036094
23	0xbf31c13fab339e7f	-0.00027091793454168256
24	0xbf7a9e5817a4405f	-0.006498664961569116
25	0x3f54053f86577715	0.0012219543799498235
26	0xbf89ac85dd1ac4ff	-0.012536092577053013
27	0xbf139079af87a742	-7.463209829663717e-05
28	0xbf570432caea341c	-0.0014048095723950887
29	0xbf6007444065685c	-0.0019565899885210358
30	0x3f776eb090311b46	0.005720796299164393
31	0xbf897d03b9e35bc6	-0.012445477590899656
32	0x3f53b64c8e2e4341	0.0012031314479125784
33	0xbf8630c84d26b7a4	-0.010835232595890983
34	0x3f835b37cfa19755	0.009451328300382459
35	0xbf88d47d597a7a2d	-0.012124041836895827
36	0x3f912eeeeb8a6d7b	0.016780598760858006
37	0xbf7d5a4d2156aa15	-0.007166196145969046
38	0xbf98d72c521a5d07	-0.02425832034222444
39	0x3f9825468042b0d0	0.023579694345855995
40	0xbf837edebc2b8fe2	-0.009519329183099449
41	0x3f9c39e80eccf3b0	0.027564645675045518
42	0xbf96be66e7baca2a	-0.022210700887351255
43	0x3f50496dcbb2e14b	0.0009940693114867834
44	0x3f293a8c6e1e4de7	0.00019247974620083196
45	0xbf6b35018c3a3c54	-0.0033211736898191378
46	0x3f9ea6edb69c5d5a	0.029933656950644184
47	0xbf87d539add878f1	-0.011637163751455822
48	0x3f693e100f40b843	0.0030813516296097922
49	0x3f933bef08fcad2a	0.01878331653931046
50	0xbf5289358f1e47d8	-0.0011313460385946519
51	0xbf64ed26bf9c5102	-0.002554488831160496
52	0x3f3e2e23e4b7ec6f	0.00046051384262541564
53	0xbf9ce8b38b10f3bc	-0.028231435168198024
54	0xbf86598a5906f394	-0.01091297229947389
55	0x3f594191db98d2f2	0.0015415119545540393
56	0x3f66c2c681c47919	0.002778423031613586
57	0x3f8a6efbc109a3d4	0.012906996563474417
58	0xbf4dd87d24ce31cb	-0.0009108172467776008
59	0x3f91d47ee46f11eb	0.017412169163224005
60	0xbf624eb21a29d42f	-0.002234790664540152
61	0x3f597e5756230ab9	0.001556000985644941
62	0x3f52637cb1dc0a6d	0.0011223523828795226
63	0x3f43a2cd6d57eb63	0.0005992415487406751
64	0xbf3f1ad116ba7ecd	-0.0004746208639776317
65	0x3f7e2957fd2a1ac6	0.007363647181256544
66	0x3f732860cbb69261	0.004677179439941699
67	0xbf75c6d6c7672cad	-0.005316580753468231
68	0xbf7f8b5207b58d0d	-0.007701225690968328
69	0xbf76901a07b969f1	-0.005508519821513223
70	0xbf70603ada07a79a	-0.0039980219739649495
71	0xbf928986cbcb9ee8	-0.01810274714344376
72	0xbf84e25cbc42bdc0	-0.010197376723538265
73	0xbfa904335b0d571d	-0.04886017309642752
74	0x3f39637e9a1507ed	0.0003874000631932651
75	0x3f9021156dbc1721	0.01575120432155253
76	0x3f8a7e6e7a08bdfc	0.012936461543261217
77	0x3fa023e90009a565	0.03152397275409661
78	0x3f939b392d092675	0.019146817563785185
79	0x3fa2f55a80692f59	0.037028148818164915
80	0xbf6a38f6cef598ca	-0.003200990722393636
81	0xbf3b6a6b8e9d6b1e	-0.0004183304396200726
82	0x3f924467ebf07009	0.01783907296713497
83	0xbf8df8fc3f6bacfb	-0.014635058103030554
84	0x3f6bb409b74e1288	0.0033817472235020997
85	0x3f6cd78b69f8b7ed	0.0035207484177339683
86	0x3f923811e49023c5	0.017792014670735563
87	0xbf8b3ef18a6021c6	-0.013303648982415772
88	0xbf8f8ccea19a35a7	-0.01540528708144502
89	0x3f80c4c5e1361d93	0.00818781465092292
90	0x3f845daec1b83f8c	0.009944310461861304
91	0x3f90cf10c3261c79	0.016414892111722843
92	0x3f8772d5889e4649	0.011449497443922445
93	0xbf8825c71b20c224	-0.011790805354480467
94	0x3f998efa2cc07ac5	0.02495947740691908
95	0x3f954a2ecf7ee946	0.020790797628913248
96	0x3f9aa078688329bf	0.026002770785263026
97	0xbf7704a32c1708b3	-0.005619656936177875
98	0x3f964693cfcddd9f	0.021753606375083497
99	0xbf8173a049384ec6	-0.008521320566650014
100	0xbf801a5fefaa0f56	-0.007862805844758885
101	0xbf6226882b9d7afc	-0.002215639074094054
102	0xbf0d84d8ad67cad4	-5.6302893131651065e-05
103	0x3f7cbdd62a3446f1	0.007016979772076702
104	0xbf82ab73789e2fb4	-0.009116079443422943
105	0x3f733a3b61504666	0.004694206193578054
106	0xbf80c3706229a371	-0.00818527030533442
107	0xbf7d84fe2a852606	-0.0072069099772504915
108	0x3f68fbad9f049029	0.003049697021326754
109	0x3f831debd028f500	0.00933441380504485
110	0xbf8d96dece0418e9	-0.014447918569669276
111	0x3f938ebef242b416	0.019099219833766133
112	0x3f729cd1b7ae7188	0.004544085701948204
113	0xbf6eafb65e5e2d33	-0.0037458955657193815
114	0x3f6e9f611dc7022f	0.0037381073763927057
115	0xbf945e002d9b4913	-0.019889834197621314
116	0x3f8534331c139c20	0.01035346917565333
117	0x3f768064dcb8f44b	0.0054935398034646294
118	0x3f7b332a181ffb68	0.006640591078393189
119	0xbf918e18b7b10992	-0.01714361783184299
120	0xbf9f66ab27c9bd61	-0.030665087035626985
121	0xbf80583c7e0c1a00	-0.007980797382981741
122	0x3f90a9045765a17f	0.01626974852971008
123	0xbf792a36c57a7cfe	-0.00614377398565513
124	0xbf8d6ef301d1a18b	-0.014371775143630547
125	0x3f86947f44a890e6	0.011025423319616267
126	0x3f61407a7d45749c	0.002105941044801952
127	0x3f8031314ad2703e	0.007906327339064597
128	0x3f7c6d299ba11d79	0.006940043002095713
129	0xbf93c62e2b4f5d0b	-0.019310685532983245
130	0xbfa25ff542141022	-0.03588835174198858
131	0x3f9160d750e9652c	0.016970981896837475
132	0xbf7b969c427b14e9	-0.006735430135170286
133	0x3f856903a4d9d67e	0.010454205005980596
134	0xbf834f1b447d533c	-0.009428227450976594
135	0x3f846b41e1caf606	0.009970202162885588
136	0x3f8194b60558d23b	0.008584425008941845
137	0x3f8d0c1f45ccab28	0.01418327743302468
138	0xbf9f5bb4eed9fa6e	-0.03062327106317258
139	0xbf86b518f7cfb7a2	-0.011087603628734236
140	0xbf82740d02f1c36e	-0.009010411884646987
141	0xbf631455e0874c5e	-0.002329032639161662
142	0xbf7004e436cfff80	-0.003910914861080417
143	0x3f7a1323da56c344	0.006365909624421576
144	0x3f679f19add294fe	0.0028834821265087953
145	0xbf76c9bab3b48a8d	-0.005563477806648576
146	0x3fa183c0d8adb109	0.03420832295418747
147	0xbf84ad1c05522e56	-0.010095805084595327
148	0x3f9b7fb72470b8a9	0.026854383086338505
149	0xbf7c7a4dba9c1490	-0.006952575329482916
150	0x3f821a26951251f9	0.008838941025069312
151	0xbf8ac6d9db2feca6	-0.013074590684473652
152	0xbf728ab7be1d6d35	-0.004526822800325282
153	0xbf8583e135f5dd69	-0.01050544687198736
154	0x3f874a2087de138c	0.011371854921671497
155	0xbf6a7e53f280afb1	-0.003234065970920207
156	0x3f71164334c1563a	0.004171621822100452
157	0xbf627eb9b78d2ee2	-0.002257693031799111
158	0xbf5af812215fa00f	-0.0016460587553357474
159	0xbf88362987962ad8	-0.011822056246065513
160	0xbf765a44d114db45	-0.005457180800752697
161	0xbf50ce80b7b73603	-0.001025796604938179
162	0x3f57a4af0003258d	0.001443072222217931
163	0xbf81c20b778dfd83	-0.008670892320650441
164	0x3f81281f1c61efe5	0.008377306989352415
165	0xbf6510eebeef311b	-0.002571550655806954
166	0xbf81ba8027d343ac	-0.008656502929086894
167	0xbfa9959a59a4289a	-0.049969504778418286
168	0x3f8be7500516ea24	0.013624787478751683
169	0xbf9b99064129fc93	-0.0269509293816524
170	0xbf959d91e846ee28	-0.021108894159381247
171	0xbf5c0301760f1bf4	-0.001709700991556093
172	0x3f7a61a1e7869493	0.006440765799571885
173	0xbf9128e4958c7b9d	-0.01675755656026078
174	0xbf9392a60d4f1a70	-0.019114107668225022
175	0xbf72310111c82ee0	-0.004441265275555856
176	0xbf7f57465b963111	-0.00765159114360993
177	0xbf84bd8c4071ab86	-0.010127158848453065
178	0xbf42a91c354f9801	-0.0005694759116721128
179	0xbf71b39205750515	-0.004321642299431679
180	0xbf7678403319c0e3	-0.005485773830159443
181	0xbf8f799503a0750a	-0.015368618176632615
182	0xbf5c43d8faaddb60	-0.001725160497441279
183	0xbf826db3e2552073	-0.008998303742046887
184	0xbf9be17722e4aa69	-0.027227269654000717
185	0x3f8d21504429331e	0.014223696785074898
186	0x3f89042b2d2a6450	0.012214982333988683
187	0xbf9030277d8457d4	-0.015808693920085506
188	0x3f939fb05e223651	0.019163852448903566
189	0x3f867be9a3090dbd	0.010978532112068668
190	0xbf82648db1764cac	-0.008980853059972503
191	0xbf5f9e556528b8b7	-0.0019298395096814366
192	0xbf7fcbbdfb987350	-0.0077626630022934046
193	0xbf7759aa3a83e9b1	-0.005700745540020356
194	0xbf0e18167d351abe	-5.7399927437409054e-05
195	0x3f90fa1eddba9099	0.01657913425755506
196	0x3f701b6b07a37c34	0.003932397923761367
197	0xbf91c5a4a2a2fa07	-0.01735551111846159
198	0xbfa0629311f64136	-0.03200206369649765
199	0xbf9513908cc108a1	-0.0205824457082221
200	0xbf99dbc2ba0dcecd	-0.025252382856207945
201	0x3fb8963494ed85a2	0.09604195247586358
202	0x3f87d4c52c284c07	0.01163629570968362
203	0x3f8038a6104250f4	0.007920548793017158
204	0x3f93e842bc095841	0.019440691687428794
205	0xbf6aa985fa82a8e6	-0.003254663159244153
206	0x3f671e39afae4653	0.0028220297512653674
207	0xbf6c91a688abda59	-0.0034874203314488148
208	0x3f906252c7d040c3	0.016000073857924912
209	0x3f80b08fa506f84d	0.008149263595324774
210	0x3f55ee320f3338a0	0.0013385285245024817
211	0x3f763641fde06657	0.00542283800134554
212	0xbf90bb151c5f3f76	-0.016338662964528315
213	0x3f60ac55843c4dda	0.002035300278188973
214	0x3f9c3581c668cbd4	0.02754786275381689
215	0x3f8270f3a04bc495	0.009004500703186738
216	0x3f871a91e493cd3c	0.01128114680111613
217	0x3f727220bf01e9aa	0.004503372110884399
218	0xbf90b92bdf3e192c	-0.01633137273849987
219	0xbf9d99e2105c4ae5	-0.028907329796377907
220	0x3f8b72839ab57331	0.013402012022817185
221	0x3f80e2d40abfc4c1	0.00824514062694204
222	0x3f9a10eff1c3e887	0.025455235606366002
223	0xbf88571b44d4e986	-0.01188489249999659
224	0xbf81712ee784db2b	-0.0085166611103041
225	0x3f57c4e2d79937e4	0.0014507498984985762
226	0xbf8f32592882ca54	-0.01523275046233611
227	0x3f93af85a56d5cf5	0.0192242510050535
228	0x3f743cc53f8c2a7c	0.0049407677659113435
229	0xbfa51984e7cd63f6	-0.04121032075517654
230	0xbf7429f7b394875d	-0.004922835906912085
231	0xbf547e6236d5df6a	-0.0012508353350692788
232	0x3f73f2c2af7fc379	0.004870186319735897
233	0xbf828cb7ba0944e5	-0.009057460179209229
234	0xbfa1aae95eed6ccc	-0.03450707706243747
235	0x3f6a50c89e28c8dc	0.0032123487774465675
236	0x3f83c7fd336e3fe6	0.009658792621649991
237	0x3f6672c958130ea5	0.00274028134353606
238	0x3f779762d381ce64	0.005759607353059335
239	0xbf859d081ad10fad	-0.01055342037046344
240	0xbfa1c17d6b960d51	-0.034679335959504905
241	0x3f880e4b71492988	0.011746014971454569
242	0xbf8b91077f61fe6f	-0.013460215163149073
243	0x3f620daaa570b322	0.0022037823614681354
244	0x3f866ad900373a37	0.010945983237346286
245	0xbf729ab5f1b1d24a	-0.004542074889390133
246	0xbf7dece65c2f8b6a	-0.007306003421919319
247	0xbf7bbae6a29ceace	-0.006770039480950186
248	0x3fb44866f3a57702	0.07922976921460292
249	0x3f8e2ab515b530b6	0.014729895329445557
250	0xbfaab8885f3ebdfb	-0.05218912279758211
251	0xbf9a0712f4644d26	-0.025417610327236016
252	0xbf6379fbede8d8c0	-0.0023775024885948903
253	0x3f967f63412e9ffa	0.021970320561791802
254	0xbf837ac921778681	-0.009511538823917977
255	0x3f5aa165f890955b	0.0016253944215887859

encoder.l1.2.bias f8 [32]
0	0xbf924c725f0a6302	-0.01786974625665306
1	0x3fa44fcc77b25f69	0.03967131577627365
2	0xbfbb5691e20193dc	-0.1067897011540277
3	0x3fe434d0276d58f0	0.6314469118176742
4	0xbff1ffcfa6b4d6e0	-1.1249538909882446
5	0xbfdd4d9d8ad7a567	-0.4578622680552002
6	0xbff7fc39ce3501d5	-1.4990785651171923
7	0x3fe06ec97d40390d	0.5135238119417253
8	0x3feedaf82957d0b4	0.9642296607476255
9	0xbfc91bfc89ae9f9d	-0.19616657946357643
10	0x3fd3b340357b7f21	0.30781560156718696
11	0xbfdbf8e66ea90e46	-0.4370666580836978
12	0x3fd2f30ae19c0992	0.296084137269781
13	0x3fe897a6150368b1	0.7685118112961132
14	0xbfa09c79a1f1ebdc	-0.03244381048076381
15	0xbf9f3231a6014ad6	-0.0304649121829453
16	0x3f972a06556be7c1	0.022621249164309413
17	0x3f7baa2935fed5a3	0.006754075031428472
18	0xbf9082e0b2dc0ace	-0.01612425891563412
19	0x3f91bccb9c0044da	0.017321759602116106
20	0xbfa9c31b1d595c56	-0.05031666501297909
21	0xbfe6ab9fb2cea727	-0.7084501736000889
22	0x3fe2081b3174f278	0.5634895292237863
23	0x3fec7e805bc7013e	0.8904420654799095
24	0xbfd8f1f6b117b6f5	-0.3897682885570782
25	0x3fd72d5366f13e1e	0.36214146664585367
26	0xbfe4e611220a7421	-0.6530843415126847
27	0xbfc9a4c4ce4fb9c2	-0.2003408439044972
28	0x3fe6000eb0ca2e9c	0.6875070050168293
29	0xbfdb506ba2aae931	-0.4267834747839912
30	0xbff4b1823131a63a	-1.2933370515478502
31	0x3fe486897d1a5415	0.6414229815878821
