notebooks/models/autoencoder-[512-128]-V04.pt (torch, 829351 bytes, 6 tensors)

weight f8 [512, 64]
0.06672027690600549 -0.055429677997530784 0.029500924752467916 -0.1183361485329055 -0.06721499726401484 0.011537637097405563 1.1535276160472316 0.07454352846379737
0.0454803968607661 0.03497481836254638 -0.008702084861280109 0.036655655740315596 0.054362374578363994 -0.08657132361195656 -0.017204070435215303 0.021259156951308797
-0.09977437509058165 0.08771288865797233 0.1507579350725317 -0.05230288240289434 0.07669883314421405 -0.04063485651898142 0.06330335714236078 -0.009759774501767264
-0.0026953766437352042 0.03376578987555952 0.005339811405104631 -0.7922823725067819 1.1672473444975615 1.2297701854432157 -0.19111300756600852 -0.298295805258572
-0.06653455841967458 0.08790404647253464 -0.05411048105935122 -0.03290681195614922 -0.08153719428038375 -0.0006267904158079676 1.0376597731475 0.003423359903699324
-0.12232205827558823 -0.09870316573312889 0.07438113685973681 0.04534429366799894 0.0863618151091982 0.02390944341404564 0.06328170435235372 -0.004827455357986808
-2.9045322592468113e-05 -0.019031070949296697 0.03355069052221947 0.05436837139669599 0.07102282644259258 -0.12994290039789802 -0.003506980370331706 -0.06910772834773964
0.009711326265366093 -0.013455022352937286 0.030428609583451255 -0.6913003578883037 1.1022459630908752 1.1202096705138462 -0.5785201226495433 -0.3303786638450772
-0.029041368977693344 -0.02296322285448035 -0.0032886940197690926 0.007588993269543173 0.02008444803141186 -0.013335749851053643 0.982861132629342 0.5874506696333118
0.31073691036065565 0.13348837813294792 0.019746196340611807 -0.07346859028935387 0.08261060666879182 0.08415792039033375 -0.07916508920052459 -0.03248595098522101
-0.09373015752621826 0.013642701151746804 -0.016795700128914286 -0.04468879103626774 -0.040189145890822425 0.019641268063482122 -0.1304140769489819 -0.037848322074553596
0.01796286849694162 -0.05451411723569742 0.024528442274742355 -0.2980206782269926 0.004969131910327362 -0.24383383327830316 0.7556426279895844 1.0119287788771443
-0.03836570189573653 -0.06360888763829176 -0.052825575740657986 -0.06305570121363069 0.052494042792622576 -0.03160219239090298 0.9199431164615095 0.5770611627051777
0.42471390412811494 0.11165649070827947 0.07969994087811513 -0.013482382078487376 -0.05228511572649651 -0.0939211252473945 -0.026410301040009583 0.006319201720006801
-0.09377070224608573 -0.06596072998110152 0.021914905872051058 -0.02720851758835901 0.0005551038986254047 0.006580940096100139 0.004128298724589594 -0.025294873910546266
-0.0667098231470963 -0.015757799760073028 0.20952572136345335 -0.4454843653988271 -0.009075032050264682 -0.14694957055134042 0.9342828714132428 1.1008535749199113
-0.0034608137190169854 -0.00814755245519484 -0.010777975943973605 -0.08921694508391718 -0.06685209041894291 -0.03720849422656168 1.4291557383023712 0.5812560941019822
0.31067407741905245 0.09185629406883593 0.14911153732797314 -0.017926124681081304 0.047381994327222204 0.052632613662436316 0.03976594028822587 0.052429289852217134
0.14635910399028246 0.06043106135682857 0.03974617637039894 0.04323280980438529 0.007561723002265794 -0.1254086369118097 0.03916935406682823 -0.09806349726525133
0.03670325556246743 -0.06384446555247139 -0.12531933855412122 0.3252248783116006 -0.3250658523922672 -0.5128683439248716 0.8032130590682799 0.1865756311119852
0.018977390541051516 0.0010653327982403159 0.0007186311804303758 0.1282875581591724 0.04640702137625856 -0.029045371222721914 1.3498101615127323 0.7401787106366762
0.3668888506787662 0.2069897578181055 -0.04779546517488969 -0.04509334817524109 0.061078758114209764 0.006419784375341431 -0.020716223243083153 -0.08244094545075277
-0.04239307341822087 0.01712319677028766 -0.020110357252242528 -0.028962395241780813 -0.058928525142293985 -0.0375583851636515 -0.14330404974084168 0.05433291799520855
0.07456412181004919 -0.07848788548017974 -0.11511705177345738 0.1054195657038178 -0.35502600829985137 -0.41139891611831064 0.9010022313094392 0.18143708748277004
0.014090614291438467 -0.15038475160574938 0.036684414696104374 -0.00262818852089166 -0.0511862646207315 0.04633268268316458 1.0035156725600114 0.6714973151558135
0.30293035769178944 0.1741592951427544 0.06052837057318255 0.153383865164127 -0.05732052538343286 0.0684540709650276 -0.12619770545131723 -0.03510917386935777
-0.07496701237669341 -0.07022455268212173 -0.14001503860775752 -0.015101491506648993 0.024696190273411845 0.047965482989365905 0.035791113503843154 -0.10379435078004755
0.07175788427722975 -0.03174140512303461 -0.25190619822744964 0.8281266303898372 -0.5897392921465002 -0.07379695543331916 0.12169321563357731 0.13654605500446385
-0.004890796637690233 0.07040370327000832 0.0125607310431379 -0.04783528082124677 -0.03886307712096624 0.06337658823192496 0.8927898890700622 0.507946977604115
0.20014104862635948 -0.02106014475924362 0.04486793323833841 0.0645212249344259 0.13304665628891646 0.041846374193096815 0.1092850905381066 -0.07110075696685576
-0.024815130806333706 -0.06636942744146412 0.10585802450794936 0.10258183213080811 -0.04370952707931578 -0.009682478486221256 -0.023823121167710962 -0.009703232687788093
0.0907060596574718 -0.13640450882968896 -0.24068984847528202 0.7825544713504539 -0.4879931161611872 0.11223535046297145 0.16159127567463458 -0.024358779258643774
00000000: 6a96 4a7f 9414 b13f 4754 745c 4761 acbf
00000010: e3ee 0d8c 7d35 9e3f 4e28 e21f 474b bebf
00000020: 62b7 0c87 0035 b1bf da41 0d70 0ba1 873f
00000030: 914a 9f5f d974 f23f 7d65 e1e0 4815 b33f
00000040: 0f8f 40e2 3449 a73f 55f2 192a 38e8 a13f
00000050: c4f7 160f 66d2 81bf 5076 3cb5 87c4 a23f
00000060: edd9 e499 62d5 ab3f 234e afcb 8929 b6bf
00000070: da62 829f f19d 91bf 4cb7 62df f5c4 953f
00000080: ba2d fe3d d08a b9bf 2043 3914 5a74 b63f
00000090: badf 5f38 094c c33f ba5d d082 71c7 aabf
000000a0: 24ea fee3 88a2 b33f 4942 a787 17ce a4bf
000000b0: 5748 a718 a634 b03f 8f51 69c2 eefc 83bf
000000c0: 02ba 2051 9d14 66bf 0a70 7ae6 bf49 a13f
000000d0: f1b1 a0b5 32df 753f 37a5 e38f 605a e9bf
000000e0: a35b 2f8d 0bad f23f 0431 8180 23ad f33f
000000f0: d608 ab1a 6476 c8bf bca6 074a 4717 d3bf
00000100: af5f 77a8 6808 b1bf 1c1d c92c e180 b63f
00000110: 8e9e 0a75 5eb4 abbf 14a6 5562 29d9 a0bf
00000120: 4083 d71e 9fdf b4bf 4a01 2e2b e689 44bf
00000130: 52b1 6022 419a f03f bfbe 855a 4e0b 6c3f
00000140: b480 df97 7f50 bfbf 79e0 d554 9c44 b9bf
00000150: 897a 4066 a40a b33f 4c82 ba04 5e37 a73f
00000160: 8b67 84d3 ce1b b63f fa94 1d96 b77b 983f
00000170: 62e5 a0d2 3a33 b03f 18d1 2a2e f4c5 73bf
00000180: 954b c45e cb74 febe 8520 578d e17c 93bf
00000190: 4e30 1a5d 8e2d a13f 99d2 2bd2 2bd6 ab3f
000001a0: b625 d74c 8d2e b23f b836 c70d f8a1 c0bf
000001b0: 08fb f1bf abba 6cbf 5b86 2749 0bb1 b1bf
000001c0: 062c af25 88e3 833f 0753 c887 4e8e 8bbf
000001d0: 583e 186c ad28 9f3f cefc 9aed 211f e6bf
000001e0: 2bf9 b9a9 cca2 f13f 8851 b8f9 60ec f13f
000001f0: 4272 dba1 3c83 e2bf b0b0 208d ec24 d5bf
00000200: 3507 f647 05bd 9dbf d7d9 aecc ab83 97bf
00000210: 54df 5d28 e4f0 6abf d69f 6fde a215 7f3f
00000220: 2300 d07d 0491 943f abc3 d20b c64f 8bbf
00000230: a1e1 a430 9973 ef3f f7d3 c258 65cc e23f
00000240: b02e ea10 1de3 d33f 6111 3dad 2516 c13f
00000250: ff66 03ce 5838 943f 9c74 9368 d6ce b2bf
00000260: 57f7 f1fd f725 b53f 6f9e c69b 5f8b b53f
00000270: aae6 19cd 2944 b4bf 3139 1fa2 ffa1 a0bf
00000280: 675a 3919 b3fe b7bf f9f2 345a b4f0 8b3f
00000290: 3e85 115b e432 91bf ab41 ffff 72e1 a6bf
000002a0: ccb0 82f6 ab93 a4bf 8741 f02f d71c 943f
000002b0: 318a b791 68b1 c0bf c390 09f3 da60 a3bf
000002c0: e064 f2b2 db64 923f ce2f 653d 46e9 abbf
000002d0: 193f 91e5 fb1d 993f 2911 a152 c512 d3bf
000002e0: 26b9 b530 835a 743f 2e58 cb71 f235 cfbf
000002f0: 65b8 d572 392e e83f 6c89 323b dc30 f03f
00000300: d24c dc55 aba4 a3bf e832 240c ac48 b0bf
00000310: 67a1 6530 f40b abbf c8f4 891e 6b24 b0bf
00000320: 3deb 0eca 7fe0 aa3f 2c06 9a9d 292e a0bf
00000330: 763d ec8b 2c70 ed3f ff88 b3f8 4877 e23f
00000340: 3cc0 183a 832e db3f 8b6a fa0f 8595 bc3f
00000350: 1e8c 901f 3767 b43f 3353 cbb0 a69c 8bbf
00000360: 1ecb 395c 1dc5 aabf f950 5701 370b b8bf
00000370: 7238 fa4c 4d0b 9bbf a08d 96cb 29e2 793f
00000380: d74a 7853 5b01 b8bf 6bd0 166a cde2 b0bf
00000390: 29bf 0f70 dc70 963f 4ecb dbb4 8cdc 9bbf
000003a0: 42ca 948b 8c30 423f 24c0 d5a7 9df4 7a3f
000003b0: cae7 29c0 d5e8 703f f617 cf40 e6e6 99bf
000003c0: e91c bd1c e513 b1bf f276 810a d022 90bf
000003d0: b7a2 7624 bdd1 ca3f 0e1b 11db d082 dcbf
000003e0: aaa5 ed2e ee95 82bf b9f1 d657 3ecf c2bf
000003f0: ebd9 3d31 a5e5 ed3f 8773 5fa3 189d f13f
00000400: 3107 b437 da59 6cbf 8736 b3fa a9af 80bf
00000410: d94f 9271 c312 86bf 776b 62f5 ebd6 b6bf
00000420: a0c2 04f6 371d b1bf 0e48 ace3 fd0c a3bf
00000430: 0564 4e68 d2dd f63f 4a99 5861 a699 e23f
00000440: 15b5 8e86 15e2 d33f c318 f5e2 e483 b73f
00000450: add4 233c 1616 c33f b43e ffdc 395b 92bf
00000460: 9cfe 1be8 7342 a83f 6f2e c474 a9f2 aa3f
00000470: 6eb3 108a 335c a43f 1a1a 890a 03d8 aa3f
00000480: 9e18 8e26 e5bb c23f 175b 61f0 d1f0 ae3f
00000490: 56c7 4d5f 9c59 a43f 24b3 7260 9c22 a63f
000004a0: 2333 f08f 0af9 7e3f 6009 16e5 630d c0bf
000004b0: d4e7 716d 010e a43f 1986 af79 b01a b9bf
000004c0: 8d55 98e4 c4ca a23f 2a16 9463 1c58 b0bf
000004d0: 0bba 52ce 760a c0bf ed68 0c02 7cd0 d43f
000004e0: bd8d 4401 e1cd d4bf bef3 89df 6a69 e0bf
000004f0: 5b63 8ddf ebb3 e93f fda2 edd4 b5e1 c73f
00000500: ffed f21e cf6e 933f 9e72 c761 5474 513f
00000510: 7b98 7bb5 508c 473f fd7f 6309 ba6b c03f
00000520: 964a 3b3e a9c2 a73f 09d0 01de 11be 9dbf
00000530: 3217 388a d298 f53f ba28 6c43 8baf e73f
00000540: 44ab bb5f 1b7b d73f c9c5 37f0 a37e ca3f
00000550: 1782 a5af a578 a8bf fa0e 5caf 7916 a7bf
00000560: f861 2909 b745 af3f 9a0a 08bf a14b 7a3f
00000570: 537e 4d35 a236 95bf 19f3 8f8c d91a b5bf
00000580: b3fd d07f 8bb4 a5bf cc82 8648 be88 913f
00000590: c047 d63a cf97 94bf 4654 8271 51a8 9dbf
000005a0: 0349 9330 e12b aebf 4fd9 ef47 da3a a3bf
000005b0: 0db9 827f c957 c2bf 9e76 c533 86d1 ab3f
000005c0: 1d0e a160 a216 b33f 3a02 4535 c817 b4bf
000005d0: 4c35 94a4 4f78 bdbf 9671 0ed3 c6fc ba3f
000005e0: 7525 b801 bfb8 d6bf a7a1 951e 5c54 dabf
000005f0: 301b a3a1 02d5 ec3f fa8e 829a 5439 c73f
00000600: d58b 7f3c 8adb 8c3f 0c5d fbba ce3f c3bf
00000610: 0d0c c9b2 4cc8 a23f 31a6 d6f7 b587 65bf
00000620: c0d3 1909 1635 aabf ee63 b8d9 eab8 a73f
00000630: f8b2 2a73 660e f03f d445 feef e77c e53f
00000640: c81d d002 3663 d33f 885d 770e da4a c63f
00000650: 0719 2f18 93fd ae3f 8697 4e1e 15a2 c33f
00000660: a9a0 d2ab 1d59 adbf bda6 12bc 3486 b13f
00000670: df2f df14 3f27 c0bf b3ef 1d63 d4f9 a1bf
00000680: 3dcd 6fc2 0931 b3bf 735c 257d 3cfa b1bf
00000690: 135e e245 03ec c1bf 8f91 22e1 87ed 8ebf
000006a0: 1d8a 3d46 f549 993f 4566 8d89 ee8e a83f
000006b0: 650d f97b 3653 a23f 8b1f 1c3e 4492 babf
000006c0: 316b 3386 b95e b23f 5473 ddd1 6840 a0bf
000006d0: 52fb c22c 3b1f d0bf af12 4f6b 0380 ea3f
000006e0: ddee 9def 24df e2bf d466 2176 5be4 b2bf
000006f0: 0392 4a5d 4927 bf3f b52c 5254 577a c13f
00000700: 9ca6 c339 5f08 74bf 87dd 0f23 fa05 b23f
00000710: 6f60 5ac8 70b9 893f 40c8 71ad dd7d a8bf
00000720: cd50 837a dce5 a3bf eac5 c9b5 7239 b03f
00000730: 1d2c f819 bc91 ec3f cc2c 1d05 1a41 e03f
00000740: 67fb 37cd 389e c93f 91bc f563 ca90 95bf
00000750: 25a9 cb03 eef8 a63f 87c0 fd86 7684 b03f
00000760: b530 cd3e ac07 c13f a526 3b51 e36c a53f
00000770: 7d33 cd91 1bfa bb3f bdbb e4c1 a833 b2bf
00000780: a662 093d 2369 99bf b0b9 5038 96fd b0bf
00000790: 19e3 47f1 8219 bb3f a363 2a8e cd42 ba3f
000007a0: 6598 a85a 1861 a6bf 7254 8a43 68d4 83bf
000007b0: 5142 3799 1665 98bf d6e9 79d8 49df 83bf
000007c0: 4022 c727 8338 b73f 96a8 39f4 b375 c1bf
000007d0: aa1b d7c9 ecce cebf 973d b9ac af0a e93f
000007e0: a777 a57a 473b dfbf 348d b1b7 74bb bc3f
000007f0: 7bb5 2bde 05af c43f 113b 2501 82f1 98bf

bias f8 [512]
-0.9613288503793221 -1.7997838617658406 -1.1826442816824154 -1.0340608609912982 0.5364398730303691 0.7941457293625077 -1.1671774267386623 -0.8623776634153026
-0.5338705128125403 -0.7153727627199139 -0.8509568984134891 0.03241147497539376 1.324771866859983 0.6305711766001478 1.165061583523154 -0.4267629324092855
-1.0441901586655078 1.676539821482952 -1.3276164829923678 -1.443007007856237 0.3451373877658809 -0.8545563250142287 1.8129175002818543 -1.067514254881145
1.466815257746978 -0.8855693613729716 -0.3739178305218687 -0.6306575108697433 0.809699291919088 1.1742380289327894 1.1811648767128677 1.6788055060300724
-2.0112832090820616 -0.8205786023515782 0.9863191724390834 1.2119817640790378 1.9813867068645346 -1.4131117396246484 1.9052038324024136 -0.1006799475666885
-0.1123338756611715 1.5465167879305521 1.698267283135499 1.604973306402027 0.8862664803502194 -0.7411537258864856 1.1326718964009672 0.7250621851430314
-2.351204963548697 -1.4437096360117136 0.9877560397822359 0.6360923098509567 1.5130607253886998 -1.3958064141245352 -0.8371503319828454 -0.7941737612670694
-0.8783045593044199 -1.2976754188956987 0.9694355121145244 0.49025559225821397 -1.3838267711788075 0.9666190888666438 1.252916308671576 1.0870844973535485
1.0690631971697202 0.9230420498649311 0.9737159152605134 1.052645697422765 0.9546968035947855 1.9149431320275607 1.269097031498978 0.4186615014568785
-0.7527790323153296 -1.7243686409657637 -0.9363133905136558 1.3693753860306832 1.042619704859093 1.492300715777007 0.7516000585278089 1.5833461093623942
1.0363555601162275 1.2929004886465898 -0.7434108576135307 2.1947170309685293 1.1285239698764675 0.3589871586162534 0.2843316644506153 1.4758204986096115
-1.3567331451193925 -1.0699888770048815 0.7501260502723361 0.5456882193370527 -0.8448178447447853 0.836688135482433 -0.9115931898895265 0.8472245734919204
1.0682039230866662 2.3246305494329067 0.7638711046386558 0.5855027329118212 1.530540193635567 1.3065129528426438 1.384585504831101 -1.5528265299813147
0.5958622016019379 1.408513357423055 1.2866981862048992 0.9915099323493912 0.8751967265635615 0.8932331495009784 -0.8654403473151077 1.0937457295303812
0.6639230676792428 -1.3686831561958266 1.6644895583082078 -0.8436181596226953 0.8267428636108981 -1.192621531516506 0.6268795761284729 -1.1895440225632128
-0.9982600257073365 -1.12789729242623 1.248193300017021 0.9619168598644823 -1.1672801603847198 0.7585206328829948 1.0645181740653034 1.263253047109618
-1.2982171492585808 1.784419201982181 1.3424788624235073 -1.0695780945062958 0.9470682313856894 0.99843497096698 1.5734979644470892 1.20820661504954
0.8371373719626305 -1.2317337183419272 0.7355478382877239 -1.3415315613683196 -0.7864445248192592 -0.917995915656589 0.68055976466383 1.0802631028689498
-1.0231591331809373 0.5077550630871591 1.2255110917800582 -0.8784971478349966 1.3028404107342955 -1.3147348279726503 0.40996553445725464 -0.3318398041954506
1.0826194983997388 -0.17312336527283573 1.4402617774028272 -1.1172546722432621 -1.1443148245098298 1.1061943862536705 0.8325229435779549 -0.8847796595772809
-0.849530867287717 -1.03712403713268 -0.9938708780037557 1.5076952907130388 -0.9564082102576278 -0.8664036022252185 0.2704006081033694 -1.207435857499923
-1.7493265849002473 1.1234925096210848 -0.40799535917400626 -1.3731517392582369 1.0129012902934837 0.9747824394329734 -0.9491306815334026 0.27214487526045505
1.4339208873302034 1.4195782166692303 -1.6127260736966644 1.0905296374238644 -0.9256940534409508 1.21349609132817 0.07750589016618589 -1.2808794700899389
0.6943262230751818 -1.3372843775574133 -0.5563263571428185 -1.8689032069862586 0.7036294529612932 -0.5568890649991491 -1.3013359088291945 -1.3347825902173083
-0.06418286699807925 -1.2216571008614214 -0.6614505987069168 1.4706193525451787 1.1950328121867706 -1.417767612186847 0.4061776108107427 2.359622412929522
0.8838068233043389 1.5400707497764727 -0.3072237806277062 -1.3358893159681446 0.8678656209749671 1.538200644394923 1.1188570455285196 1.0508316733037208
0.5274653066452325 -1.0663421235747474 -0.6043934613158737 -1.7245404211813813 0.8331787493300856 0.3828883928778106 2.1369908525417003 1.8410152843541416
0.9371208713048863 1.3554303441330822 0.371992838015954 -0.9600087812959414 -0.95754415823026 0.9301695230176715 -1.193846743200727 1.4242246956218083
0.4606913612020264 0.9991339523336294 0.9203198110283136 0.5077730169370689 -0.9692705448178864 0.8190542603861766 0.10089537118196268 1.0606795818486805
-0.9426468503354498 -0.5426265304584489 -1.3857015233584646 0.021996343202071566 1.0462348024858312 -1.193895876444977 -0.7486878969018524 0.8328998984632449
-0.5625218689272613 -1.4529543995625427 0.7967596751671645 0.7458736586233654 -1.2534895556795147 -1.561718341138696 -0.7456982987810836 0.10887207547334801
0.4614582245270347 -1.6080377718225498 -1.1382587904014818 -1.3137845041260365 0.4347996099972185 1.0258559259921318 0.820875057559145 1.0054725186338522
00000000: 2d93 a2b8 34c3 eebf 2872 a229 eacb fcbf
00000010: c609 0a69 1cec f2bf e97f c066 838b f0bf
00000020: 4df2 ddf3 832a e13f 59d7 fb4d a469 e93f
00000030: 468d c73c c2ac f2bf 886d a50a 9998 ebbf
00000040: f883 1a9d 7715 e1bf 2d99 8a6b 55e4 e6bf
00000050: 9dba 1ff6 093b ebbf f0a1 11a2 3c98 a03f
00000060: 2031 2dfc 4332 f53f 3288 a99a a32d e43f
00000070: 3ced 709d 17a4 f23f b9f2 7579 1550 dbbf
00000080: e05f 64bd 00b5 f0bf 1560 7b6b 1bd3 fa3f
00000090: fc52 01c8 ea3d f5bf fb42 2a84 8e16 f7bf
000000a0: 7e34 4520 bb16 d63f 7ad5 9081 8658 ebbf
000000b0: fae7 e0c7 b501 fd3f 39a7 cbd3 8914 f1bf
000000c0: d8c0 9446 1378 f73f f6f7 ad8e 9556 ecbf
000000d0: 81e4 5e0d 45ee d7bf a931 05a9 582e e4bf
000000e0: fe60 4c7d 0ee9 e93f f8c5 bfd0 adc9 f23f
000000f0: 75a6 4a24 0de6 f23f fbe6 8b29 63dc fa3f
00000100: d602 b0a6 1b17 00c0 a4b7 9c0e 2e42 eabf
00000110: 9065 a139 ed8f ef3f ef15 81fd 4664 f33f
00000120: a465 2b8c c2b3 ff3f 2881 340e 1b9c f6bf
00000130: 9f1d 8603 b77b fe3f b673 293a 29c6 b9bf
00000140: fa99 32b2 e9c1 bcbf eb06 2e63 88be f83f
00000150: 9af0 8e50 1a2c fb3f f231 5f7d f8ad f93f
00000160: a2a5 9485 4b5c ec3f 4fb6 bf04 88b7 e7bf
00000170: 4d3f 0291 6c1f f23f 042e 989c b533 e73f
00000180: 8213 458c 44cf 02c0 2c72 7946 6f19 f7bf
00000190: 5551 e98d b29b ef3f ad80 8142 de5a e43f
000001a0: 0981 c629 7f35 f83f fd63 431b 3955 f6bf
000001b0: ab75 367e efc9 eabf ce77 7f17 df69 e9bf
000001c0: 527c c429 121b ecbf 99ae cf4c 47c3 f4bf
000001d0: d49c 839f 9d05 ef3f 6987 dbfd 5860 df3f
000001e0: 12ad 588a 2724 f6bf c3e3 cb27 8bee ee3f
000001f0: 4fe9 a5f8 f10b f43f 14f4 c1b6 b264 f13f
00000200: e737 d302 e21a f13f f515 207b 8f89 ed3f
00000210: 836f 7447 ae28 ef3f 504b cb03 a3d7 f03f
00000220: 7f21 a14f e08c ee3f 8521 dc68 9ba3 fe3f
00000230: 18d2 5bb0 384e f43f ca7f 369c 59cb da3f
00000240: 7215 9d0d c416 e8bf 7e22 7392 0397 fbbf
00000250: 5404 e27f 47f6 edbf c22f 2f2a f6e8 f53f
00000260: 448f e8ff 91ae f03f 45f4 20b7 76e0 f73f
00000270: 568e e190 1b0d e83f 7b5d dfba 6255 f93f
00000280: a0a1 5b91 e994 f03f 2a83 3b6c b8af f43f
00000290: 2b20 1e91 05ca e7bf 57df 7fcd c78e 0140
000002a0: bcf1 7526 6f0e f23f a035 7c46 a5f9 d63f
000002b0: c016 0270 7d32 d23f 12b7 84f4 f59c f73f
000002c0: 01fe 7ad0 2db5 f5bf a01d 1da8 ac1e f1bf
000002d0: c683 b958 0801 e83f 08af fb23 4776 e13f
000002e0: a131 c86e bf08 ebbf 0125 5b32 26c6 ea3f
000002f0: 639e 3a7b c52b edbf b87d 70b5 761c eb3f
00000300: acdb 31ff 5c17 f13f 57c6 c8e6 d798 0240
00000310: 9709 99d0 a171 e83f 8a65 323a 70bc e23f
00000320: 620d ceb6 177d f83f 1927 4420 7ae7 f43f
00000330: 613e 5c21 4327 f63f 3518 aaa1 60d8 f8bf
00000340: 36b1 999b 4d11 e33f 65c7 614d 4589 f63f
00000350: 3529 59d6 5096 f43f a031 a309 73ba ef3f
00000360: 1b04 c590 9c01 ec3f bae9 99af 5d95 ec3f
00000370: bf6e 8bf4 afb1 ebbf f88f a785 fb7f f13f
00000380: 45c1 d796 db3e e53f 7727 274f 20e6 f5bf
00000390: ce79 97cd bfa1 fa3f 9484 bc82 ebfe eabf
000003a0: 5320 2d73 ad74 ea3f b7e6 a550 fa14 f3bf
000003b0: 7a11 c0c1 650f e43f 06fb 2050 5f08 f3bf
000003c0: ed25 6a02 bff1 efbf 517b 0308 de0b f2bf
000003d0: fd8c aa89 99f8 f33f d0d8 d2dd 05c8 ee3f
000003e0: bdf3 21f6 2dad f2bf a05b f20f cd45 e83f
000003f0: d5ba 7935 4408 f13f cf87 bed3 4836 f43f
00000400: 54c0 7258 7fc5 f4bf dce2 2d26 fb8c fc3f
00000410: 4be2 9a1d cb7a f53f b7c2 86eb fd1c f1bf
00000420: 233a 1c09 624e ee3f 668c 6fe5 2df3 ef3f
00000430: 11f7 9933 0c2d f93f 9d2d a775 d054 f33f
00000440: 26d8 5a50 d4c9 ea3f 7b8b 5a6a 2eb5 f3bf
00000450: 4edb c29e 9b89 e73f 5c0f 6acc e976 f5bf
00000460: 7df1 46b5 8d2a e9bf 7769 73f8 3860 edbf
00000470: 228c 8645 25c7 e53f aa5c 9ef6 c148 f13f
00000480: 75da 791c dc5e f0bf f9ce ca8b 873f e03f
00000490: 284a c184 b19b f33f 2c94 f20c a61c ecbf
000004a0: 152d c02f 6fd8 f43f 21e0 1063 2709 f5bf
000004b0: d9c9 be14 e03c da3f c7f3 a104 dd3c d5bf
000004c0: 8938 bad2 6852 f13f ea98 020c e828 c6bf
000004d0: cdfb f9ee 4f0b f73f 7d68 696f 46e0 f1bf
000004e0: 2c90 b90f 1d4f f2bf 25a7 7fe2 f8b2 f13f
000004f0: 74c8 fa27 07a4 ea3f 299d c16e 1d50 ecbf
00000500: 312f 7e5b 5b2f ebbf ea15 d65f 0f98 f0bf
00000510: 4c22 af4c cacd efbf a521 df18 851f f83f
00000520: 3fd6 1564 e59a eebf 7b34 160c 94b9 ebbf
00000530: c8d6 275a 3e4e d13f 9dad ff42 a851 f3bf
00000540: 08b8 82df 3dfd fbbf f5f9 2148 d3f9 f13f
00000550: c99d 2491 981c dabf 50f4 48f5 6df8 f5bf
00000560: fc2f befb d734 f03f 148d 42f1 6a31 ef3f
00000570: f21d 9a4e 475f eebf 3e21 c156 d26a d13f
00000580: 0327 4207 57f1 f63f 6355 eba5 97b6 f63f
00000590: 45f0 feda b9cd f9bf 26de 8034 cf72 f13f
000005a0: 8c2d b422 499f edbf cc40 a1e0 7a6a f33f
000005b0: d6d9 820f 6dd7 b33f 2f77 a278 7b7e f4bf
000005c0: 919e 9ba0 eb37 e63f 10f9 b04d 8465 f5bf
000005d0: 5e99 baee 6ccd e1bf f753 960c 07e7 fdbf
000005e0: 7413 1fea 2184 e63f d07b 3504 09d2 e1bf
000005f0: 5e82 189a 45d2 f4bf 5f0e 44fd 445b f5bf
00000600: 7d63 b8d2 496e b0bf 0204 f250 e88b f3bf
00000610: dcb4 2b72 9a2a e5bf 63bd 8028 a887 f73f
00000620: 50d3 dfb9 da1e f33f 72ba 7a17 2daf f6bf
00000630: ed2b b360 d0fe d93f f986 33b7 81e0 0240
00000640: 755c 423f 2548 ec3f f30e fd39 21a4 f83f
00000650: d35d 96ee 8da9 d3bf 3b8b b279 cd5f f5bf
00000660: 7c20 6d1f 8ec5 eb3f 10cc 6547 789c f83f
00000670: 571b 37a5 d6e6 f13f 080c 67df 34d0 f03f
00000680: bb1b 3aec fee0 e03f 989c 31c2 bc0f f1bf
00000690: ca92 c8f4 3057 e3bf 63aa 59b2 b797 fbbf
000006a0: 6b09 037b 66a9 ea3f 9067 5b51 3e81 d83f
000006b0: 6024 fca8 8e18 0140 7ccb 5b71 cc74 fd3f
000006c0: 91e9 d4e8 e4fc ed3f fceb 80ba d7af f53f
000006d0: dffb 670c bbce d73f 8b3e f155 64b8 eebf
000006e0: e464 82a5 33a4 eebf 2319 23e0 f2c3 ed3f
000006f0: 52bb e70a ff19 f3bf 9a9e 9dd5 9fc9 f63f
00000700: 3365 7a9e f77b dd3f c113 33c4 e7f8 ef3f
00000710: bd47 4788 4273 ed3f a026 b132 ad3f e03f
00000720: 6e01 5fa9 4304 efbf 5442 c047 b135 ea3f
00000730: f057 8b6f 47d4 b93f 5b33 3927 8bf8 f03f
00000740: ffc7 3bba 292a eebf ff59 4850 325d e1bf
00000750: c678 4d5c d52b f6bf c3ea bc9a 3586 963f
00000760: 92d1 49b4 60bd f03f 2291 0290 321a f3bf
00000770: de57 0352 40f5 e7bf 33b9 17b0 1da7 ea3f
00000780: f279 cadc 2d00 e2bf fe34 cb1c 4d3f f7bf
00000790: 6faa 7325 0e7f e93f f286 576f 32de e73f
000007a0: 5f56 7810 4b0e f4bf ac10 0c5f ccfc f8bf
000007b0: aa52 bead c2dc e7bf 6a0d 9b53 0adf bb3f
000007c0: f115 b413 8888 dd3f 765e 8bd0 85ba f9bf
000007d0: c98a 72d9 4e36 f2bf 0e68 73e6 4205 f5bf
000007e0: 591a 50be c1d3 db3f 3cb4 48e7 e769 f03f
000007f0: 5832 cac4 9b44 ea3f 43f2 085a 6a16 f03f

weight f8 [128, 512]
-0.5979348895194979 -0.7880178861789683 -0.7528565374962084 -0.5778086525778349 0.3789563854579557 0.9061229531227402 -0.846705819714144 -0.4727575335191487
0.24803114138921634 -0.1089873611511595 0.20019974144713978 -0.11905589976438216 1.0551691240089802 0.5643291821266192 0.1755630071006624 -0.02035515486912037
-0.46442108864562115 1.1731981430155851 -0.8724773605328446 -0.3558274960222515 -0.16942515712974512 -0.8488191953695561 0.6452150073321377 -0.6077693360346313
1.2251477391761247 -0.7885874489441795 -0.46146107823571364 -0.5485811582933938 0.5234912388583557 0.3069587406629887 0.5819666680898473 0.9006809516464646
-1.1270563709731392 -0.4613779981830555 1.1120494005834731 0.7543493753374539 0.7464512056142817 -0.8734649197505094 0.8903641036685557 0.011722916434683341
-0.4910134458082086 0.835061734756828 1.1019819314821906 0.851100463989547 0.5792344695125622 -0.627556790817678 0.5588194469977469 0.40306428927255117
-0.34563206372980865 -0.5501175170870042 0.7634392711475531 0.012052786903910123 -0.09464742165414812 -0.7285858086223809 -0.5894108899589717 -0.671596399514349
-0.7160718854763963 -1.0320288509975568 0.4985185484023734 0.7974256394119609 -0.9305484481451476 0.6597888927102086 0.7918886853926103 0.5272562819803868
0.6926136290695324 0.6836115274280588 0.8471176438767655 1.2031015279007358 0.689710324895486 1.171111899691687 0.6043243638272401 0.6256688990947364
-0.7187794701483857 -0.9677584669238413 0.17792671789465114 0.5371351805727722 0.6767711748582678 1.1445184550240284 0.6854055044347167 0.8713801081941155
0.6431036465856089 0.8046488350626532 -0.5148434874388297 1.0224714837096498 0.6728479579017423 0.19625958295155949 -0.10470653395918784 0.7592327531159159
-0.8847136217210093 -0.7338402837215064 0.012263125952305796 0.6775467961104873 -0.7451911698063692 0.8228452910874559 -0.7852112493039092 1.0381541409310475
0.9467649351300748 1.0696473679427527 0.4938392244067638 -0.021159115445225984 0.6827053368026015 0.828619208493013 0.7110399528431719 -1.4774668415436092
0.550173607272381 0.008472223937807253 0.7829008585038244 0.49628642094198294 0.1367210269376425 0.7372776944537134 -0.7793978065956293 0.6094189791248121
0.5202793420068694 -1.0325535217148363 0.48220507239180993 -0.8017429327844069 0.6432358825961286 -0.7502474119208229 0.70673012648897 -0.535652824692284
-0.6040964115744034 -0.7553230004639242 0.6550769433405652 0.6277423055062219 -0.8866647661908269 0.7610090661925774 0.832355093762359 0.744347968149871
-1.3198258685760884 1.2427310646329826 0.6096309085431585 -0.9021094092533608 0.7447083059739815 0.6952980888734072 0.7936214165167126 0.6848493732452177
1.020244164706128 -0.9639481402977137 0.21953314265034965 -0.7449934557087599 -0.7415017985483291 -0.587452532557087 0.30594275510934515 0.5036999385965423
-0.7819526420215405 -0.10679157295099372 0.7213514869758398 -0.30797571923165257 0.5933746477649929 -0.6032669871193816 0.21878728809815698 -0.3823385144162587
0.8567698259343675 0.07645952435288886 -0.003191238607122816 -0.6065720449316889 -0.9590248545460455 0.08381467207994665 0.4730940542791994 -0.5810687777177137
-0.5858814193337226 -0.6849440946723877 -0.5241546636070705 0.7524803135471169 -0.7913720279243428 -0.6324909269094727 -0.34720244146972506 -0.7223638112279052
-1.1427688988765996 1.1086913601563384 -0.44285896660679147 -1.1545076936030652 0.7666235860452236 0.7007251964233656 -0.754361115192924 0.7072678338353303
0.7031569551509096 0.564571790215179 -0.7539745237485596 0.938810367090402 -0.5026623354545939 0.8431323623258703 -0.1164759985916321 -0.8779500310556927
0.7843917359097008 -1.213772485518392 -0.3663344847206636 -1.0863211855143764 0.7165027792026821 -0.5777173673732015 -1.1989618669192703 -0.6060306817272845
0.7092821228160173 -0.8163464390217616 -0.7535005761661955 0.865986631142991 0.1546753376120712 -0.8787176753979334 0.4879796752980593 0.9795648229922977
-0.011472381818459396 0.3913143976854205 0.3228106615776269 -0.6148815723127503 0.5710502409374469 0.7830015125076775 0.520490812283357 0.9181862059912075
0.5982420329966504 -0.8721082225718833 -0.682653921940057 -0.7175606663882181 0.8168568922801571 0.4929487204683239 0.11171559188635691 1.0105641786125759
0.6024706670683403 0.6590591812576505 0.4589251652735068 -0.753800921456123 -0.7731252884706784 0.5490416423087553 -0.7655980238382791 -0.11896608086474862
0.219687739233437 0.6803328225838968 0.761119453969477 0.8668569687337004 -0.3506728215827463 0.5412926666864782 0.29648573273790296 0.45845020512006
-0.7789918914392627 -0.6628146279743748 -0.9751996099086924 -0.027426709965444076 0.697348857128985 -0.6906473606706305 -0.5089989964126931 0.5780972613252265
-0.1261927011001126 -1.0844428969009583 0.6139313238071953 0.4020338470350099 -0.7559718647530691 -0.929140689734847 -0.6270405528670018 0.05204586295496676
0.7420810487347417 -0.9284573605311768 -0.6591243336840121 -0.6857086560154282 0.34705536740384185 0.4033611692986927 0.5978158740033991 0.8058815591410385
00000000: abf4 7359 4822 e3bf afa7 3949 7137 e9bf
00000010: 4c08 e497 6617 e8bf 335d 4592 687d e2bf
00000020: 1dbf 8948 d240 d83f c425 3a90 f5fe ec3f
00000030: f329 a0cd 3618 ebbf 63c0 59d0 a841 debf
00000040: 8cff 5304 7cbf cf3f 7a52 d27f 98e6 bbbf
00000050: 8370 1727 25a0 c93f aa45 e28b 727a bebf
00000060: 70e1 f504 f9e1 f03f 3631 ad12 fc0e e23f
00000070: d73f f13e d978 c63f cf1d df51 fbd7 94bf
00000080: ee8f d33a 13b9 ddbf 8bad 7f6a 6bc5 f23f
00000090: a2a5 3fa4 55eb ebbf 92b8 9bb0 e0c5 d6bf
000000a0: 1ff7 7e3a b9af c5bf 7289 8adf 8629 ebbf
000000b0: 6628 6cf1 99a5 e43f d7f8 b8ad d872 e3bf
000000c0: 097a 0884 349a f33f d20a e8be 1b3c e9bf
000000d0: ed8d d90b 9488 ddbf 374d c212 fa8d e1bf
000000e0: 0474 d4b2 70c0 e03f c39b 1746 36a5 d33f
000000f0: fbda d98f 789f e23f 8374 eedb 60d2 ec3f
00000100: cd3f e142 6c08 f2bf 2992 5295 3787 ddbf
00000110: c1ad f04f f4ca f13f f8a2 1a4d a123 e83f
00000120: 218a 85a3 ede2 e73f b503 11b4 6cf3 ebbf
00000130: da3d 59dc dc7d ec3f ae0b 9b35 2f02 883f
00000140: 1e1f e9a8 c36c dfbf c57d 1d63 d3b8 ea3f
00000150: 95fb 47ce b7a1 f13f c841 4e0a 373c eb3f
00000160: 34b7 e8b9 1689 e23f 7e3a 9efa f114 e4bf
00000170: 0f2c 2752 d9e1 e13f 1d1c 2729 cecb d93f
00000180: f7c8 8af2 d51e d6bf 8d0d 1b0d 909a e1bf
00000190: 36f2 c131 186e e83f d0a4 9fac 21af 883f
000001a0: fbc0 a73c d03a b8bf 649c 8b2f 9350 e7bf
000001b0: 13f6 083a 74dc e2bf bad0 80bb b77d e5bf
000001c0: 0699 3696 0fea e6bf e601 39af 3083 f0bf
000001d0: 069b 7557 bae7 df3f 3585 48c6 8284 e93f
000001e0: 1010 048a 0dc7 edbf 6f8a 8e98 fd1c e53f
000001f0: 9fad baf0 2657 e93f 0eec f690 48df e03f
00000200: b2c2 b30e e429 e63f 9a1b 2f48 25e0 e53f
00000210: cb16 0a76 961b eb3f e49e 4163 e73f f33f
00000220: fd77 2463 1b12 e63f 9b1d d2d4 dfbc f23f
00000230: 4d0c 5a0c a056 e33f 178f 77c8 7a05 e43f
00000240: 515a aacd 3d00 e7bf 0cae bb9a e0f7 eebf
00000250: 3298 387d 4dc6 c63f 62ea 421e 3630 e13f
00000260: 4789 dc05 1ca8 e53f 46f2 5f95 f24f f23f
00000270: aa74 4186 d7ee e53f 7284 6289 58e2 eb3f
00000280: c7c0 4019 4e94 e43f 9979 ebe9 aebf e93f
00000290: b077 a30c 9979 e0bf 3902 fa0e 0b5c f03f
000002a0: acc9 cb70 f887 e53f a2da 26b5 081f c93f
000002b0: e93f 0823 0cce babf b5ea 957c a24b e83f
000002c0: 27c2 f3f0 924f ecbf 8747 629e 9e7b e7bf
000002d0: ec88 4be7 681d 893f 60bb 599e 76ae e53f
000002e0: 49c3 f226 9bd8 e7bf 536c dca5 bf54 ea3f
000002f0: 5ec5 8657 7320 e9bf db17 3884 479c f03f
00000300: 7143 2cfa e54b ee3f cd10 f98e 461d f13f
00000310: 91c7 93d5 0f9b df3f 43ec 6533 bcaa 95bf
00000320: 1ae6 cbdc b8d8 e53f a113 2a6e 0c84 ea3f
00000330: b88b f3db d6c0 e63f deaa 5545 b4a3 f7bf
00000340: 616e 4bae 059b e13f 12ee e5a5 e259 813f
00000350: 9218 e919 860d e93f de42 d91e 28c3 df3f
00000360: f2b4 af19 1380 c13f a4f7 3764 c797 e73f
00000370: 24e0 3cab d3f0 e8bf 88e3 1c3b 5c80 e33f
00000380: 6086 d6dc 20a6 e03f 5628 72d7 5685 f0bf
00000390: 39d7 f8a9 72dc de3f ff75 83cb e0a7 e9bf
000003a0: 72a6 eb6a 6395 e43f 7279 43dc 0602 e8bf
000003b0: 3ac7 8b7f 889d e63f 3807 8264 1124 e1bf
000003c0: 02fa 6aff c154 e3bf bc17 1d24 9b2b e8bf
000003d0: 2a5d 00ec 63f6 e43f 2ae0 0e08 7716 e43f
000003e0: 48c3 a9c9 8e5f ecbf 3936 68af 2f5a e83f
000003f0: 7dc9 4b26 a7a2 ea3f 2287 81d4 b2d1 e73f
00000400: 7d2f dfba 011e f5bf 9826 05f8 39e2 f33f
00000410: 335b daad 1882 e33f ac06 458d 14de ecbf
00000420: 51f8 6683 a6d4 e73f bdd7 15c7 e13f e63f
00000430: f005 abbd 5865 e93f 20c7 983b 49ea e53f
00000440: 0190 958b eb52 f03f 64cc 33c5 a9d8 eebf
00000450: 2522 097a a919 cc3f ca19 0084 fcd6 e7bf
00000460: 8f16 d6fa 61ba e7bf 3e1f e940 69cc e2bf
00000470: 3723 e9eb 9094 d33f 939e 6855 4f1e e03f
00000480: 211b 108c c105 e9bf 471b 5049 b156 bbbf
00000490: 336e afb6 4f15 e73f 3cf8 83ca dfb5 d3bf
000004a0: 23a3 4dd4 ecfc e23f f2e4 8d91 f64d e3bf
000004b0: 29c0 94cb 3801 cc3f cfd1 daf5 3b78 d8bf
000004c0: 9cce d28d a86a eb3f 3a39 90f4 d992 b33f
000004d0: 4f41 712e 8324 6abf 44c8 f4c6 0969 e3bf
000004e0: 0d72 4ae4 54b0 eebf 4122 82db e074 b53f
000004f0: dfea c348 2c47 de3f dac6 a08c 1d98 e2bf
00000500: b5ea eb63 8abf e2bf 7699 c6e0 0feb e5bf
00000510: bd9f 4700 e0c5 e0bf bb32 3298 5114 e83f
00000520: a0ef 5c6e eb52 e9bf 22f9 c29c 5d3d e4bf
00000530: 710b cd96 9038 d6bf 6a35 21b6 9a1d e7bf
00000540: 8ef9 780a c848 f2bf eeaa d326 33bd f13f
00000550: f441 9422 cd57 dcbf bf16 300f dd78 f2bf
00000560: dd01 cd2f 2e88 e83f 96e3 433f 576c e63f
00000570: 1916 e4eb b923 e8bf 77bc fa26 f0a1 e63f
00000580: c27f ca03 4380 e63f dcfc e6db f810 e23f
00000590: 388d 302e 8f20 e8bf aa91 f909 bc0a ee3f
000005a0: b9ab 7652 cf15 e0bf 5771 4cb8 f0fa ea3f
000005b0: 0c52 b8fc 5ed1 bdbf 1a01 dda9 2a18 ecbf
000005c0: c283 9fb2 bc19 e93f c760 a1b2 9c6b f3bf
000005d0: bd6c d131 0672 d7bf 75c7 cb52 9261 f1bf
000005e0: 6865 853c 97ed e63f 2c5f e621 a97c e2bf
000005f0: 241c 79a3 f22e f3bf 4c85 cc74 9a64 e3bf
00000600: 643b 246c 70b2 e63f aabe 3991 821f eabf
00000610: b8d4 843d ad1c e8bf 1b09 7198 29b6 eb3f
00000620: 4c53 45c6 66cc c33f 630a c887 741e ecbf
00000630: ae24 a11a 0f3b df3f dc0b e253 9858 ef3f
00000640: e574 bd05 d57e 87bf 07d2 208b 4b0b d93f
00000650: 7faa 910c eea8 d43f dee1 7f1e 1cad e3bf
00000660: 4c60 a627 0b46 e23f 5e0c 1e30 590e e93f
00000670: 0b04 1459 dca7 e03f 97db cb09 c861 ed3f
00000680: 7505 da79 cc24 e33f 0e9b d080 4fe8 ebbf
00000690: 71ff a609 4dd8 e5bf 5011 61c9 41f6 e6bf
000006a0: 0260 bb10 b123 ea3f 490e 41ca 788c df3f
000006b0: 76ed 9a9d 6499 bc3f e066 1a58 452b f03f
000006c0: 4f73 7b90 7047 e33f 262a b447 0317 e53f
000006d0: 924f 0aa8 075f dd3f a828 2b1c 231f e8bf
000006e0: ed25 b63e 71bd e8bf a776 3bc7 bf91 e13f
000006f0: 7c90 486d c77f e8bf 23bb a5a2 8f74 bebf
00000700: 2d7e ab53 ba1e cc3f 2795 ec56 49c5 e53f
00000710: b8be 642f 175b e83f 86ab 60d3 4abd eb3f
00000720: e3cf 126b 6c71 d6bf 2b75 9fff 4452 e13f
00000730: c1c0 754b 9ff9 d23f 1773 7587 3f57 dd3f
00000740: 0b96 3267 80ed e8bf 29bb ce05 c735 e5bf
00000750: 4027 f4cf d534 efbf 2795 5a59 bf15 9cbf
00000760: f4b3 e88c ae50 e63f 38c5 647e c819 e6bf
00000770: 4242 6943 b849 e0bf 8591 e9d3 c57f e23f
00000780: 7c04 1c1a 1527 c0bf 191b 89cb e059 f1bf
00000790: 90bd b74d 53a5 e33f b6a0 392c ecba d93f
000007a0: 2af0 79e8 eb30 e8bf dd68 7941 85bb edbf
000007b0: 868b 7a59 b710 e4bf 863e 915e c1a5 aa3f
000007c0: d381 69c1 20bf e73f c4c7 e635 ecb5 edbf
000007d0: bf75 25ea 8b17 e5bf bc73 8547 53f1 e5bf
000007e0: 23a6 39b7 2736 d63f 204f a75d abd0 d93f
000007f0: e7f9 7bc1 4e21 e33f 5fba 9e1f c8c9 e93f

bias f8 [128]
-0.15077805123953605 0.05250522036408886 0.08464010627106959 -0.06980506001064975 0.04405785837998745 0.04712129204057878 -0.0947820113451755 -0.1320944564232951
-0.06790021664506299 0.024270167367886113 -0.08210977901856913 -0.03825183135086562 0.013107003322354848 -0.04093810489791772 0.12020325289632258 -0.02029042765055108
0.03622729024542818 -0.18993480085051448 0.07269840985363403 -0.055525868827645666 -0.07043446078715945 0.0043403507675031155 0.04786444712361575 -0.13219835015202816
0.01660353994117237 0.050133345263251736 -0.0363693710210917 0.02497770320511859 -0.12807170415759944 -0.2094351633696476 -0.07975705825569111 -0.07702138307630765
-0.014877547149271201 -0.09857204889820734 0.02561095300136675 -0.0590719040719196 -0.0029518928318422594 -0.02688459997025344 -0.07037322621044916 -0.1473646018853582
-0.033080262011580555 -0.009532334700975193 0.001000222086431339 -0.036212479960219375 -0.2234416823317535 0.16166830647743627 0.055031093245715916 -0.025990682180975146
0.018845029753221876 -0.011147358874366837 0.02487211377041666 0.09904257681153701 -0.0025402538189421633 -0.010007143197876274 -0.046010034455661555 -0.06769050322759718
-0.10146082796711577 0.0017887149616688024 -0.014887286375962447 -0.0049380209374525336 -0.09244356457296168 -0.017629100024073592 -0.008978758733618773 -0.0899124575782519
-0.02438917148026369 -0.14200303814048512 0.020255024459365382 0.014955238059582827 -0.06349609380767811 -0.06359204312106312 -0.07667786177234641 0.019096687336024896
0.04872276057449135 -0.02551466765178089 -0.17704715426244064 -0.02045357862929916 -0.05350360478442439 -0.024516619265762457 -0.09944026549482926 -0.04976017294462457
-0.019798575887654015 0.054058647202428665 -0.013961663965458034 -0.10435414249672545 0.004862207685425888 0.07091291796265617 0.014538463159274468 0.15048258155397437
-0.03274793153067826 0.04214121302069012 -0.08294521870942094 0.04576473431331078 -0.1429712967845858 0.06067336210907859 -0.10075419226546779 -0.19887459369103686
0.00878664515907232 -0.13930664444283883 -0.05005018181049781 -0.015157196946976112 0.00937452204190471 -0.04589019550705145 -0.08804275259943838 -0.051401994662753255
-0.02359964677400568 -0.04321170837726021 -0.09430284627294558 -0.009484624380623554 -0.024873577742913218 -0.034126241870906814 0.0008831272837490328 -0.014833370624071382
-0.057332164203414596 -0.06032377349542713 -0.025946391332098764 -0.08258341262765129 0.04016994566813095 -0.09273845605804139 0.0030091047627257466 -0.060476603993180215
-0.012026992994270702 -0.06244256999282841 -0.04116118429878726 0.118098002033433 0.05412206109060024 0.07926794083349814 0.02336697534146543 -0.007385551247654636
00000000: 41a3 83f7 b14c c3bf 8c83 aad8 f6e1 aa3f
00000010: c33c 5d58 f9aa b53f 954f d791 bede b1bf
00000020: b268 bf69 c08e a63f dde3 8430 4820 a83f
00000030: 6804 fa46 a243 b8bf e014 299d 78e8 c0bf
00000040: 9ac1 e199 e861 b1bf de3d 745c 47da 983f
00000050: db08 917f 2505 b5bf af01 5479 be95 a3bf
00000060: 93d2 f134 d8d7 8a3f 91bf 64db d6f5 a4bf
00000070: 7e01 10f0 a3c5 be3f 7750 b98c 03c7 94bf
00000080: 2554 a725 628c a23f d33a 0397 c84f c8bf
00000090: 5de5 caec 5c9c b23f 02b9 64fd e26d acbf
000000a0: 529d 9729 fe07 b2bf 47f0 9709 30c7 713f
000000b0: 56f8 1256 b081 a83f a37a 3e23 e0eb c0bf
000000c0: c23f 2eb4 8400 913f 1e82 b0ec 13ab a93f
000000d0: fd2d 3996 019f a2bf bba9 9449 c193 993f
000000e0: 2a2f 7352 a764 c0bf ff0b a77c c5ce cabf
000000f0: 1757 d564 f56a b4bf 36ca 6761 acb7 b3bf
00000100: 6246 9b93 1e78 8ebf 8e48 518e 043c b9bf
00000110: a5b5 3df6 c139 9a3f 59e3 3330 ac3e aebf
00000120: e0e4 9165 912e 68bf 8f99 8df6 a287 9bbf
00000130: e77f 16d1 fa03 b2bf 25c4 d7e0 d7dc c2bf
00000140: 1238 f766 e5ef a0bf 5d99 5c4e b085 83bf
00000150: acef 9849 3c63 503f b1bb 4532 718a a2bf
00000160: 0ecc 16af bc99 ccbf c965 8f0c 8cb1 c43f
00000170: a7c7 8113 092d ac3f 2a40 df27 4d9d 9abf
00000180: fdce ed89 1c4c 933f d7dd 6a2e 6dd4 86bf
00000190: 43c3 e74c 1378 993f bd2e 51b4 da5a b93f
000001a0: d0bc 6d62 4ccf 64bf 6413 1706 a07e 84bf
000001b0: a2bf 8c92 a08e a7bf 80c0 9c31 2a54 b1bf
000001c0: c99f f139 56f9 b9bf 996e c810 6a4e 5d3f
000001d0: 2b37 e3c0 397d 8ebf f0e2 eee6 e339 74bf
000001e0: 6a08 91a6 61aa b7bf c2c7 3ee0 5c0d 92bf
000001f0: 8cdf f498 7463 82bf 4d34 cdb8 8004 b7bf
00000200: ac7d 8997 79f9 98bf b97d 5fd2 272d c2bf
00000210: 8ed6 87ae bbbd 943f 245b f512 daa0 8e3f
00000220: d3e5 53ae 4741 b0bf 46a4 7d71 9147 b0bf
00000230: 1bb2 a30c 29a1 b3bf 26d9 47fe 148e 933f
00000240: a4ff 798e 30f2 a83f 9ee4 875c 8420 9abf
00000250: 331a b42c 7ba9 c6bf 362e 326d c8f1 94bf
00000260: ffcf 8811 d364 abbf 08da d177 e21a 99bf
00000270: 84b2 34d0 ea74 b9bf d584 e156 2a7a a9bf
00000280: 4786 c7ef 1346 94bf 5bd2 9933 93ad ab3f
00000290: 71fa 08d1 ee97 8cbf 46be 39fd f3b6 babf
000002a0: fe99 ecef 64ea 733f 4e77 8357 5927 b23f
000002b0: 17ec 6c7e 57c6 8d3f 2a2c 3263 0343 c33f
000002c0: a42f df3d 56c4 a0bf 17ab 7977 8893 a53f
000002d0: 876e b7d9 e53b b5bf 0621 5faa 796e a73f
000002e0: ca6e fa29 e24c c2bf 3064 fe33 9410 af3f
000002f0: 810f b7d8 06cb b9bf e342 f401 b974 c9bf
00000300: 7055 cc8c bbfe 813f d9ad ffd4 ccd4 c1bf
00000310: f0e3 116c 2da0 a9bf 6b87 7d89 bc0a 8fbf
00000320: 4755 af0c f332 833f 84d5 d171 eb7e a7bf
00000330: f77c 1047 f889 b6bf 7927 0dbc 5c51 aabf
00000340: d4b3 5d7c 812a 98bf f4b9 9154 d81f a6bf
00000350: ee79 a938 3b24 b8bf aeaa 3cbc ac6c 83bf
00000360: c2e4 c28b 7578 99bf 6bb7 8aa9 fe78 a1bf
00000370: e6e6 a466 35f0 4c3f 2b38 c24d f560 8ebf
00000380: 426f 8634 a45a adbf 7a18 abf4 c1e2 aebf
00000390: 44e0 e1d8 b091 9abf a486 6dc0 2f24 b5bf
000003a0: f47a dab5 2791 a43f 65cf d91b b5bd b7bf
000003b0: ea04 7ad1 8ca6 683f efcf a518 caf6 aebf
000003c0: 8d0c a3ac 9ba1 88bf c5a9 fef7 78f8 afbf
000003d0: 5418 db28 1413 a5bf 8fdf 74b0 ab3b be3f
000003e0: cfa2 c004 e3b5 ab3f 8c4a 805d e74a b43f
000003f0: d295 972b 83ed 973f 1f4f 25d1 4f40 7ebf
