notebooks/models/autoencoder-[128-64]-V05.pt (torch, 154015 bytes, 6 tensors)

weight f8 [128, 64]
0	0xbfaedca07ea4ec6a	-0.0602769999117861
1	0xbfb83385ec149a22	-0.09453618062671201
2	0x3fa7fd632e82529e	0.04685506766069135
3	0xbfbcb6609413dfcd	-0.1121578561322842
4	0xbf7a28d8d5f67d70	-0.006386610998929995
5	0x3f83c154c743ed9c	0.009646093684287753
6	0x3fae575bdb6ae863	0.05926024487912753
7	0x3fa00ec819607d21	0.031362774942176104
8	0xbfb976d301685569	-0.09946936401714414
9	0xbf8543dde8c2e771	-0.01038335196095705
10	0x3fa038e7c3f5b598	0.03168415324294499
11	0x3fa03bc4e578a890	0.031706002246509546
12	0xbf5b55992563a40c	-0.0016683574263487459
13	0x3fbf9c5cf58c7945	0.12347966189233713
14	0x3fb3d881c3014793	0.07752238283981532
15	0xbfb48e88a87b9349	-0.0802998935065037
16	0xbf963e6f560c548a	-0.021722545268023676
17	0xbfb6d7f6199b4ba9	-0.08923280835305882
18	0xbf9f0dcb33fb36cd	-0.030326056525885648
19	0x3f925e153696166a	0.01793702264469347
20	0xbf909e0fdb5c9f2b	-0.016227958453924145
21	0x3fa3289706e14807	0.03741905173286857
22	0x3fbdce595912ae08	0.11642988609917648
23	0x3fb77e9fd120b407	0.09177588325174223
24	0x3fa172d351efeb08	0.03407917380532949
25	0x3fafdc1018b4ed8e	0.06222582151027743
26	0xbfb5063d088d5ef5	-0.08212644060892756
27	0x3fb2de7836495a76	0.0737071163688173
28	0x3fed103e3ca09018	0.9082328018307662
29	0xbfe28a50329784a5	-0.5793839443323533
30	0xbfd0fe78da97e31e	-0.2655317434978758
31	0xbfd9b512f015704b	-0.40167687841108507
32	0xbfb0c54d8e156735	-0.06551060408437766
33	0xbfbe9a976ef2a29e	-0.11954637964903234
34	0x3fb4b7efc866658f	0.08093165056779682
35	0x3f972b3c9ddcdf76	0.02262587274091695
36	0x3f7b1802dafcfec4	0.006614695695872978
37	0x3fbfa0b41019901c	0.12354588883459922
38	0xbf434ab5a7976668	-0.0005887400613417528
39	0x3f869a2cc5439bf9	0.011036252756140274
40	0x3fa938016905f3de	0.04925541312238811
41	0x3fbd21f98508a1b5	0.11379966256993763
42	0x3fb017aed170866a	0.06286137212057388
43	0x3fa1c36edf8bb25f	0.034694161213199896
44	0xbf8d03b598cac76a	-0.014167231297822009
45	0x3fb183988c5c5f83	0.06841424395349631
46	0xbfc135deaf9505e1	-0.13445647786470175
47	0x3f82088730007fef	0.00880532851448376
48	0xbfa4dcbf866de8ad	-0.04074667469008495
49	0xbfa59608eca0b5ba	-0.04216030014536494
50	0x3f5d360156494d46	0.0017828953797519183
51	0x3fb72e71809c5238	0.09055241956623028
52	0x3fb2e6cbe5f91656	0.07383417477202533
53	0x3fa7f0b3f9d1235e	0.04675829338572755
54	0xbfb0d5ec8b858a36	-0.06576422125139278
55	0xbfb84546e073d2fa	-0.09480708102985239
56	0xbf9f99a0b73b08c4	-0.03085948103285642
57	0x3fb044d96e2f1f31	0.06355055751839413
58	0x3fc662a00d743ff7	0.17488480240763213
59	0x3fc67e635b435411	0.1757320590610623
60	0x3fe5db408f752f2b	0.683014183226509
61	0xbfe18ddda2d854b9	-0.5485675983969919
62	0xbfddca2d8fc52f40	-0.46546496429504103
63	0x3fb8a8612ff9f14d	0.09631926938340492
64	0xbfa4b74fac8c2a8f	-0.04046105366986296
65	0xbfa5ab348760417c	-0.042321816945448426
66	0xbfb0051fe4646bad	-0.0625781948660193
67	0xbfad140ef4c58dff	-0.05679365861831442
68	0xbfb4d0a16dd1821c	-0.08130845004189563
69	0xbf788412d9c0d561	-0.005985330233717918
70	0x3fb166486cc8cb97	0.06796696334713058
71	0xbf9b14638398e2a5	-0.02644496432023637
72	0x3fa42172a1007cb0	0.03931768622737175
73	0xbfaa8e02252f6c1c	-0.05186468795701435
74	0x3f930dc7a256c1f8	0.018607253344898184
75	0xbf952934f6201bde	-0.020665004274658
76	0xbf987fb74b26d817	-0.023924697839639544
77	0xbfa95d9a99e109c0	-0.04954226616293367
78	0xbfa63c0474a67a7b	-0.04342664646104751
79	0xbfb62439bbee348f	-0.08649025762697903
80	0xbfaad8872e2a82ad	-0.05243322790670866
81	0xbf8aea8b214afcbe	-0.013142668679732569
82	0xbf97f11a2f960948	-0.023380669741081023
83	0xbfa41f02a1517ede	-0.039299089615040236
84	0xbf7067c2937db188	-0.004005203307184131
85	0xbfb87f4a405cb71a	-0.09569229194013609
86	0xbfb3d176e9f41d6f	-0.07741492473370724
87	0xbf9c840cabbdba00	-0.027847478849645668
88	0xbfa221c206c67089	-0.03541380245880627
89	0x3f892cefbc88c3f4	0.012292740765674971
90	0xbfb7168e766a4f63	-0.09018793478963753
91	0xbfb0aaaf57396398	-0.06510444526192172
92	0xbfc7dcb0f0c06ffa	-0.1864224601312115
93	0x3fba557ba03f53c9	0.10286686575211869
94	0x3ff7a32a3946a27e	1.4773351895657068
95	0x3fdc4745c2049a7c	0.44185012766903475
96	0x3f8ed0a4e4199f15	0.015046394549429057
97	0xbfc09afb2ce45c75	-0.12972964946741042
98	0x3f9dc46d37b01f6b	0.02906962063209965
99	0xbfa0b15a2eb5c922	-0.0326030904788175
100	0xbf75f755724db73f	-0.005362828994163681
101	0x3f7dad3e91baca0e	0.007245296870382235
102	0xbfa1ec5f2bc98b26	-0.035006498427512064
103	0x3f74b71628dab7d8	0.005057417450798206
104	0xbfbf29534f8f90bb	-0.12172432606127163
105	0xbf880df46ae64cf4	-0.011745366585080387
106	0x3f7d258d10ffc2b7	0.007115889588008065
107	0xbf61f8ab4267e302	-0.002193769923220735
108	0x3f99aca11bf54256	0.025072591144012023
109	0xbf970eafb1b42752	-0.02251696130864584
110	0xbfa37a702e16bacb	-0.03804350435836098
111	0x3faeffc972faa688	0.06054524925759802
112	0xbfb683749699ea92	-0.08794335057056404
113	0xbfa635511f483193	-0.0433755255399745
114	0x3f9c5e347fc22022	0.0277031138398628
115	0xbf9b71bf03c230b1	-0.026801094631580372
116	0x3f8dbeb94f4629dc	0.01452393315482408
117	0xbfb04ea88080bc45	-0.06370022904660384
118	0xbfa50606802e74e0	-0.04106159510340901
119	0xbf6f94739280b3d5	-0.00385496685705398
120	0xbfa9146754facbb0	-0.048983792422766625
121	0xbfa99c629e0d6d96	-0.05002124957419622
122	0xbfb07489dab0c93f	-0.06427823628545058
123	0xbfaaef06542a8ea1	-0.05260486390514286
124	0xbfd3008d660ef0f9	-0.29690871206891206
125	0x3fc7c092878589a2	0.18556434266345173
126	0x3ff7ee05309bcc3a	1.4956104182026722
127	0x3fee4aa3399a2425	0.9466110348740854
128	0x3f9d85ce085e6e2a	0.028830737362666316
129	0x3fa8af2b3787e9e3	0.04821143200748048
130	0x3fbe65ac3bf100e5	0.11873890365041324
131	0xbfa85bbec0c466ec	-0.04757495978465251
132	0x3f83bc83d8df3e61	0.009636907630834192
133	0xbfa62eb44b15e29e	-0.04332507530756867
134	0x3fb83518c5bc8dbf	0.0945601923709125
135	0x3fa261a4af5bf28b	0.035901209264897004
136	0xbfbde0a68991ce47	-0.11670914515144047
137	0x3f880fbef4d30fc3	0.011748782965135157
138	0x3fb2bb426e7f640a	0.07316985318847471
139	0x3fa5c6902a2915ea	0.04253054155973841
140	0x3fad26904cdcea40	0.056934842474636316
141	0xbfa57bffeb2c1e31	-0.041961667497215756
142	0xbfa0d7e1c807921c	-0.03289704863326312
143	0x3fa557cf03a4d1cb	0.0416855518291502
144	0x3fb99e1e33298537	0.10006893872334365
145	0xbfbb02ff624a88f3	-0.10551448964773495
146	0xbfae7083cd8833e8	-0.059452170218811606
147	0xbfa712e7aa975d2e	-0.04506610829747114
148	0xbfa7293163d2e21f	-0.04523615211059372
149	0xbf8ef54087bfd65d	-0.01511621870302376
150	0xbfc1e3f92c369953	-0.13976969393588465
151	0xbf847ba893e29c04	-0.010001484883401808
152	0xbfba1f6d89fb0e25	-0.10204205149334962
153	0xbf902e5d4cfb8de7	-0.015801866363188834
154	0x3f70329cbdb3e1b5	0.00395451762164394
155	0xbfb084c69c19ac43	-0.0645259982208453
156	0xbfe3579558e71228	-0.6044413315181076
157	0x3fcda71bdd0c0876	0.23166225713072536
158	0x3fea6cc7046f7cf5	0.8257784926062458
159	0x3fd89a5330418502	0.3844192477464078
160	0x3f7b6e4335353672	0.006696951418530982
161	0xbfb12731a688e3d7	-0.06700430217541907
162	0xbfbc1f5f0e37470f	-0.10985368821209483
163	0x3f9abd1337f4e4c1	0.02611188916236951
164	0xbfbf3608d1243064	-0.12191825014105145
165	0xbfa478e02ea4187e	-0.03998470849369172
166	0xbfacf3c4007037df	-0.05654728417731269
167	0xbf9511efaffb9e9b	-0.020576233974593277
168	0x3f786bb2e205e241	0.005962084542595892
169	0x3f6870b969a2222a	0.002983438619655017
170	0x3f9474cc0123c6fa	0.01997679478603851
171	0x3fbdbe4505314b56	0.11618453385135061
172	0x3fa460335afe5076	0.03979645238646949
173	0x3f92f69ad4725954	0.018518847672191655
174	0x3fb4e0137ad09ab9	0.08154412983331384
175	0x3fb31009496e0b73	0.07446344416352506
176	0x3fa49e0a9ef00569	0.0402682608619312
177	0x3f982869bfe9a124	0.023591663683334776
178	0x3fb474f4257ad894	0.0799095717910368
179	0xbf90ca3a9d669d7c	-0.016396442276940246
180	0xbfaa28a7584f20c4	-0.05109141304962031
181	0xbf93013b27e9d1f4	-0.01855938368903938
182	0xbfa6806f80f2ccf3	-0.04394863556935915
183	0x3fa2673a8938bcb5	0.03594382214611739
184	0xbfb48132b7c0bca4	-0.08009640680460223
185	0xbfa9ac69f5b7d84c	-0.05014353870858254
186	0x3f8bf4af5ed1426e	0.013650293427560824
187	0xbf8fd20922094542	-0.015537330008700171
188	0xbfeaaaeac4b7872c	-0.8333638994338108
189	0x3fdb3475325ebf8e	0.4250767700095758
190	0x3feaf826b7ee526d	0.8427918999100946
191	0x3fe27853aae2f793	0.5771883332852091
192	0xbf9ee1eb99db256d	-0.030158692613246375
193	0x3fba298b286f6b31	0.10219640481174676
194	0xbf8fe1e4c022bfc2	-0.015567576516644869
195	0xbf6b1c78dc64791a	-0.0033094749989138863
196	0x3f5af7d7ef1c09a2	0.0016460045557670018
197	0xbf7c62732da2c4ed	-0.006929826655480681
198	0x3f93fac03045e68f	0.019511225649216753
199	0x3f92fef4f1e69bf9	0.018550708069280806
200	0x3f93c192818040e5	0.019293107179749653
201	0x3fb9fdd3fcf57072	0.101529359109408
202	0x3fb221812620fb65	0.07082373791579995
203	0x3fd562812c8bac4a	0.3341372427955248
204	0x3fc7dff7cbeefac4	0.18652245958033664
205	0x3fbee95b2152845f	0.12074822963269714
206	0xbfadad3b84fba36e	-0.0579622840721815
207	0x3fad66883ae36aad	0.057422883213538035
208	0x3fb429b00eae2e7c	0.0787611041870892
209	0x3fb7d7cd0d78fd7c	0.09313661173745474
210	0x3fcc8c31ce2f2027	0.22302839820463413
211	0x3f95300697e47d91	0.020691016217026684
212	0xbfbbea5be1257f29	-0.10904478308429745
213	0xbfc7f051faa8c452	-0.1870214914247606
214	0x3fb2a193e4f80196	0.07277798023279156
215	0x3fb39f3ec62d3758	0.0766486390905049
216	0x3fa6f84356223120	0.044862846626616326
217	0x3f90f5a049c63319	0.01656198931009376
218	0xbfa05deb52376c8f	-0.03196654680842769
219	0x3fc15afcda2b0ca9	0.13558922436468393
220	0xbff4806119141306	-1.2813425998330685
221	0xbfe42ad3fc1c657e	-0.6302280353585699
222	0x3fa484f2bbeb51b2	0.04007681411681875
223	0xbfddf8423c56ff81	-0.4682775105720723
224	0x3fb8733845610e41	0.09550811475588096
225	0xbf87d81f838b1556	-0.01164269085109974
226	0xbfbadd9534cfa97f	-0.10494358577094508
227	0x3fc8a94312b6174a	0.19266546643864962
228	0x3fb4f2d3c67a73e9	0.0818302497450102
229	0x3fc09773965df737	0.12962193338528902
230	0xbfb514d307638928	-0.08234900408163937
231	0x3fc76ad014ff3288	0.18294716859090365
232	0x3fb1b7227f428d89	0.06920066458638109
233	0xbfb016563e1d7ee6	-0.06284083382115177
234	0xbfac8e1edf64b5c0	-0.055771794099523486
235	0x3f9400bcae6fb6a8	0.01953406157183815
236	0x3fc05080bbabba72	0.1274567524300952
237	0x3fac51c4faa96e9a	0.055311351393098465
238	0x3fb966041b641e15	0.09921289128043782
239	0x3fc351d613a34ac2	0.15093494376067979
240	0x3fa2add87d2249bc	0.03648258712304961
241	0x3fc21b1378c4c1b7	0.1414512958231293
242	0x3fcab104d65bb85b	0.20852718798363665
243	0x3fa2838ffd1c8bb8	0.03615999188175273
244	0x3fc16907a816863e	0.13601775844021974
245	0x3fc5ded5e4ed421b	0.17086290052476802
246	0x3fa7e706c78f3b33	0.04668446718243615
247	0x3f8f9373f2331818	0.015417962864727783
248	0x3fb50d9494c4dfc4	0.08223847038323046
249	0x3fc3ca77dc535245	0.15461633928375043
250	0x3fb7ad1c34f76d98	0.09248520177009423
251	0x3fae181b5267d0c9	0.05877766972472071
252	0xbff3cdb7491afcba	-1.2377236228638098
253	0xbfdb76bd483240b0	-0.4291222767869938
254	0x3fd1b045892d19bb	0.27638376613722543
255	0x3fb4830041ca7468	0.08012391668531083

bias f8 [128]
0	0x3faf887dd9f8c5b5	0.06158822332180184
1	0xbfe02c8729081918	-0.5054355431937294
2	0xbfc2b30447ba35ce	-0.14608815672219894
3	0x3fb431c6e89384b8	0.07888453653460459
4	0xbfc1ba67e63c43cc	-0.1385011552997909
5	0x3fbfa0c1fe4d5a71	0.12354671915577754
6	0x3fc2958ff5c15dc7	0.14518928050777744
7	0xbf86b909731bafda	-0.011095117402383826
8	0x3fa00a4cacc7eb46	0.03132857903616197
9	0xbfa3abc41240ef1c	-0.038419844845036105
10	0x3fca446cb8624a70	0.20521315577623822
11	0x3fa70ebb9eeab573	0.045034278058078046
12	0xbfcc9f363c2e910a	-0.22360876024789206
13	0xbfa730cf8fbe8f31	-0.04529427175228163
14	0x3fba3e45af564cad	0.10251269846621609
15	0x3fa2c04ea9e9ae33	0.0366234381116012
16	0xbfe39ab57d6ad09c	-0.612635369258459
17	0x3fc1762761ce26ff	0.13641826892517625
18	0xbfacc095a631b2dd	-0.056156803643579535
19	0xbfd83267331312a6	-0.3780763624929854
20	0x3fb8660610efbd1a	0.09530675805557501
21	0x3f877b288f866b28	0.011465374832189193
22	0x3fb327b24c5121d2	0.07482447016912566
23	0x3fc9596c392af5e1	0.1980414656772345
24	0x3fa07f167bb31f30	0.03221960315710104
25	0x3fc06d64948c4e9b	0.12833840611766764
26	0xbfbf06e60fcbf450	-0.12119901548062839
27	0xc001a44f48af8776	-2.2052293470923656
28	0x3fc0712441ff2bdf	0.12845280859468652
29	0xbfacb4e4ca647ae4	-0.056067609506717436
30	0xbfbc74caa4f9e716	-0.11115709808100535
31	0xbfc3e9682cb11cfd	-0.15556051428050202
32	0x3ff6e7c77b53a076	1.4315867249916017
33	0xbfb4c6dfd889996e	-0.08115958248672481
34	0xbfdfe88d94a248ce	-0.49856891169578155
35	0xbfe199279eb9b69d	-0.5499456501108458
36	0xbfd7ce47e1f57e31	-0.3719653803472936
37	0x3fbdd69c01f36bc8	0.11655592963818073
38	0xbfb0f7e9ff5451d2	-0.06628286822917254
39	0x3fd4c25edf9778c1	0.3243634398949205
40	0x3fcf6b0729b83af0	0.24545373475162746
41	0x3fc30e90a434ce9b	0.1488819886959519
42	0x3fb1e1d054a76777	0.06985189501520304
43	0x3fbd3586741d7c4f	0.11409797987788405
44	0x3fd0183235328f5b	0.2514768142229877
45	0x3fcb398db18bc16a	0.21269389313921333
46	0x3fade4bafb047984	0.058385699407369734
47	0x3fc294d24b2064f7	0.14516667049682727
48	0xbfb5037bf29c7ba3	-0.08208441422583106
49	0x3fd39ebd3ef9892d	0.30656367444875593
50	0x3fc716c764df985a	0.1803826563402165
51	0x3f9903c07cd69f70	0.024428374881295623
52	0x3fbe4f3be5cad868	0.1183965145126834
53	0xbfb535b24546e9af	-0.08285059157689177
54	0x3fe1b398a1db51a2	0.5531733666671708
55	0xbfe5046aa094cb01	-0.6567891250946049
56	0xbfb401c1a6dd91e6	-0.07815180133690766
57	0xbfa03c8cfd32c24f	-0.03171196547316823
58	0x3ff9260d01aeb986	1.5717897477839826
59	0x3fb4a4cd8c8614f6	0.08063969307666582
60	0x3fa7bb3532f1dcd7	0.04635015723118279
61	0xbfc5c028da304f7f	-0.169926744973619
62	0xbff5623896a58a69	-1.3364797482141972
63	0x3fd1deadb0c88f7a	0.2792162157440924
64	0x3fc5ddd3802e5f67	0.17083209761471638
65	0x3fc9eefbe53ac2c7	0.2026057118687474
66	0xbfe3a2a1c9387357	-0.6136025362098775
67	0xbfab5234b01f402c	-0.05336155557563446
68	0x3f9f58e543f815e3	0.030612547181609783
69	0x3fb98a86eac89254	0.09977000457781432
70	0x3fd47f7f67c464b1	0.32028184064399584
71	0xbfce00d7ff591f69	-0.23440074890299492
72	0xbfae243946941a74	-0.058870115151923225
73	0x3fce3bd47d139661	0.23620086772204998
74	0xbfca30c62bc8355b	-0.2046134675769434
75	0xbfd0ce2208082738	-0.2625813558994312
76	0x3fa7b0780f0b2d47	0.046268226467499
77	0xbfbd91bc826b328e	-0.11550501045275949
78	0x3fa1a1665ffa1c1e	0.03443450852960715
79	0x3fb9f39f6024d10a	0.10137363526593304
80	0x3f93268304159f42	0.018701598285957084
81	0x3fa541eede4f7188	0.04151865447758768
82	0x3fc738c27280bdb4	0.18141966429673817
83	0xbfb87d9cfd5aa22a	-0.09566670594598095
84	0x3fc4968f1756cd33	0.1608446945152565
85	0xbf5b265830dc7879	-0.0016570912588984839
86	0x3fce8e8c664a2489	0.23872523302660323
87	0x3fd0b6b5548eb99a	0.2611516309506442
88	0xbfba73147231de0c	-0.1033184794231305
89	0xbfac2f2904aaabd9	-0.055047303981460245
90	0x3fac31143eb3a7f1	0.05506194367792706
91	0xbfcd40a759fee9a8	-0.2285355748588931
92	0xbfe3dfb4eade4277	-0.6210579478520931
93	0xbf743a2a321a930f	-0.004938282801650442
94	0xbfc0fe0a850ed53e	-0.13275271889657775
95	0x3f9edd27eb044228	0.030140517920758253
96	0x3fd0404537df5043	0.2539227529171095
97	0xbfb1972ab116cd15	-0.06871287177527947
98	0x3fbe72b23fd3d845	0.1189376264408973
99	0xbf9749b2a599071e	-0.022742072446141674
100	0x3fbaefa6ed2d2a5e	0.10521930017891054
101	0x3fc8efd0e05a9cb7	0.1948186011770525
102	0x3fc26a4eb9e502f1	0.1438692481697426
103	0x3fc679f36509f812	0.1755966418604094
104	0xbfd3b26a731a301b	-0.3077646373792519
105	0x3fc62865199b58b4	0.17310775518735044
106	0xbff48fb3041c3f1c	-1.285082832389839
107	0xbfe46dee182c445e	-0.6384191963317212
108	0xbfa1c1f55f03cd61	-0.03468291077470088
109	0xbf527e48dcf6134a	-0.0011287414125444478
110	0xbfbc177854e59a9b	-0.10973312447240817
111	0x3fbd1cecc9776980	0.11372260969748105
112	0xbfb2756f98bde8a0	-0.07210442999886135
113	0xbfe023b27e06ff2b	-0.504357572695857
114	0x3fc5f8e5f733364e	0.1716582734137994
115	0x3fb9814989c30a14	0.09962901700331656
116	0xbfd39c1f0627010c	-0.30640388108078365
117	0x3f5d2ada6820951b	0.001780236518706352
118	0xbfcc15ec76c30155	-0.21941905783570329
119	0xbf908862aa02594e	-0.016145269037758418
120	0xbf97e1e5596a2f85	-0.023322661955304653
121	0xbfb53516f7f8bc06	-0.08284133485788922
122	0xbfe5da0a7fc32674	-0.6828663344724206
123	0xbfc44ffc1e0b5ac8	-0.15869094340333434
124	0x3fcca5960913636b	0.2238032860102764
125	0x3fcb804de8de1b96	0.21485303755272572
126	0x3fd0a05ac04a7ca4	0.25978726175703515
127	0xbfc25ff085e78e92	-0.14355284250551797

weight f8 [64, 128]
0	0xbfd4672eddeb49e7	-0.3187977950266529
1	0x3fcf8c6660064499	0.2464721649999191
2	0x3fc6293bb86b9cab	0.17313333992863042
3	0x3fa605816468c49f	0.04301075316141944
4	0x3fba386e7dcd70b4	0.10242357798910257
5	0xbfcc63fb43b0938c	-0.22180119328654901
6	0xbfb66ee4a85cb3a9	-0.08762959585574372
7	0xbfc08ab0df3174c9	-0.1292325105486383
8	0x3facaea75e03b5d4	0.05602000258100373
9	0xbfcec26cf4afdf13	-0.24030839870078377
10	0x3f86a90fe405d8a0	0.011064647813992246
11	0xbfd0d3bda26577ad	-0.26292363032359384
12	0x3f8651f4cb0d311d	0.010898506590500784
13	0xbfd634c7bafbd240	-0.3469714475643606
14	0x3fd9269cc57dac00	0.39298171316357866
15	0xbf8ae5951a6e2600	-0.013133206242645024
16	0x3fe1a4962d7cbc59	0.5513411415503341
17	0xbfd401f550de4d55	-0.3126195230226661
18	0xbfcba2cf24175421	-0.21590604078542788
19	0x3fca8195ce10c183	0.20707962571897207
20	0xbfb3ac3f39e332cf	-0.07684703028935334
21	0x3f9542d353c793f3	0.020762731541157774
22	0xbfbc05106db8ef2d	-0.10945227316636581
23	0xbfcb08e6a5cc4440	-0.21120913596726787
24	0xbfba7ed34f68a464	-0.10349770249071494
25	0xbfd1726fdaa5e97d	-0.2726096759066861
26	0x3fb3dfe32eb1e6ba	0.07763500108731139
27	0xbffb8131360d026f	-1.7190410720214933
28	0xbfd6c1d9c9ca55a2	-0.35558170991984117
29	0xbfb0c7d523e9a766	-0.06554920317435417
30	0xbfbdf77170e3aa87	-0.11705693250739034
31	0xbfcd19e966c5d378	-0.22735326307488513
32	0x3ffadb5dcd3dff0a	1.678556253173101
33	0xbfbdd39d59f91d4b	-0.11651023336991277
34	0x3fc8c0144ca1b77d	0.1933617948702099
35	0x3fbaa3dd5fd96df8	0.10406287756034505
36	0x3fc4289ead238416	0.15748961881675488
37	0x3fd97fda302529d3	0.3984284849326773
38	0xbfb99eb7be97b57e	-0.10007809069766968
39	0xbfc9db5aa5fa85a8	-0.202006655735244
40	0x3f9344b1f9e6cfe9	0.018816738965781985
41	0x3f9c1e8f0cf57190	0.027460322538318815
42	0x3fa14146111c6419	0.033701123799069595
43	0xbf9721408a0501b9	-0.022587784217877636
44	0xbfcecf3679b5cec5	-0.24069863264923277
45	0xbf775e43133f7c1d	-0.005705129635287268
46	0xbfc6bb05142099e9	-0.17758239252834976
47	0xbfc53bcd468a1901	-0.16588750786122122
48	0x3fc25f3060025fff	0.1435299366755771
49	0xbfe20bd09c74e9f9	-0.5639422469897105
50	0xbfd09230a5a62faf	-0.2589227311771038
51	0xbfc8a4456a1524c4	-0.19251315765203547
52	0xbfd82653b9bf9441	-0.3773392976712025
53	0x3fb684dd5f8630a8	0.08796485502370166
54	0xbfbf8ef113aa2910	-0.12327486734480808
55	0x3feba6744be7015c	0.8640691263645226
56	0xbfa488663a7f0b0a	-0.040103144302994734
57	0x3ff318982b328700	1.1935044944188462
58	0x3ff78066be5d2390	1.4688479839407798
59	0xbfb5548fe03d9f1b	-0.08332156395556149
60	0xbf857f86fd42377a	-0.010497145274964249
61	0x40041e0e351b0cc9	2.514675536048888
62	0x3ffa0c73a6386d3c	1.6280399792656928
63	0xbfb563e6301aa9d3	-0.08355559038560693
64	0xbfc81c92011a090d	-0.18837189725679374
65	0x3fb48a152b9ff464	0.08023197474536087
66	0x3fce3c3e5b604ee7	0.2362134882138129
67	0xbfd16d577f142f41	-0.2722986927990299
68	0xbf9c1c3e92686f3d	-0.027451493917495674
69	0xbfdf20c552f5b023	-0.486375170722342
70	0x3fd73c0de0b25910	0.3630404180816109
71	0xbfb3ba0871571b34	-0.07705738799186862
72	0x3f802c8e77764b16	0.00789748479909273
73	0xbfb1904e5614de40	-0.06860818482970732
74	0x3fd16a5cd47591f7	0.27211685893988097
75	0x3fc00073b191ebb6	0.12501379175577448
76	0xbfcb85659955c52b	-0.21500844943106165
77	0x3f92e8f52585c919	0.018466787734220256
78	0x3fd8e25bdc3bb1ef	0.388815846511334
79	0xbfc81575c9dd5a01	-0.18815491062805736
80	0xbfd120cd08526abc	-0.26762700855912747
81	0xbfd211622688ba0b	-0.28231099856466874
82	0x3faba9134d2e37f2	0.054024317904904154
83	0xbfd29794badb6eeb	-0.2905017685677495
84	0xbfd2bf24fdcb4588	-0.29291653427670683
85	0xbfc12c795e12c16d	-0.13416974156781283
86	0xbfb0a5dfd856af9a	-0.06503104240135685
87	0x3fecb40621b24d22	0.8969755800375518
88	0x3f9861d013ec9ea6	0.023810626236040598
89	0xbfc55add23580990	-0.1668354437425248
90	0x3fa15a9ca54a4baa	0.03389443891241879
91	0xbff09a2e84e316ea	-1.0376420203114614
92	0x3fd1a4dd888ee1a5	0.2756875833106512
93	0x3fba20c004d444a6	0.10206222646617621
94	0xbfccfdf2791e497a	-0.22649985231380382
95	0xbf79aa0acc2c350c	-0.006265680482795643
96	0x3fde992f25e9db89	0.4780996198891719
97	0xbfcb21597ee5aa7c	-0.21195524879597716
98	0x3fb4ffc483277391	0.08202770425800866
99	0x3fb275344f7b7490	0.07210089626774363
100	0x3fd23b95e2eb7a74	0.2848868099226032
101	0x3f9c0dae6f8efca8	0.02739594036006268
102	0xbfa00695f96d986c	-0.03130024595047662
103	0xbfcd552ffa6a3197	-0.22916221358572095
104	0x3fca7c019dd99264	0.20690937240137253
105	0xbfc6025f745b31c8	-0.1719474142213484
106	0xbff654f961b7d0ef	-1.395745641432821
107	0xbfd4826c6a7ad4d2	-0.32046041868609365
108	0xbfafd29c0751014f	-0.06215369786559909
109	0x3fa005789d3b3bf4	0.03129174155548489
110	0xbfc2fb3b5d36454f	-0.1482919888626761
111	0xbfc17fedf30c6914	-0.13671659820176585
112	0x3fb5a436d43e0665	0.08453695947357572
113	0x3fd48a24140293a6	0.3209314532671733
114	0xbfba7c2424a70117	-0.10345674414475457
115	0xbfd138d95e45c5c7	-0.2690947933798182
116	0x3fb6326e272e25e3	0.08670700508641675
117	0xbfd897ea2e37762b	-0.3842721415838663
118	0x3fc3e014786dc17a	0.15527587776479007
119	0xbfd2702d407dd1e9	-0.2880967263984347
120	0xbfc0903f9ba4680a	-0.12940211391179474
121	0x3fb206b9612dad94	0.07041510221977482
122	0x3fa543e551882a36	0.04153362865698222
123	0xbfc2211e619b12b2	-0.1416357018080326
124	0x3fcf8d79f2068f09	0.24650501554162244
125	0xbfcda0aaac688468	-0.23146565836308075
126	0xbfc686e7a691874a	-0.17599197037912467
127	0xbfcbf00dcdba304a	-0.2182633642700032
128	0xbfc13d0033b070f4	-0.13467409633529537
129	0x3fbca67d74f29f94	0.11191543679399124
130	0x3fb89638ca5bae46	0.0960422033346556
131	0x3fd1986280c36c6b	0.2749258286909881
132	0x3fcd24b68a6bdbcc	0.2276828933606495
133	0xbf4370c650a53e87	-0.0005932777724328577
134	0x3fd85d981b09df15	0.38071253433689495
135	0xbf9479eb7c8866b8	-0.019996337390785185
136	0x3fc433442b57d9c3	0.15781452289929918
137	0x3f930d2d4ec92544	0.018604953702639607
138	0x3f8ed1c06739c064	0.015048506879992547
139	0xbf932559f88896ed	-0.018697171968731153
140	0xbfe06e55b23b58be	-0.5134685975160875
141	0x3fbcda302e1bfbf8	0.11270428777423536
142	0xbfe11681f58b575a	-0.5339975162303106
143	0x3fcc2613d6a9caa2	0.21991203290561595
144	0x3fd171c8f6b610da	0.2725698861397753
145	0x3faa26d6315afe48	0.05107755043490819
146	0xbfa4fc56070adb84	-0.040987671241445006
147	0x3fc02cdba7d7f691	0.12636895843018128
148	0x3f4335f031275e0f	0.0005862639248403484
149	0x3fcb2dc56fa39587	0.21233432723162712
150	0x3fbdaf2293615f53	0.11595359895852413
151	0xbf9805c265670e4f	-0.02345947021400568
152	0x3fd1754a592fd915	0.2727838393178826
153	0x3facc87c6893c6ec	0.05621708656862076
154	0x3fc90f3b8f11fd63	0.19577736364224582
155	0xbfe6b157f8d9c85d	-0.7091483936658382
156	0xbfb47000af1838e8	-0.07983402514239268
157	0x3fd0301153181847	0.2529338180032749
158	0xbf8c2c35ff620b37	-0.013756200653238444
159	0xbfb21b0e6844833e	-0.0707253460464132
160	0x3fe4732d6a691f3b	0.6390597418148681
161	0x3fd7ac9c7a5f9c4b	0.369910354142523
162	0x3fbd3c1a7234bc7d	0.1141983536551709
163	0x3fc3130a50ef1d5a	0.14901856376512052
164	0x3fc0f9a9788f6592	0.13261907946325074
165	0xbfe28e80b4cd6e7e	-0.5798953563020885
166	0x3fcd4ae22354b9b0	0.22884775853294803
167	0xbfc5247ba09ed8bf	-0.16517587034986111
168	0x3fce237ab766c12d	0.2354577441706253
169	0x3fcf0711ed54a278	0.24240326012047198
170	0x3faae2e418ac286e	0.05251229096582298
171	0xbfe5291171c187ad	-0.6612632009312073
172	0xbfbeac86eba012f1	-0.1198200536019376
173	0x3fcda7ce8b3f3224	0.231683557502394
174	0xbfc2d2d7ef2bf818	-0.14705943277653044
175	0xbfb117a2164f9287	-0.06676686329553592
176	0xbfdea7ce711d8f8e	-0.4789920906680373
177	0x3fb83932618e6a80	0.09462275392290032
178	0xbfb381f42c29f5ec	-0.07620168760509899
179	0xbfa2568a04438383	-0.035816491146539974
180	0x3fbae453adba5c4c	0.10504649154096163
181	0x3fd3654b81e91b14	0.3030575531633286
182	0xbfc28ac5ab2e6a6b	-0.1448599897238013
183	0xbff513b42dfebf5e	-1.317310504597081
184	0x3fc0e288f7c93750	0.13191330050397676
185	0xbfe47e30c5d6b9fe	-0.6404041160620293
186	0x3fdecc51970e94c3	0.48122062446266173
187	0x3fc3d0e7b55f417d	0.15481277805384855
188	0x3fc3b778b9a12b0a	0.15403660835212235
189	0xbff7580defdb84b7	-1.458997666304908
190	0x3fea18cdb9537261	0.8155277843139396
191	0x3fbc0d7816722df1	0.10958052204130532
192	0x3fa1fabf19c8ed30	0.035116168878142395
193	0xbfe4a25d2818db81	-0.6448198111673805
194	0x3fd3c60a038b4b8e	0.3089623484240115
195	0x3fbd22c12b0914d4	0.11381156254454378
196	0x3fd1ef26fb399d89	0.2802216962213256
197	0xbf8fd1cc8e0167a0	-0.015536878665603215
198	0xbfed1f500353aff6	-0.9100723328569973
199	0xbfd080c315eb76e2	-0.2578590120373133
200	0x3fd26dfabf0e9afa	0.2879626146117712
201	0x3fcf44c768926c2e	0.2442864666562356
202	0xbfca91e08495d6e2	-0.20757681344883055
203	0xbf6318612ec7eb20	-0.002330961046252425
204	0xbfb712c3b0028e9f	-0.09013007208937517
205	0xbfbbc5655ee921c2	-0.10848077361254752
206	0xbfe12238c579790d	-0.5354274613307851
207	0xbfd19c1c18f6b4ce	-0.2751531833444688
208	0x3fa7a328e07f8caf	0.046166684536524165
209	0xbfc5a38e10edae99	-0.1690538008364129
210	0x3fc56b1bfb626e0b	0.16733121657021885
211	0xbfac5441a5c9258a	-0.0553303255915792
212	0xbfa77bcd7cc7e26b	-0.045866414529830056
213	0x3fb407734c82fa75	0.0782386838718397
214	0xbfddb2904c1f6a77	-0.4640236609826966
215	0xbff23d5bfd08efbb	-1.139980305116281
216	0x3fc15fead405142b	0.13573966362506104
217	0xbfba3235714e6752	-0.10232862488046848
218	0x3fd22137d14b5896	0.283277468098626
219	0x3ff23995f355b069	1.1390590195906276
220	0x3fce801f5b9f5d10	0.23828498815303378
221	0x3fd07c530c199196	0.2575881593859547
222	0x3fb096225da3d7de	0.06479086671956177
223	0x3fcaffc3040538b2	0.21093023010548034
224	0xbfe92f03473a7b91	-0.7869888678722977
225	0xbfa5f1f438f685fb	-0.042861587480057715
226	0x3fb352a9a87babb3	0.07548008311611802
227	0x3fc5cddde705e299	0.1703450563470781
228	0xbfe0e57884f58068	-0.5280115696769032
229	0x3fcee4c6ebd863cf	0.24135672107584447
230	0x3fa49db2d5a5772e	0.04026564462649983
231	0xbfa73fcbcc8a6fe2	-0.04540860053859298
232	0x3fcba78c0efbdd4a	0.21605063182480883
233	0xbfbb164e0007e51e	-0.10580909252884793
234	0xbfdab53867cb3a87	-0.4173108113872463
235	0x3fbbb7d1087e4ed9	0.10827356774671716
236	0x3fc4c75fb0dadd6e	0.16233440528388193
237	0x3fb6fcbc06fd005c	0.08979392214405507
238	0x3fafaaa5db684d3e	0.061848814995892884
239	0x3fb2ef078fbd24e9	0.0739598012852586
240	0x3faa7da54232672c	0.0517398494059321
241	0x3fb18ff8bfc028ff	0.06860308343326336
242	0xbfd39f5a366a1ccb	-0.3066010981933231
243	0xbfb844627640b6be	-0.09479346644431083
244	0x3fc802bd63ea388a	0.1875836122384878
245	0x3fd335cc92f5c54c	0.3001586375385912
246	0x3fe070bce7941bcf	0.5137619517344038
247	0xbf974402d5ff9490	-0.0227203791727289
248	0xbfc16f837245951d	-0.1362156208007627
249	0x3fd1fc5a19dc780b	0.28102734113224476
250	0xbfb9c0414adb632e	-0.10058982923090973
251	0xbfc082fe0a7b691c	-0.12899756919689132
252	0xbfdc5cd18b4251a1	-0.4431651935531367
253	0xbfe0e0f09095b71d	-0.5274584602281923
254	0xbfc5864fd76babe5	-0.16816137331565453
255	0xbf9bfb54228b193d	-0.027325930221899986

bias f8 [64]
0	0xbfb07b87769dc358	-0.0643849052992328
1	0x3fb73ae58f558fa5	0.09074244260187798
2	0xbfa6de75c541fdfd	-0.04466598542148501
3	0xbfb827c13a032cf8	-0.09435660997694473
4	0xbfa0b5b3d717fb76	-0.032636280066063714
5	0x3fbe5f8c43fc3045	0.11864544544022333
6	0x3fa430c23a678d2c	0.03943449938722163
7	0xbfaf900b16555f60	-0.06164583823800629
8	0x3fb8de17f79a7ee8	0.09713887972838686
9	0x3f97bb884f9f79e7	0.023176317081260136
10	0x3fba79dfaf871465	0.10342214618056429
11	0xbfb896f369c8c7ba	-0.09605332691788152
12	0x3fb7dc536039da77	0.09320565318362549
13	0x3fa0165e82c8b294	0.03142066332325047
14	0x3fbfa24d8e5a4fe5	0.12357029652986247
15	0xbf9ae4dcda4a5222	-0.026263666938193826
16	0x3f9467da90588981	0.019927420673533817
17	0xbfbb0bfa81f014b4	-0.10565152809438666
18	0x3f99bc3f9834bcb6	0.02513217321864821
19	0xbf809a79987b1e18	-0.008107137647484428
20	0xbf5d733fa0caefde	-0.0017974969261293976
21	0xbfb3f9722cd774c2	-0.07802499384657138
22	0x3f813a0f3e227bf6	0.00841152103776997
23	0x3fa20e8d38626581	0.035267270214897735
24	0xbf899abaf5c4f6ed	-0.012502155900274892
25	0xbf73a903d8f75da2	-0.004799857167618356
26	0x3fa50910f6aa0a60	0.0410847951034341
27	0x3fa10cc3b7997d26	0.03330051056104315
28	0x3f7d03fcae0f7801	0.007083880454016978
29	0x3fb0387a08668aa8	0.06336176591006881
30	0x3f6abd5f5c536ebe	0.003264127970948965
31	0xbfa22f3f0e5881e2	-0.035516710759342165
32	0xbfac65ed9ea25967	-0.055465150465510864
33	0x3fa0a92b38bdc613	0.03254065578120104
34	0xbfb71619e3f77c08	-0.09018098655313633
35	0xbf88e3a4be46b591	-0.01215294557263283
36	0x3fb79784a7a8c9ab	0.09215573399777692
37	0xbfa762282fb70d15	-0.04567075331172014
38	0xbfa834c28a110c92	-0.04727752623923566
39	0x3fb2e7792972ff20	0.0738445020861005
40	0x3fb28d66d19ae894	0.07247011773407258
41	0x3f9d069312691318	0.028345392225918337
42	0x3fc0180969b3dd58	0.12573354398021297
43	0xbfbd351361105047	-0.11409112090797278
44	0xbfa89a36258beaff	-0.04805154045421566
45	0x3f9315d554f72e69	0.01863797503555845
46	0xbf87ac3318076897	-0.01155891339378838
47	0xbf8d7f829b75f53b	-0.014403362626348773
48	0x3fb4afe023e3816d	0.08080864788235483
49	0xbfb757e7d9067664	-0.09118508385150786
50	0xbf9681b64b518da8	-0.021979187342720558
51	0xbf8c4bab1c91cf99	-0.013816201028227048
52	0xbfa250574f4fe9a9	-0.03576920359769826
53	0xbfc1f49253debe73	-0.14027623267383013
54	0x3fa51c92b48ddf3f	0.041233620205217474
55	0xbfaeb85f146073b4	-0.06000039218654454
56	0x3fa0d545f9b05d7f	0.03287714646301775
57	0xbfb5f0427f788112	-0.08569732296064483
58	0xbfaeb2b07fbab49b	-0.05995704230495243
59	0xbfb70e5f9c4417c9	-0.09006307187163921
60	0xbf9ffc1d3234d2c2	-0.03123517626700579
61	0x3fbab74b995ce87c	0.1043593644543836
62	0x3f93102acdd10b93	0.018616360485122007
63	0xbfa9dc0cfb2d85a8	-0.05050697866569048

weight f8 [32, 64]
0	0x3fb9ebf37caa5bbf	0.10125657838430778
1	0x3f96db4958d617bc	0.022320886656892233
2	0x3f8673310bfcf87f	0.01096189802012426
3	0x3faace4d037d3682	0.05235520045844756
4	0x3fb5e91615409f5b	0.08558786410196488
5	0x3fa134896aae37d3	0.03360394885304143
6	0xbfac8da28bd984ea	-0.05576808888577907
7	0xbfbb049b0656e6e7	-0.10553902535221092
8	0x3fab373d403d5351	0.053155817119352584
9	0x3fb121f50b8fe49c	0.06692439586903948
10	0x3f9fc121e7a3e04e	0.031010179293815825
11	0x3f6f13ca7c6fb9ef	0.0037936167532202007
12	0x3f705f9f0cb71780	0.003997441566246596
13	0x3f8d1a62df12b080	0.01421048396363056
14	0xbfabe72139fd63c9	-0.05449775536425922
15	0x3fac24dc235a4818	0.05496871882964188
16	0x3f9498d71787bfc4	0.020114289103673647
17	0xbf7c52793e13e88c	-0.006914590457421831
18	0x3faff16d07660261	0.06238880839646722
19	0xbfa463cf40c38ea8	-0.03982398667883774
20	0x3fa942d66f6940cf	0.049338055706017785
21	0x3fb0fe9b87383c9f	0.06638500262509915
22	0xbfa7ff2f5d5ceb79	-0.04686878218350094
23	0x3f4b27e9ee24cecb	0.0008287327039284363
24	0xbfba453dc5d9e701	-0.10261903839446164
25	0xbf86d26980b71549	-0.011143516769957744
26	0xbfb8f5bc510bb3bb	-0.09749962786345538
27	0xbfb95938d2fc7287	-0.09901766921070464
28	0x3f981b9df2dade84	0.023542850444498345
29	0x3f87b38dcf1decf2	0.011572940715032651
30	0x3fb2ae2d070fa387	0.07297021314992778
31	0xbfa9d625529e1ae3	-0.050461927733570076
32	0x3f85cc9f2b2078c4	0.01064419126856498
33	0xbf727e4110075c28	-0.004514936590985598
34	0xbfa2905b836c4518	-0.03625761012347989
35	0x3fb107cd5039f41a	0.06652529915477637
36	0x3fa546786974839d	0.0415532711724673
37	0xbfae3baf5c13f59f	-0.059049110403047715
38	0xbfb9de44fce27d7f	-0.10104781316703358
39	0xbfb0d4d6331f9968	-0.0657476305783341
40	0xbfa85762ae6ba5ea	-0.04754169825703143
41	0x3fb4a51406a09b6a	0.08064389383126316
42	0xbf763d04864bdf87	-0.005429284738731505
43	0x3f82e20b6248ae98	0.009220208107840563
44	0x3fb80c38fd3e1480	0.09393650229147177
45	0xbfbd3e3fe51e1c09	-0.11423110336009769
46	0x3f82eab97656014d	0.009236763881518196
47	0x3f976196c66c56c4	0.022833209858694983
48	0xbfb7def5a929eef9	-0.09324584369636203
49	0xbfaba7a07a50d91c	-0.054013266497735496
50	0x3f9cae22b18c5f1f	0.02800802429837212
51	0xbfa65c682aed6ea4	-0.043673758735818496
52	0xbf615fe17ff1e549	-0.0021209148686095786
53	0x3fab37caf5e62524	0.05316004039475278
54	0x3f90ae9be1ed4c69	0.01629108015488293
55	0xbfa0f1d6bf5431cf	-0.03309508405263594
56	0x3f62435eabca4ea0	0.0022293900531823035
57	0xbfb0feaf4fff6e4b	-0.06638618186064453
58	0x3fa0abe4b05ab778	0.032561441924697954
59	0xbfa6cd2180abd55d	-0.044533774334847044
60	0x3f8202b2f51a2bc0	0.008794210534025626
61	0x3f9047498dd5ca58	0.015896939546517025
62	0x3facf40873b8fe62	0.0565493241560915
63	0xbfb7ccdedbbcf1d3	-0.09296982636164523
64	0x3faf0c7660532316	0.060641955622094
65	0xbfac3c0afe6c1696	-0.055145591313743456
66	0xbfb1d628c6896deb	-0.06967406127062474
67	0x3fa8209d45ae51f4	0.04712382770154369
68	0x3f918f9283a23fad	0.017149247440613347
69	0x3fbbc4cf76558b04	0.10847183836953539
70	0xbfae44a16a9521ca	-0.05911735940987091
71	0xbf9c5be5f3611b45	-0.027694313983626335
72	0x3fb6a488610b0eff	0.0884480702325696
73	0xbfa89e9e0f918f20	-0.04808515491529719
74	0x3f95e365d48e2410	0.02137526616892066
75	0x3fa2ec69bfda3faf	0.036959938687800224
76	0xbf7ed7b6e5981f5d	-0.007529940071897415
77	0x3fa53ed8f7aa7d45	0.041495113594687306
78	0xbf8ba2de30d43af7	-0.0134942396785198
79	0xbfa11904be078035	-0.03339400119489292
80	0x3f7a3205d7e86e5a	0.006395361734145755
81	0xbfb301211bad0472	-0.07423598218612584
82	0xbfa82fa89add152d	-0.047238606361626224
83	0x3fa3f075ff9f6628	0.03894394631761272
84	0xbfa05128e5b763a6	-0.03186919979243123
85	0x3fa458adfdfa7312	0.03973907208749074
86	0x3f98f557180613c7	0.02437339862946766
87	0xbfb25b39e5ce7e79	-0.07170450077546232
88	0x3fa743cdb159a2f0	0.04543917455595714
89	0x3f95aae608efa844	0.02115973882238388
90	0xbf913b7f96c6f020	-0.016828530862525892
91	0xbfabc0f9573ab30b	-0.054206649683100926
92	0xbfacdc8d98edb17f	-0.056370186727551
93	0xbfaa8559196ce386	-0.05179861483924868
94	0xbfb929097c708487	-0.09828242576669953
95	0x3fb13edb57f3eab9	0.06736536881718792
96	0x3fa2cc8a1a45e4e9	0.03671676226344706
97	0xbf920b5a8973a0d4	-0.017621435775169683
98	0x3faa43b24ce6eb5d	0.0512977331995532
99	0xbface9d4e11cf498	-0.056471493224742264
100	0xbf8fe9dc2e24cef9	-0.015582771452137477
101	0x3fa0f91e863b208c	0.033150628934493914
102	0xbfbc02c104ef493f	-0.10941702242351868
103	0xbfab70cef19a8e02	-0.053595034592287774
104	0x3f88bc48d14b3777	0.012077874076023438
105	0x3f959d3fecf6051c	0.021107672536804775
106	0xbfa4d3ae124316ff	-0.040677489976173924
107	0xbfabdb85fc5410de	-0.054409205486111153
108	0x3fbbd5aabb4efc43	0.10872904847109148
109	0x3fae5f7075c7563b	0.059321894051816725
110	0x3fb592be66ceae97	0.08427038202233415
111	0x3fa48502838bf49c	0.04007728439135258
112	0x3fb4bc8b8a12b0a5	0.08100196953700108
113	0x3f81ecf4e517fe23	0.00875274013651423
114	0x3fa0a759a4c64518	0.032526780475686745
115	0xbfac981c07c355be	-0.05584800333751215
116	0xbfa7cf7c200a1839	-0.046504858885825624
117	0xbf90300c64ab0a62	-0.015808290142340538
118	0x3fb7ecedb139f288	0.09345899178328854
119	0xbf8cbec993e20832	-0.014035773110894299
120	0x3f904455194afee0	0.015885667485007526
121	0xbfa58ba7db259c75	-0.04208111333974155
122	0xbf8fd30d83c5e389	-0.01553927000417034
123	0xbfa37b742da5ba09	-0.03805125291079398
124	0x3f9feccf58cced5c	0.031176795763923834
125	0xbf8ab69dfc40273d	-0.01304362703378425
126	0x3fa76df46ed6f5af	0.0457607636740066
127	0xbf821e038ce26139	-0.00884630941099883
128	0x3f96e938ba366519	0.02237404476691038
129	0x3f99008497beecd4	0.02441603828604573
130	0x3fb5072e3838acb1	0.08214081642715844
131	0xbfb4a6b34130e4f3	-0.08066864339425077
132	0x3f9032cd2e97e92a	0.015818792313418907
133	0x3f9f433d7f6b74d3	0.03052993860443538
134	0xbf52df6ceaee75d3	-0.0011519015931534717
135	0xbf9aefcca227da69	-0.02630538692207055
136	0xbfc15c34cc9f8490	-0.13562641135562048
137	0xbfa4c3fe25c36056	-0.04055780611969399
138	0xbfa56e2282657c6b	-0.04185588685754101
139	0xbf8d35101d78c45b	-0.014261365794569316
140	0xbf9466dda566f8e5	-0.01992365190539482
141	0x3f987add0bc03d0f	0.023906186907024337
142	0x3fa32d4c0ab5f89b	0.037454963977311816
143	0x3fa7ba71adb6c8ad	0.046344330268213475
144	0xbfbf15fa76169337	-0.1214291132260542
145	0xbfb310966484f3d0	-0.07447185472570017
146	0x3fb3890e8519a27a	0.07631006955637956
147	0xbfb1634cc52e50ba	-0.06792144597995078
148	0x3f9e2dbb4a5d491c	0.029471327222673968
149	0xbf62db700d3c0a51	-0.002301901675197095
150	0xbfb5a3e27c46c393	-0.084531932202266
151	0xbf8d353950a729d3	-0.0142616727579438
152	0xbf9ed897decef5f0	-0.030123112653873407
153	0x3fac24f04b366851	0.054969319516388844
154	0xbfa6ab897b8d2519	-0.044277473766280724
155	0xbfa915e1ad5f6721	-0.04899506799092835
156	0xbfa8e21ef6c35efb	-0.04860016596074775
157	0x3f95e5fb1bd46607	0.021385119985188463
158	0x3fb63ef47729397a	0.08689811619954027
159	0x3f884f254c92ddd5	0.01186970844206218
160	0x3fb02c06b426d35a	0.06317178629144618
161	0xbf7da43104467a40	-0.007236663314329095
162	0xbfb2cb6a5e71adfd	-0.07341637426150523
163	0x3fa99457cf79420c	0.0499598923457861
164	0xbfa3cf5baed307af	-0.03869139203153737
165	0xbfb986fdf8ac979e	-0.09971606560847454
166	0x3fb562e7dcd74713	0.08354043141960359
167	0x3fb372fcd8ffb23b	0.07597332284758178
168	0xbfb3af15c0bee33c	-0.07689033466057266
169	0x3f98459d92a0e276	0.023703062128534978
170	0x3fc3127aa9916e0e	0.1490014389008682
171	0xbfa164e1c467c548	-0.03397279284025473
172	0xbfb21650e015aec6	-0.07065301390474152
173	0xbf8390ed425541d2	-0.009553769671271892
174	0xbfb2331542f118e3	-0.0710919655258269
175	0x3fa88444b34adb70	0.047884127508431074
176	0xbfba308b26a56760	-0.10230321591862213
177	0xbf5a91b34dc2da76	-0.0016216517461039837
178	0xbfa80d91982901ff	-0.04697852117942957
179	0xbfa18cc605d04123	-0.03427714177098753
180	0x3fae7c30846b3d92	0.05954124084893943
181	0x3fb2d915826cba79	0.07362493929097437
182	0x3fb907817ca9887c	0.09777077954780283
183	0x3fb5ed7ef8a48dfe	0.08565515108471541
184	0xbf94f4088bf8add8	-0.020462163489509994
185	0xbf951a0edbde4377	-0.02060721604317758
186	0x3fb17f8649ce1132	0.06835212041739139
187	0x3fa54deddbc387c9	0.04161017711318455
188	0xbfb5094aa04c9fd4	-0.08217302716786828
189	0x3f4c143d5d910c7d	0.0008569049488261895
190	0xbf6738a2ea906abf	-0.0028346235235522095
191	0xbfadbd391fdaa1e1	-0.0580842830070798
192	0x3faa3bb1becbc2a6	0.051236681499976997
193	0xbfa399b96b3ba6cc	-0.038282198276488794
194	0xbf94a312aa94e582	-0.020153323804355867
195	0x3f9112bc7f2daf57	0.016673035871846178
196	0x3f85c33e2126bc5a	0.010626302134225597
197	0x3fa5a627d699d1e2	0.04228329176558866
198	0xbfa1d3cfc904348e	-0.034819119728220035
199	0xbf91973b369b9cfe	-0.017178464134215858
200	0x3fb247c698f4b2f8	0.0714077113559134
201	0x3fad6841e8383c79	0.05743604621613314
202	0xbfa48c39a201f99c	-0.04013233282693138
203	0xbfa6a8ae93e67386	-0.04425569110319487
204	0xbfb27f061077952e	-0.07225072767285631
205	0x3f93eb259930fd84	0.01945170161729727
206	0xbfa2f157721bb38a	-0.03699754016802277
207	0xbfb61d9eff28a6f0	-0.08638948182547401
208	0x3f95f892e2166482	0.021456046151432158
209	0x3f902b46ece4014c	0.01579008885255577
210	0xbfb16bee828f11ce	-0.06805315673324872
211	0x3fb02e52497ee551	0.0632068089897946
212	0xbfa0614fbce11c93	-0.03199242764144929
213	0xbf97596bfbae4858	-0.02280205463063853
214	0x3f9a0e83fcb00d28	0.025445997522195146
215	0x3fb6067839ffc395	0.08603621879571073
216	0x3f7a21facaf430c2	0.0063800617783835185
217	0xbfc052cad5038c0f	-0.1275266208750456
218	0x3fad11c7ed050674	0.056776282961902874
219	0xbfa6be82cc826cff	-0.044422233070884325
220	0x3f5c34c921a40bea	0.0017215694593353211
221	0x3f6415d0ed172161	0.0024518089855726653
222	0x3f96b0f89b100bb6	0.022159466232561896
223	0xbfb2603f92798d33	-0.07178113294644532
224	0x3fb312cb0dd5098d	0.07450551116656907
225	0xbf914df6fce83b7e	-0.016898974596240894
226	0x3fb0e2a97e2320c9	0.06595858888170193
227	0x3faee2a194d57585	0.06032280866450449
228	0x3fbaa126901d8f04	0.10402146357006009
229	0xbfadbd18152b108c	-0.05808329828644884
230	0x3fb59ad1afb274a3	0.08439360179405013
231	0xbfa4644f5b3f6616	-0.03982780445921834
232	0x3f492f8884d7f681	0.0007686058613100706
233	0xbfbb4e66378ce0c0	-0.10666502815445522
234	0x3fa89a8ae08978bf	0.048054065617848966
235	0xbf957b19fbecf1ab	-0.020977407456699442
236	0x3fa94e6e875944e9	0.049426511785563516
237	0xbf9fbc069665f3ae	-0.030990698747234972
238	0x3fbc8a74bc8954ad	0.11148767092648156
239	0xbfb50c6f70fdc3db	-0.08222099789215014
240	0xbfa6d99c49378902	-0.0446289862991467
241	0xbf78f2a169205de4	-0.006090765486099301
242	0xbfacbdf7ed6a01bd	-0.05613684437867359
243	0x3faaa6176e50584d	0.05204842778782446
244	0xbf7e714fb4189424	-0.007432280866429362
245	0x3fb0928ec54ff0cd	0.06473629300302548
246	0x3fb2c0d85a9d18c9	0.07325508320090814
247	0x3f9d470d5b3df7b2	0.02859135503194183
248	0x3f7845e3abd11d63	0.005926026668994086
249	0xbfb4b00057e3fa61	-0.08081056733861082
250	0xbfb7318032ab731a	-0.09059907185605845
251	0xbf9d6cb23db2a061	-0.02873495580266228
252	0x3faeee528a2c5002	0.06041200577433871
253	0xbf7b1d76adb35279	-0.006619895542105619
254	0xbf95fe3f8aa00479	-0.02147769244766493
255	0x3fb0836020d16635	0.06450463105411404

bias f8 [32]
0	0x3f64e2c5021ee078	0.0025495384042777923
1	0x3fa4a11d406f0620	0.040291704287948926
2	0x3fb5b00019cf2eee	0.08471680288419822
3	0xbfa5746c17645a5b	-0.04190385613963051
4	0x3fa41585feb18d9f	0.03922671064426741
5	0x3f997479886da7a1	0.024858378364491455
6	0x3fb0ce5aac4907ea	0.06564871507819672
7	0xbfb49e0c660979d6	-0.08053662768495626
8	0x3fb54dc5fe2c2880	0.08321797805197839
9	0xbf3062674027d804	-0.0002500059200934992
10	0xbfbd1979ee108c1f	-0.11366998731732324
11	0x3fbc15d0591922e4	0.10970785308121439
12	0xbfb444032c6bfef3	-0.07916278681295434
13	0x3fb253104b936605	0.07157995076286035
14	0x3fb743f3667323ee	0.09088059664931311
15	0xbfa9470d3a1ab334	-0.049370206206140216
16	0xbfa94384826c39a5	-0.049343243523355874
17	0xbf700e70b4c31051	-0.003920021303375946
18	0x3fbcdd4ffd43d32e	0.112751960117589
19	0x3f7c301939a21a13	0.006881807838118553
20	0x3fb54f10283fc7c1	0.08323765738148749
21	0xbf6bfd7cd365e631	-0.003416770744647101
22	0x3fb7018c281e4733	0.08986736278009459
23	0xbfa3872bf427000c	-0.03814065318465518
24	0xbfb89a7699446bea	-0.096106922549026
25	0x3fb907aca258c07a	0.09777335132162249
26	0x3fb653022ff0ecfd	0.08720410986363798
27	0xbfb10a3c9e5f62b4	-0.06656245104330588
28	0xbf92fa0de33ae2ef	-0.018532006258030028
29	0x3fb7b2d07126c6cc	0.09257223856436808
30	0xbfc3008dded36259	-0.148454412271138
31	0xbfdb38e1a2107b1c	-0.4253467638645121
