notebooks/autoencoder-16-BIT-[128-64]-V01.pt (torch, 112983 bytes, 6 tensors)

weight f8 [128, 32]
0.13382327107759415 0.15790052070914365 -0.05726977598672633 -0.10029220541164058 0.5626980112948353 0.1531809587362959 -0.03060414304882832 5.563851328752658e-05
-0.1735160215723723 -0.24438463885409586 -0.1322726668934134 -0.10592615933732273 -0.5385611668073633 -0.7682672264198889 -0.0845748478519647 -0.020031879147150086
0.13534234850360538 0.13983865260770076 -0.08460787076312545 -0.06278844171036303 0.5646991427213143 0.18644027224400822 -0.06263472474891575 -0.009431753387216654
-0.12801608838346606 -0.2354134217649566 -0.08145920335374965 -0.09492856967436286 -0.5242844966948191 -0.5887350200201297 -0.41952118038465946 -0.049993861207441176
0.042899618436402984 0.16161133229835328 0.12498368353886645 -0.025219995981512883 -0.02053403524654883 -0.09025548883812193 -0.3475616143251903 -0.7201333263796875
-0.0092398947996476 0.40168865479058924 0.4336433616005506 0.32339453640558774 0.19237559999025022 0.044426061362842634 0.05069374398945621 -0.5614221297142757
0.009986976857091502 0.17138822923096234 0.0940691469986444 -0.01963609978204707 -0.043528669248730556 -0.07091388262697486 -0.24076312354030902 -0.7229635291713992
-0.006442384532286798 0.41047979877549057 0.42055310862848644 0.33524437078520813 0.2201383845928867 0.07838117859672464 0.09235116794267387 0.2632113196297697
-0.039524693100247664 -0.09084811674416042 0.02165527123992857 -0.016690826566138756 -0.0170814454372286 -0.0640685951051132 -0.12033636304460973 -0.817550675961138
-0.14889499597947486 -0.17995950371787522 -0.6263245149394149 -0.5041290259622566 -0.05668511565596939 0.10888555653924285 0.04190040054536906 0.003872250494652855
-0.022070603923049173 -0.10181836031046775 0.013849855017485332 -0.0381527868320887 -0.037834197396746476 -0.07031223115636757 -0.025909490290163362 -0.8284528421387695
-0.13485429774233046 -0.16585738649213494 -0.6067103773154819 -0.5001918775174196 -0.04688195233030016 0.17375313689925123 0.09204332278760419 0.0804105826006716
1.515768381463177 0.9370370867232707 0.43203834522401896 0.13749060583152853 0.10263121185865097 0.08413430712015023 0.037272981630546174 -0.16329135383928417
-0.11514792323929275 -0.2218270668248421 0.20274393544595173 0.6065287861263051 0.26788023380158843 -0.07803759318794097 0.022580178027526977 -0.007870274060131386
1.5234527803671554 0.9352943344152587 0.40819654152354856 0.1339604139822589 0.1131980673854222 0.114213827374008 0.04016288053030657 -0.19418509967710065
-0.17641205245573827 -0.18341632782386852 0.14322293958978852 0.6524753289462711 0.270474076443016 -0.08517364546430435 0.015255108658824807 -0.08203095949505447
0.0021503975714576963 0.2775984161955252 0.009817256938547923 0.13330981334559933 -0.7677284648319493 -0.724758267926605 -0.28812322138232344 -0.11990319389953373
-0.005636408477812566 0.16648562863424837 0.514926246688769 0.3465922728437355 0.02993543590191932 0.005696993959572527 0.14502404496070267 0.2500886698030184
-1.2775029492014332e-05 0.27081628499691257 -0.08551062623434201 0.1857568808788393 -0.8464889625436169 -0.7522620417366979 -0.26754384413065335 -0.19897308928719654
-0.04064834293477402 0.1997187153829583 0.45806120238358267 0.3507141217333619 0.061532483462082274 -0.4096765495451174 0.1708646022849096 0.07207448674615662
1.4401147845095332 0.6562824634291192 0.42891723807709686 0.2336329345700841 0.12834237819939895 0.13235474061486704 0.1894775626546471 -1.7467855802349863
-0.47926739997433704 -0.43670176886801554 -0.6621014640663958 0.0803705829377473 0.09346869754602309 0.10710147234620766 0.06001799573337461 0.04655458432249948
1.4428730991803647 0.6674453928182935 0.3511346040141187 0.2594718684161586 0.17091035992709752 0.08680924618559298 0.3127359347219469 -1.7664936517890506
-0.3749771833388912 -0.4280349967504718 -0.674793081523657 0.04711391516686258 0.020338306032592044 0.08298287418539214 0.07078188088012281 0.06654273133462844
-0.03782047203904406 -0.10993537756502907 0.005172948582497123 -0.003534033993605595 -0.36841374335968613 -0.4034265213998537 -0.3177057743491256 -0.6384026023821067
-0.42113831020244086 -0.040046343963746366 0.36555617293817816 0.8708451994887456 0.27931298389082626 0.5796879028446771 0.26035870494146185 0.10961169898296924
0.0025459312504520436 -0.12504251808194122 -0.04523565916939082 -0.06998980465107088 -0.3930727214738846 -0.4265358748335181 -0.436588133262698 -0.6507276332570407
-0.41304351349680357 -0.044300142509189885 0.347956883416794 0.9066266776498357 0.27951511115086924 0.4101278020198478 0.2363924581914302 0.29290645277642363
-0.052849536025525015 -0.1879251659494072 -0.23055930709242808 -0.16756286364477463 -0.21402032997028098 -0.11931110214063181 0.6117717583930067 1.0190985325372521
0.5667549384940046 0.1797228796306182 0.10082429540639408 0.04446979053725013 0.1803231960836175 0.27845797031471753 -0.041764898947698005 -0.035900914201363356
-0.061120084915314246 -0.20810617314280544 -0.2084647197540214 -0.20580873871196192 -0.2350244822231476 -0.06830209136719799 -1.1772935164113194 1.0037619356661969
0.5435432977885475 0.19531257407238173 0.07554511501102627 0.050091102776261456 0.22524349699189536 0.14321882791871515 -0.04815274112138157 -0.027069763905783487
00000000: cf6a 5cf6 1e21 c13f 55cb 3b92 1536 c43f
00000010: 8f10 d3cd 7652 adbf dc65 49fe bfac b9bf
00000020: 4723 8142 9f01 e23f 6c37 1204 6f9b c33f
00000030: 253a 1146 b156 9fbf 9993 7ec2 ac2b 0d3f
00000040: 9720 fee2 c535 c6bf 5bf5 c2ef fe47 cfbf
00000050: f31f 3b8d 4fee c0bf 270a 250e fa1d bbbf
00000060: caa9 caa0 e43b e1bf 50fc 8126 a595 e8bf
00000070: 0a9f 967d b2a6 b5bf fcfa 41a7 3c83 94bf
00000080: e81c 4be8 e552 c13f 0b59 d5a3 3be6 c13f
00000090: ee6c e985 dca8 b5bf d17a b63f e712 b0bf
000000a0: 2b27 c2ef 0312 e23f 4a01 f95b 46dd c73f
000000b0: 69fb 634e d408 b0bf ab7b bc82 f450 83bf
000000c0: b202 7cc8 d462 c0bf 808d c2e9 0622 cebf
000000d0: 46d1 5ca6 82da b4bf 2c1b 351e 3d4d b8bf
000000e0: 8754 e347 f0c6 e0bf 33e2 1fd3 ead6 e2bf
000000f0: bccf 6e5d 6fd9 dabf 8c00 c69d cb98 a9bf
00000100: 1ef5 6354 f0f6 a53f 8a34 711d aeaf c43f
00000110: 6f42 5541 eefe bf3f b58c c847 45d3 99bf
00000120: 7cf8 5ac7 df06 95bf 3e1f d8d4 fb1a b7bf
00000130: 3cc9 b711 733e d6bf 39ef b10b 550b e7bf
00000140: c21d ddaf 5dec 82bf f6fc df54 44b5 d93f
00000150: 64eb 0c16 d0c0 db3f 0d4b 64ff 7eb2 d43f
00000160: 14d5 407f c39f c83f 9c78 4941 03bf a63f
00000170: 4ad0 17c9 87f4 a93f 95f3 cb8a 2bf7 e1bf
00000180: 879d e557 0d74 843f d9b0 bbab 0cf0 c53f
00000190: b5fa eb65 ea14 b83f 441f 8a59 7c1b 94bf
000001a0: 9030 b9c5 6349 a6bf f119 b786 6927 b2bf
000001b0: a31e d876 53d1 cebf a8bd 3f69 8422 e7bf
000001c0: 45a8 fd6d 5463 7abf 7e33 da0f 4d45 da3f
000001d0: 4d97 f295 57ea da3f 3f32 2cce a474 d53f
000001e0: 1cda 359d 7e2d cc3f d6e2 b1f6 c910 b43f
000001f0: 02aa 0f7e 53a4 b73f 9dcc 6f4a 74d8 d03f
00000200: 1300 80a0 943c a4bf 83c1 517a d241 b7bf
00000210: 55c7 0ba7 cc2c 963f 05a6 fa68 6617 91bf
00000220: 0cd1 1566 cc7d 91bf 3058 ada8 cc66 b0bf
00000230: 92d2 cb27 5dce bebf cc6c 0209 6029 eabf
00000240: f48b 22c1 fd0e c3bf 124d 89bb e908 c7bf
00000250: 9721 8bb5 d90a e4bf 7c1c ef31 d321 e0bf
00000260: a721 d3db d405 adbf 33c2 5780 ecdf bb3f
00000270: d435 1024 f873 a53f a207 91a7 b2b8 6f3f
00000280: 84b9 3528 ad99 96bf 1772 aa9f c410 babf
00000290: 2be5 d512 505d 8c3f 94e1 6317 c388 a3bf
000002a0: 2797 fa00 015f a3bf d34c 537d fbff b1bf
000002b0: cd22 cf75 0488 9abf dd74 e888 af82 eabf
000002c0: 2ba1 43d7 e742 c1bf fa51 6499 d03a c5bf
000002d0: 93d7 96e1 2b6a e3bf 5f30 7565 9201 e0bf
000002e0: a502 1048 e900 a8bf 15a4 47f4 8a3d c63f
000002f0: 481c 30b5 2690 b73f 52ae 85b6 c995 b43f
00000300: 881f ab58 9640 f83f b2b2 5333 35fc ed3f
00000310: 46ba d628 84a6 db3f bddd c6cb 4a99 c13f
00000320: 2f54 7b02 0a46 ba3f 777b 8d71 d389 b53f
00000330: 6355 41ba 7115 a33f 00ca 3a28 bbe6 c4bf
00000340: 55dc 8394 557a bdbf c8ad b04e d464 ccbf
00000350: 01f2 1966 83f3 c93f 86d7 8f0e af68 e33f
00000360: cc0c db22 f324 d13f 55cb 998e 45fa b3bf
00000370: 7d12 aa18 421f 973f b22f 974d 4a1e 80bf
00000380: d3d5 ca05 1060 f83f ee52 4e62 eeed ed3f
00000390: cac5 0b63 e41f da3f 1597 8166 9d25 c13f
000003a0: fb0a 646d 8cfa bc3f c985 520d 1e3d bd3f
000003b0: cd19 c8a4 3a90 a43f 29e8 3dae 0edb c8bf
000003c0: fa74 f58d ab94 c6bf b828 c7ac 2f7a c7bf
000003d0: b59d c918 2155 c23f a9ac e8f0 13e1 e43f
000003e0: 8844 2f80 724f d13f bd12 c0a5 f0cd b5bf
000003f0: eae9 4a06 123e 8f3f 396f 4a20 fbff b4bf
00000400: 9a16 c5e7 b59d 613f 9dcb be25 2cc4 d13f
00000410: 6c62 e6eb 111b 843f 3c11 47c4 4b10 c13f
00000420: 142b 1549 3b91 e8bf 1103 4840 3831 e7bf
00000430: 2b89 4361 9c70 d2bf 8704 7cc8 f9b1 bebf
00000440: 9400 44e1 3316 77bf fe79 1ead 664f c53f
00000450: 582b ac9b 467a e03f f23f 3a5b 912e d63f
00000460: 4ed0 c218 65a7 9e3f cdb6 de2b bb55 773f
00000470: 75b3 1edd 2590 c23f e3dc 79e8 7301 d03f
00000480: 04c4 17af 8aca eabe 164d d2d3 0d55 d13f
00000490: 0711 233f 06e4 b5bf b2d7 30a8 e1c6 c73f
000004a0: fe97 5105 7016 ebbf 7200 69d8 8712 e8bf
000004b0: c262 3237 701f d1bf 76e4 a23f f377 c9bf
000004c0: 8d38 150f dccf a4bf 2906 7c03 6290 c93f
000004d0: 8173 f3ee df50 dd3f 0ec5 c5a4 1972 d63f
000004e0: defc 3888 2f81 af3f 7500 8ffd 2338 dabf
000004f0: 37ca 6d2b e4de c53f eb62 733b 7973 b23f
00000500: c445 dfcc b50a f73f 69b9 ab14 4400 e53f
00000510: 6fd5 8e49 6173 db3f 529e 9f1a afe7 cd3f
00000520: 0355 87e6 856d c03f 4fa9 3409 00f1 c03f
00000530: 54b8 76ff cc40 c83f 08bd c36f d5f2 fbbf
00000540: 4b70 3b2c 51ac debf bd2e d9f9 ebf2 dbbf
00000550: 8090 d968 ef2f e5bf 4530 47a1 2a93 b43f
00000560: 33ee 2887 90ed b73f c595 1489 006b bb3f
00000570: bd4f b1c1 adba ae3f a0bb 49a2 00d6 a73f
00000580: 1320 541a 0216 f73f 7aa7 c070 b65b e53f
00000590: df02 2f46 fd78 d63f 2915 45e5 2f9b d03f
000005a0: ce9c 3703 64e0 c53f 6387 5b79 2139 b63f
000005b0: 4f8b fa94 dd03 d43f cb68 f0d8 8e43 fcbf
000005c0: 72f3 cb4c a0ff d7bf 318d 25e6 ec64 dbbf
000005d0: e5c1 16a9 e797 e5bf ef08 a8a9 501f a83f
000005e0: 2968 109d 90d3 943f 8d1c c19a 5d3e b53f
000005f0: ff8c 87e7 c21e b23f fb65 dec6 f108 b13f
00000600: e3cf 0d75 345d a3bf bbb1 5093 b924 bcbf
00000610: c77c c5cf 3a30 753f a699 9d0d 68f3 6cbf
00000620: 501d c83c 1794 d7bf 3217 f078 bdd1 d9bf
00000630: 441c a599 4a55 d4bf b532 5d4b cb6d e4bf
00000640: 4461 5a19 eef3 dabf db1c 4c53 f480 a4bf
00000650: 8fb4 e7b7 4565 d73f 28d9 75c0 f6dd eb3f
00000660: 8a31 ca90 43e0 d13f d059 13a5 cd8c e23f
00000670: a2f5 bc8e b7a9 d03f b40e 6426 830f bc3f
00000680: 737d ac6e 34db 643f 18be e2aa 6401 c0bf
00000690: e8b6 7dd9 2029 a7bf 8a9f 0712 daea b1bf
000006a0: f685 eb7c 1a28 d9bf f3c3 3e20 5d4c dbbf
000006b0: add6 8b5a 0ff1 dbbf bb28 eec1 c2d2 e4bf
000006c0: 14cc 920f 4e6f dabf eef9 911e 82ae a6bf
000006d0: a25d acf2 ec44 d63f 5efd 45f3 1503 ed3f
000006e0: d65e 4859 93e3 d13f 4cc2 36ae 883f da3f
000006f0: c503 7aaa 1b42 ce3f 2d93 ddb4 fabe d23f
00000700: 4243 ad29 180f abbf c78d ec8c ee0d c8bf
00000710: 170d e0a5 f782 cdbf e26f b02d b372 c5bf
00000720: e063 f3a6 0465 cbbf 0a65 be21 2c8b bebf
00000730: 9442 dd5d a293 e33f ac62 4a43 3a4e f03f
00000740: 27b4 b540 db22 e23f 25a0 2dc9 2801 c73f
00000750: 13a7 69fb 9ecf b93f 76f0 0890 bec4 a63f
00000760: a5d5 f19a d414 c73f eafb f360 41d2 d13f
00000770: 65c4 3376 3562 a5bf 0560 c8c8 9a61 a2bf
00000780: ca16 aebb 214b afbf 743d df1b 39a3 cabf
00000790: 4d4e dbd0 f8ae cabf 7cdb ffd4 f057 cabf
000007a0: 3a31 7440 4815 cebf 27a7 abf0 3e7c b1bf
000007b0: a778 ecb9 31d6 f2bf dc7e eaac 680f f03f
000007c0: 12c7 fee9 b464 e13f f6b8 119f 0000 c93f
000007d0: 734c 58b6 ec56 b33f 8a3e 7d80 8aa5 a93f
000007e0: 3bc2 9b66 c7d4 cc3f e689 0a9b fe54 c23f
000007f0: 407e a8e0 79a7 a8bf 743d be1a 2db8 9bbf

bias f8 [128]
1.2759447455284192 -0.07838707053119338 2.5610919783643014 -3.0780788473748224 0.9200506738022153 -0.19790358499917896 1.8064527771950138 -0.9035261703543085
0.9380190425016016 1.8881277683768352 1.0642690754542783 0.5588775209020392 -1.163992800893793 0.2901546329601094 -1.299002375603924 0.31728021561775555
-2.209445012325073 1.4266511607708683 0.43948178995978865 0.2586187724452003 3.370915084593143 -1.79458155239863 0.3536241168362709 -2.3221540582040556
1.7537857970819424 0.04466814288811677 2.003997485985797 -1.8492496333068413 2.091110181978649 -0.9299169275852025 -4.942744801499829 -0.11408268136835394
-0.6398421811767441 -0.3661155870185996 -0.8367057853803237 0.10676711929618465 -4.594392719989722 -0.0031478966044514735 -2.143684187982769 6.024086860916711
1.446202320006869 -3.737911790566573 0.5846999406643899 1.8733313541358385 7.033569697928574 1.7846337577813105 2.264807994317922 4.7208165811894816
0.1210594882951214 -4.20263249040831 1.0311945305073547 0.8745136239056793 -4.6744420335999495 0.6001744209521485 -1.3235001475428443 -0.5695780492180267
3.1431047208716647 0.3307468976292247 -0.23339682443130508 1.8395814054942405 2.142908913562427 1.7459278122349977 2.972099210176901 0.7164057933858142
-2.59855975121565 1.8580467503543718 1.4795017427316182 1.5126792624741607 0.6174618776740523 -1.1231116504048102 -2.8364974624594166 -1.7781803821132174
1.274697045716143 1.0786232712519765 -8.948744319451814 1.80274054823408 -3.275899063997174 -2.097186503268023 0.32225726879884 1.523248229134587
5.243004127943218 -5.082693850252252 0.4563425144045224 0.0006104047662686436 1.7993732763325283 1.8734554983126943 6.877333937274122 -1.74776526571599
2.1628082625928213 -1.2469927441336328 0.39043686858094 1.8674541339278363 3.4620726677872673 -0.2592353247835935 -0.38051778526691654 1.0615691283278645
1.2455721141783211 2.7194743770945067 -0.007861712236906801 -1.770718383100286 -0.5597932849365559 -2.916667554633516 -7.527348645583599 2.362982827955963
-1.0945112680025109 -2.312903832689378 3.299461469470752 5.633535118796689 -1.177078365133705 0.9926007522148126 -2.4767118322607664 -7.079746204130482
3.097120236767137 1.2145820516141146 0.9363695832759428 0.9264102022039569 -3.6825787036691757 -0.9152515694067412 1.2330220730161794 -3.764378176240263
3.505431623129947 2.361223823201009 -0.6688517373362383 -0.16070724055859675 2.1402233740016543 0.17727917338158625 0.04098816321483564 4.620291343812425
00000000: fbc2 9809 456a f43f 3558 5cd0 2c11 b4bf
00000010: 1dfb 88ca 1d7d 0440 b8df 7fcd e79f 08c0
00000020: bd95 541c 0e71 ed3f 9d93 aa98 e754 c9bf
00000030: a622 fd06 3be7 fc3f 660f 18b7 afe9 ecbf
00000040: 453a d282 4004 ee3f 4991 7d76 c535 fe3f
00000050: 4686 9302 3f07 f13f 55cd 571c 53e2 e13f
00000060: 7ae4 49ea b69f f2bf ef2d d6bc e491 d23f
00000070: 9552 0ab7 b6c8 f4bf eabf 6fad 514e d43f
00000080: d8f8 b181 f1ac 01c0 28fb e42a 90d3 f63f
00000090: 3b26 c43a 7820 dc3f cd29 72c0 358d d03f
000000a0: 6f5d ef53 a2f7 0a40 94e9 5825 9bb6 fcbf
000000b0: e9df 380c c7a1 d63f af14 c281 c593 02c0
000000c0: f07f 2ab2 810f fc3f d849 c129 bede a63f
000000d0: 0b9a 7cd5 2f08 0040 0516 93c8 8696 fdbf
000000e0: 7f72 9ff9 97ba 0040 3535 ff24 e1c1 edbf
000000f0: c2a9 abe4 5ec5 13c0 9d5e 84c9 8534 bdbf
00000100: 6c2c 584f 9679 e4bf 1e3f 3312 706e d7bf
00000110: b8a3 1236 4bc6 eabf 684d aa05 1755 bb3f
00000120: 6a58 357c a860 12c0 0331 f41e 9ec9 69bf
00000130: dbb4 42e5 4326 01c0 309a df39 aa18 1840
00000140: e242 3d0b a523 f73f a587 fe4b 3ee7 0dc0
00000150: e30d 64a6 dcb5 e23f 6d5b 494c 2af9 fd3f
00000160: 94f5 4a18 6022 1c40 0e22 9020 dc8d fc3f
00000170: c584 5aa7 531e 0240 507e eabd 1de2 1240
00000180: 3b19 192f c1fd be3f 95a4 3de4 7ecf 10c0
00000190: 987d 05d6 c57f f03f 4f9a d2fe 03fc eb3f
000001a0: 2570 b5ee a0b2 12c0 ae53 bcfc a034 e33f
000001b0: be29 9f7d 0e2d f5bf 1e26 bdbe fb39 e2bf
000001c0: 4660 8016 1425 0940 f08a 2409 f52a d53f
000001d0: 551b f677 f2df cdbf f3d6 6ee9 ec6e fd3f
000001e0: ca75 b06d ad24 0140 499e 6b00 52ef fb3f
000001f0: f26a 61f3 dbc6 0740 6339 a8d7 cbec e63f
00000200: 8962 e1b1 d9c9 04c0 ae60 b33a 8fba fd3f
00000210: 5384 f604 0aac f73f 6b9f 9a2b ef33 f83f
00000220: b960 6469 3fc2 e33f 86ec 03ec 43f8 f1bf
00000230: f999 e394 25b1 06c0 740a b945 6d73 fcbf
00000240: d689 baba 2865 f43f 5bb5 ab79 0a42 f13f
00000250: 659f c0d0 c1e5 21c0 6e6a 1d79 06d8 fc3f
00000260: 43eb 8691 0a35 0ac0 a730 a9b7 09c7 00c0
00000270: 46ea 98f3 dc9f d43f de2a fd88 395f f83f
00000280: 8a3c f912 d6f8 1440 aca7 59b2 ad54 14c0
00000290: c913 c93b b734 dd3f 1bc5 1441 7200 443f
000002a0: 3350 f2a1 3bca fc3f 013b fc78 acf9 fd3f
000002b0: 960d e1d3 6382 1b40 dc5b 15b6 d8f6 fbbf
000002c0: 86d6 1a6b 6e4d 0140 b573 e6a9 aef3 f3bf
000002d0: 634c 6deb eafc d83f 4000 0096 17e1 fd3f
000002e0: 9e2c a427 53b2 0b40 5576 7ac2 4f97 d0bf
000002f0: ef22 d144 675a d8bf 51c8 09e9 2ffc f03f
00000300: 9849 7306 dded f33f 7072 3fc8 7bc1 0540
00000310: c5a9 9527 cd19 80bf b777 9dcc dc54 fcbf
00000320: 5655 6a9b d3e9 e1bf 57a4 83cc 5555 07c0
00000330: 5e7c 8948 011c 1ec0 c6a4 788a 63e7 0240
00000340: d5c9 523f 1e83 f1bf 2d8d 81b9 d380 02c0
00000350: d64f 0e0e 4c65 0a40 a365 206e bd88 1640
00000360: 2a41 b11f 50d5 f2bf 80ec 17a7 62c3 ef3f
00000370: eb68 094b 4ed0 03c0 dbe1 2afd a851 1cc0
00000380: 9a8e 85f9 e6c6 0840 fbdb df96 ed6e f33f
00000390: 5575 2458 bdf6 ed3f 1cb2 2402 27a5 ed3f
000003a0: 38a4 c9d2 eb75 0dc0 3bde c6a8 bd49 edbf
000003b0: 1e9c 6d5a 75ba f33f 0ed3 254e 721d 0ec0
000003c0: 97a8 1dbc 1f0b 0c40 b179 d950 c9e3 0240
000003d0: ef6b 37c2 3b67 e5bf 68fc 360b 0e92 c4bf
000003e0: 6ac6 ab6e 2d1f 0140 2bc9 f77d 15b1 c63f
000003f0: dcc8 0f89 66fc a43f 3faa 6ea7 2d7b 1240

weight f8 [64, 128]
0.6604784597947657 0.5487708167566651 -0.0633456298666756 -0.3875795008218881 0.5160532735438037 -0.24128596103692357 0.011936005928510816 -0.06413771010800501
0.4244668286775327 -0.4184878391697562 -1.380002534583318 0.8581422212808675 -0.178691747973431 0.4623790322736849 0.1363008975456707 0.8517400527921195
0.5836694124421767 -0.5942652999593085 0.16149941715883917 -1.4479186074481984 -1.198267028018352 0.2134767078559131 0.628768975869623 -0.5311499970880595
1.1661769375152962 0.832794814325224 -2.170255611801195 -0.13615398770725304 0.3535964497740718 -0.016979903650596664 1.0132603631668555 -0.08828218940509805
-0.2651119502010531 0.42528436101940426 0.6970442598896951 1.1369997940323016 0.12794488632607937 0.33884916183977815 -0.1590843104417378 1.218791311289076
1.520997716090205 -0.8972054975961226 0.5956928824657797 0.7636769668308282 -0.0774058559615353 -0.45102622722115787 0.3881507172696937 0.29132849525611326
-0.18129581572186557 -0.11106607357848003 -0.053407794485617874 0.39667092174922264 0.49645789072782887 -0.9773550289405252 -0.6492968548262017 -0.7859245476817037
-0.6213437374510219 -0.14829087593811555 -0.24173651477842334 0.739683507186665 0.3213612804520761 -0.13727669948480203 -1.061352138042243 0.40319977077403646
-0.4302634027689467 -0.4367214088720881 -0.5056406673503684 1.6946342117147943 -0.5925832282951706 0.009222378343315947 0.9770498084850484 -0.03756613406172883
0.26425728407016685 -0.5916361269438413 -1.9975715794734703 -0.4658527667635054 -0.4171032079279217 0.2728785697929338 0.45637970925708854 1.0537959531563157
2.6034718278440203 0.27718510799008667 0.008659417472966054 -0.0940846119191008 2.0575747244684415 1.3192717480527338 -0.5492573102871129 -0.30804936063772387
-0.6055796658232586 -1.4247416812514009 -0.21531937899985293 0.21375336467919653 0.5360322934144475 -0.18149452254095422 -0.2054596940002639 0.5023021377794933
1.0068024728347111 -0.29273673271576717 1.7037393603167077 0.10147579736512873 -0.45899407423448424 -1.144551771566717 2.80375721608018 0.6664864127133413
0.22557350251730415 0.23488585439573648 0.12993715154868438 -4.497443930331987 0.4926935818690254 -0.1644345083839227 0.42231451386517377 0.45683433251804717
0.13859770375791344 0.4522892375467654 0.38208235358848797 0.4152583838916165 -1.965775830799652 -0.23701417547716208 -0.43299361188130153 -0.7915951501226185
-1.609125170384836 -0.26446304051962805 -0.032705617253113425 0.0621234207223257 -1.892138391839158 -0.13479403410419258 0.26830894208897105 0.720045558135818
-0.15145587810501052 1.3790115020057918 -0.3080278557816971 -0.3342009523082938 0.35582178757314287 -7.750142675318931e-05 0.16387016984254618 -0.987581637683135
0.42588661267805794 0.38206817919769 -0.6071744740160243 0.4030295663263192 -0.8952506349122129 -1.0884926895248943 0.4772776084891584 0.6868722852384825
0.01916033735308957 -0.24071224076454686 0.06185072345340693 -3.0822060438378944 -6.067466068881233 -0.8610309375952484 -0.008178621005486462 0.2019419082800082
-0.6126776490486278 0.46778188670803095 -1.2854531565851592 2.7153815867152957 0.05272137837604542 1.4249135287871104 0.3409806880250402 0.17981963404699408
0.9050056798737123 0.14205961295535313 0.7691572148204696 1.220325617379562 0.2718858193420111 -0.0768560499106099 0.122113725838374 1.466665831037575
0.2257900439956235 0.5067806046097294 0.3300021735259903 -2.6443460795796088 -0.10991913104404201 0.1813488251073982 -0.15981667916579245 0.35239252690907247
-0.5620887530946166 -0.6342693364291435 0.24085780477823496 0.09487174978623368 0.21743824077045065 -0.1778242619901004 0.6541305662238938 1.093966031548816
-0.9890721119760849 0.029802347493205747 1.5361590721467284 0.18099377754354679 0.5422338898920935 0.7146338960358597 -1.7189712871219012 0.4954511555872828
0.04423911779733321 0.480740043973569 0.038216718925125105 0.20215034220005493 -0.029792490370473608 -0.017815017382432453 -0.5878786102569754 0.3498122054300941
-0.46120692865531215 -1.021995444429887 0.9153494627880433 -0.31006408785245926 0.041042694631411684 0.30998728213827953 0.6334371140289786 0.5509019726628971
1.4106604832515954 0.7243420627781294 0.15077756288024757 -0.48325183589487486 0.24941146467378372 0.2111535103889776 -0.7028795585822192 -0.48760682728590404
-0.9786068106781144 -0.518870743011069 1.4964022806659436 0.048812794683130836 0.45785896959487504 0.4015204470536886 0.19616743358812422 1.3404644090657372
0.1505038594672657 -4.673834502599628 -1.7643796159209324 -0.1696084905761248 0.5443280898981461 0.07770115744840654 1.0935302731619487 1.2054840544997507
0.34242588078424474 0.7101424374313403 -0.746422838866432 -2.2629550541197534 1.3825912802257432 0.2008762704957908 -0.16605118396878185 0.6258969348745876
-0.36514124522952285 0.1785411861451789 0.6526091064113148 0.4592801231569348 0.574191729482949 -1.6897891838496772 -1.080886069902373 -0.26043186559411785
-0.969050484581465 0.47153341202395993 1.0244696864388614 0.194411010176486 -0.26837439299842775 0.1321759702485293 0.29021808338566885 2.807387333461396
00000000: b4fd 10b9 a322 e53f bf02 dfd0 878f e13f
00000010: 5a34 9f50 6b37 b0bf 2852 2840 1ace d8bf
00000020: fea8 9b27 8283 e03f 289a d157 75e2 cebf
00000030: acce dc98 e771 883f 84ad 5a37 546b b0bf
00000040: a209 daea 762a db3f f87f c037 81c8 dabf
00000050: 5beb a689 7d14 f6bf d9fa f6ac e675 eb3f
00000060: f333 ce06 5fdf c6bf c72e 7e39 9e97 dd3f
00000070: 96e2 afcc 4e72 c13f 58ef ed5a 7441 eb3f
00000080: 7fab c379 6bad e23f ac21 8fa9 3804 e3bf
00000090: 6398 824d 03ac c43f 7228 a4b3 ac2a f7bf
000000a0: 4a6c 130c 1a2c f3bf 5475 596b 3453 cb3f
000000b0: a52e 831d e01e e43f 5270 5847 2eff e0bf
000000c0: 62a4 ff25 a9a8 f23f 70c4 794f 41a6 ea3f
000000d0: 3f2c 65f9 ae5c 01c0 ff18 366e 7e6d c1bf
000000e0: e0b9 f000 53a1 d63f 8463 790b 2e63 91bf
000000f0: d827 a27f 5036 f03f b26d 505c a999 b6bf
00000100: 811b f91c 98f7 d0bf c207 85e5 db37 db3f
00000110: 8ce7 82c3 2f4e e63f ecd6 2eb2 2631 f23f
00000120: 5c00 3b7f 7f60 c03f 373f 1865 b4af d53f
00000130: 75b5 53eb df5c c4bf 292b 6a51 2b80 f33f
00000140: b75e 7eb3 0156 f83f a4ef be4d e8b5 ecbf
00000150: dcd0 1485 ea0f e33f 79e6 a7ad 0a70 e83f
00000160: 8ba9 dfc3 ded0 b3bf 9d66 e31b 9ddd dcbf
00000170: dde7 251b 76d7 d83f 3c25 e145 20a5 d23f
00000180: bfa9 b687 b334 c7bf acf6 b681 d36e bcbf
00000190: 969d 5535 4458 abbf 39f9 0b6f 0e63 d93f
000001a0: 4219 2151 f7c5 df3f 9b2e bc0d 7e46 efbf
000001b0: 6af9 9b32 0ac7 e4bf 0d54 ad3c 4b26 e9bf
000001c0: 4ba6 fd42 0ce2 e3bf ed85 3907 32fb c2bf
000001d0: ee75 9cdc 38f1 cebf dc3b 18bf 7cab e73f
000001e0: ae82 6fe7 2e91 d43f 3020 656b 4892 c1bf
000001f0: d5e5 2661 4cfb f0bf f0aa 4e69 06ce d93f
00000200: 38bb e382 6f89 dbbf f864 245a 3ef3 dbbf
00000210: b084 3956 352e e0bf eaf6 5fc3 381d fb3f
00000220: 90f2 351a 71f6 e2bf b7cd 01ab 2ee3 823f
00000230: fd33 c0f5 fd43 ef3f 02ed 764a de3b a3bf
00000240: dbe9 3362 97e9 d03f 8e63 0be3 aeee e2bf
00000250: 361f d49d 0df6 ffbf 1606 801f 88d0 ddbf
00000260: ebda 46a7 d1b1 dabf ca8d 42ad d776 d13f
00000270: bd4c 743d 5335 dd3f 986a 3725 59dc f03f
00000280: e52d a509 e9d3 0440 945c 709b 66bd d13f
00000290: be57 ca56 07bc 813f 01d8 3fdb ed15 b8bf
000002a0: 6858 b5bc e975 0040 9bc5 46b1 bc1b f53f
000002b0: d5b4 1811 8493 e1bf f388 5faa 14b7 d3bf
000002c0: 12ac 7a9b e860 e3bf af90 e3ee bdcb f6bf
000002d0: 42ec 7fdd 958f cbbf 9a82 5a2f 455c cb3f
000002e0: e413 3a32 2d27 e13f 5cb7 5b67 363b c7bf
000002f0: 654b 30d5 804c cabf 7329 cfee db12 e03f
00000300: 53b6 e5e8 dc1b f03f 0689 56d9 32bc d2bf
00000310: d47d 1734 8442 fb3f dbcc 045f 51fa b93f
00000320: 2446 79ae 2860 ddbf 9c53 b784 1550 f2bf
00000330: 33e8 6743 186e 0640 0da1 3a50 db53 e53f
00000340: a5f7 13b0 97df cc3f 3b1b 765b bd10 ce3f
00000350: 75ef 37d4 c7a1 c03f 757a 11f1 61fd 11c0
00000360: 67e6 44a9 4a88 df3f 68e0 eba1 300c c5bf
00000370: f354 6b74 3307 db3f 5ab8 7611 c63c dd3f
00000380: 8b70 78ce 91bd c13f 0a27 e68e 4ef2 dc3f
00000390: 12a4 428b 0974 d83f 5a13 8de6 9793 da3f
000003a0: e8d3 885b d173 ffbf c470 2e02 7b56 cebf
000003b0: 0b0e 9ad6 2ab6 dbbf 095d 2e5a bf54 e9bf
000003c0: a192 df08 fabe f9bf e514 8263 f6ec d0bf
000003d0: 76c7 fe68 cabe a0bf d2d5 a218 a4ce af3f
000003e0: 9248 07e8 3246 febf 7d32 1650 ee40 c1bf
000003f0: 78c6 df44 f92b d13f 5659 7afb 9c0a e73f
00000400: e5bd 9ffd e762 c3bf 70c3 5e5d 6e10 f63f
00000410: a0b8 b577 bab6 d3bf 0332 1d64 8c63 d5bf
00000420: 982d 35bf c8c5 d63f 1796 895f 0851 14bf
00000430: f7c0 219e b2f9 c43f 7e55 7fce 449a efbf
00000440: 226a 50ec b941 db3f 22c4 9f17 ce73 d83f
00000450: a8ac 9b29 f96d e3bf 9f53 ac85 3ccb d93f
00000460: 647a d5a8 e4a5 ecbf af1c 774f 776a f1bf
00000470: ddbc e461 b78b de3f 1e19 3496 dbfa e53f
00000480: cc54 3f79 c49e 933f 5351 eaa0 a8cf cebf
00000490: e2c1 eee4 e5aa af3f d489 6ea4 5ba8 08c0
000004a0: 02bd 3dd3 1545 18c0 1b1b bac0 908d ebbf
000004b0: aca4 f5ed f3bf 80bf 5e92 e081 3bd9 c93f
000004c0: bfed 3428 0e9b e3bf 6f9e 4470 23f0 dd3f
000004d0: ef2b 4154 3791 f4bf 80d2 38fb 19b9 0540
000004e0: 23ae d9e7 4bfe aa3f 294c dc20 72cc f63f
000004f0: eaa5 e8a9 a0d2 d53f 2c8c b46b 5404 c73f
00000500: 120f b878 cef5 ec3f 6ae2 dc67 022f c23f
00000510: 175d 6497 ef9c e83f 12dc 9127 7486 f33f
00000520: 8d7c 94c7 9366 d13f f0a5 dd8c d6ac b3bf
00000530: c157 de5a d842 bf3f 0679 2797 7677 f73f
00000540: 0f9f 5c2b b0e6 cc3f f877 61f5 8b37 e03f
00000550: 7fcb b96f c11e d53f 47cd d8ea 9e27 05c0
00000560: 45f5 0901 a923 bcbf de8c 8034 7036 c73f
00000570: e8aa 2f79 df74 c4bf 1979 9b62 998d d63f
00000580: 9cb4 7f8d a1fc e1bf 8d33 1a35 ef4b e4bf
00000590: b522 41b5 6dd4 ce3f 4f6b a5d6 8349 b83f
000005a0: 4e22 812a 04d5 cb3f 8d66 d706 f2c2 c6bf
000005b0: d7db a739 a3ee e43f 3cfe 8686 e280 f13f
000005c0: 7b55 ca8e 7aa6 efbf dc33 4faf 8184 9e3f
000005d0: b52e 0589 1b94 f83f be1d aad9 cd2a c73f
000005e0: 2ed2 fbe2 fa59 e13f 5fc9 82e7 47de e63f
000005f0: b839 4f09 e880 fbbf 82d1 80c3 78b5 df3f
00000600: aa70 4978 82a6 a63f 059f afe3 71c4 de3f
00000610: 8d3e e34b 2491 a33f cded 4ffa 0fe0 c93f
00000620: 02f6 3a2f ec81 9ebf 6d10 2494 193e 92bf
00000630: df4a a2cd e6cf e2bf bd16 84bb 5263 d63f
00000640: cbd7 d010 6a84 ddbf 30cc 27e5 175a f0bf
00000650: ffbe e2f4 8a4a ed3f 7162 3f0b 17d8 d3bf
00000660: 57fe 5c4e 8c03 a53f f26d bde5 d4d6 d33f
00000670: 7d77 1ae9 1d45 e43f ed72 7c2c fda0 e13f
00000680: d933 15ba 1092 f63f d0f9 d767 cf2d e73f
00000690: 9447 c5de ad4c c33f eaa0 b91b 99ed debf
000006a0: f0bb 0202 b7ec cf3f 5d33 c706 1407 cb3f
000006b0: ca66 a445 fd7d e6bf 2df4 1f44 f334 dfbf
000006c0: f32b f03a bf50 efbf 2dae 02d1 969a e0bf
000006d0: b0eb 9184 43f1 f73f 92b0 9499 fdfd a83f
000006e0: 9ac6 25b5 8f4d dd3f 4c56 31d1 82b2 d93f
000006f0: 368f e6b3 031c c93f 9a3a e6ce 8a72 f53f
00000700: 3ab6 2ae1 b543 c33f cb53 feab 01b2 12c0
00000710: 4ac0 c11e e63a fcbf 1ffe 1224 bbb5 c5bf
00000720: 9103 0dbe 226b e13f 3f2d 1a1a 39e4 b33f
00000730: 0daa 8699 197f f13f 88d0 dea5 a949 f33f
00000740: ca6d d13d 4eea d53f 609e 08a2 7cb9 e63f
00000750: d666 3d26 b2e2 e7bf 1719 ee2d 881a 02c0
00000760: 92de c408 181f f63f 1333 294a 50b6 c93f
00000770: ddd2 4d4a 2a41 c5bf f17e 3e02 5907 e43f
00000780: f89d ab62 795e d7bf 90c5 bd05 70da c63f
00000790: db77 237e 2ce2 e43f 5c5c 2a75 d864 dd3f
000007a0: 0c6a 7855 c75f e23f 654d 1c62 6009 fbbf
000007b0: 2fec 0e31 4f4b f1bf 4108 646a eaaa d0bf
000007c0: 3969 6e29 7602 efbf 124f e779 9a2d de3f
000007d0: f9f8 6f53 3a64 f03f c05c 58c1 75e2 c83f
000007e0: 39c6 40ca 0b2d d1bf 936a c466 24eb c03f
000007f0: 175a 36de ee92 d23f e95e 837d 8775 0640

bias f8 [64]
-0.10487231648897663 0.3268384181637778 -0.22829474297837615 0.045375343245251054 0.014149266888063868 -0.4366956073560246 0.16717685580777403 -0.06442614077486143
0.11784165886075694 0.044557399053984634 0.03471875177198242 0.5726867806056937 0.07639982217102431 0.009398623609206696 0.10918304105424491 -0.0875115700586796
-0.10309592117285517 0.1347864944722559 0.1098073762090598 -0.1456754356555261 0.02033300281040522 -0.02664626061947378 -0.293129485583651 -0.014758664541181443
0.02834654165968352 -0.1351957776555412 0.25484925954893267 -0.19747333802100034 0.18903673542264066 0.3337050508437234 0.1533186974531339 -0.060300751646858386
0.44074040213535404 -0.03863008614582952 -0.00232116180639257 -0.14474398451995263 -0.09591858328574766 -0.0078120831322891875 0.17284189296021077 -0.03964345863641842
-0.04111125367590734 0.07330554120093785 0.14109420398330536 -0.12138100951588392 -0.698175387234256 0.06307319491376763 -0.018831692950405727 0.06006827050362245
-0.061704566796038404 -0.2636355021087469 -0.4488127909178103 0.019399082980804477 0.10810989539594187 -0.19123861019597907 0.11262268680215086 -0.09260885252009471
0.14281257000872902 0.09392979658000591 0.37223023207313505 0.01884395688517664 -0.1367233326838988 -0.046021312180402174 0.052204963616489415 0.2834811369247132
00000000: 3e6f 9381 e9d8 babf 40bf 45af ebea d43f
00000010: d06d 781b c338 cdbf 20f6 90de 6f3b a73f
00000020: 1175 5f74 4afa 8c3f b3a9 f921 d2f2 dbbf
00000030: f2d6 2b1c 0d66 c53f 91b1 a247 3b7e b0bf
00000040: a1d0 e9f6 de2a be3f 769f 7637 3ad0 a63f
00000050: 9953 d6fe a7c6 a13f 06b2 313a 7353 e23f
00000060: 540f a551 f08e b33f 694d 3be8 953f 833f
00000070: 2f16 9b76 6bf3 bb3f c873 6c83 2867 b6bf
00000080: 09d5 c989 7e64 babf 99b4 d910 af40 c13f
00000090: 596f ad11 561c bc3f f04a fc1f 7ea5 c2bf
000000a0: 0d92 66b8 2cd2 943f cf71 af47 2849 9bbf
000000b0: 2fce 842c a2c2 d2bf 73cb 4b6c ca39 8ebf
000000c0: 3c3c 8835 e006 9d3f 3e3e cb61 184e c1bf
000000d0: f009 cb44 734f d03f 49ea 506c ce46 c9bf
000000e0: 1c01 3112 5b32 c83f 5590 f86d 6c5b d53f
000000f0: 7d98 b673 f29f c33f 08b5 7e78 bddf aebf
00000100: 7c9f 4c3b 1735 dc3f 00a8 4699 52c7 a3bf
00000110: 6980 8241 d403 63bf 9c28 e78b f886 c2bf
00000120: f17a 4aca 1e8e b8bf ecac 1119 90ff 7fbf
00000130: 8348 d2e2 ae1f c63f 75ff afbc 254c a4bf
00000140: c737 12c4 880c a5bf 04d8 12e6 26c4 b23f
00000150: b6b8 e1f7 5f0f c23f 57e7 396a d312 bfbf
00000160: 6e62 e1e8 7357 e6bf 69ab 689d 9025 b03f
00000170: b5b6 6685 9d48 93bf 0741 aeb2 44c1 ae3f
00000180: 0e40 ceb0 bd97 afbf 69c8 e770 67df d0bf
00000190: cb2e c148 59b9 dcbf 1858 e66b 5add 933f
000001a0: 327c 1911 17ad bb3f b719 43bc 817a c8bf
000001b0: eb56 9a24 d7d4 bc3f 3cd6 e4b8 36b5 b7bf
000001c0: f795 d2aa ae47 c23f d259 6e7c c80b b83f
000001d0: f18a 55c0 9ed2 d73f cd3e 328a d44b 933f
000001e0: d81d 3d71 2680 c1bf 10b9 77fd 1a90 a7bf
000001f0: 01e8 d7e6 9bba aa3f 7cf8 0711 8e24 d23f

weight f8 [16, 64]
-1.0555563874444274 -7.0682389590308805 11.631525433315746 -0.028007897089838557 -1.3740417100988631 -2.1054145291920623 -1.1355734458171634 -1.5206676338836058
-0.7163584010676325 -0.06492658566571365 0.27612510931409123 10.41494533912479 17.48857208670752 -0.9644613793407597 -0.0927772107918044 -1.1809712553654486
0.31908590650860935 0.1173243266227262 -0.2276279966329222 -1.0993784986394326 -0.16863532763693298 -0.24704210688769943 0.3014430541889703 -0.597711711285203
0.18499119139649 0.382898298178505 0.40879771794240627 -2.2906693591945415 0.6129341649709632 0.42912269664439295 -1.1171284469041827 1.1211790559741353
-1.059538429232264 -0.9901280018297247 0.7673830849813443 -1.5494840276501363 -0.12533940419413292 -0.043052684845074 -1.011483851273124 0.7741695491510049
1.3777951589250281 -0.605564648137049 -0.36733044068073245 -0.0705014338258726 -13.231808797870382 -1.352614659651083 0.19914414338385333 -0.41380915882610464
0.3528121021563313 -0.12756435868317342 4.649092274129779 -0.5028617662881477 -0.22045344686333546 0.9926934515622611 -1.2781448157718136 -0.03202861345202766
-0.8278956165164545 0.38210228035102556 -0.20397228297031397 -0.2742492641310834 -0.4988406082017751 -0.38582242206224027 -1.1840901866807942 -1.5628489273116493
1.0999413878786495 -7.117116360255299 15.318593416053691 0.36525280572616436 2.2875343739240797 -13.76879276461011 0.484313585982195 2.5143813291373305
-0.4613694588487646 1.9968411150288683 -0.23074891666512454 -3.980293354611578 0.9575136382808763 -5.077729945399201 0.23313463853264363 0.1166659875745298
-0.5418530766508963 -3.074185223496392 0.10672694490563261 1.7436528886602645 -0.2473496422980452 0.29452975026305 -0.7645650808141866 1.7936091400798695
2.7061775248497644 -1.105825602336782 -1.3064388079907794 7.633171798123934 -1.9337482391211125 -0.6501230817188954 13.016360573643473 -1.2331157624891766
4.9215802192559535 0.42372149273378223 0.6617007969147662 -0.2861387725204816 -1.0205486514188506 -0.6101033950373999 0.6459864256573955 -0.9128854877701007
0.18283421461174668 -4.151392221549652 0.15867777887991488 1.3954494428895996 1.9005214212398667 0.14970820440334665 -3.1593706254846863 0.7795435752597268
0.9779696176177356 -8.391471660129666 -9.496180467882484 -0.8608144638284811 -1.0627274668399838 0.269823024014713 4.188586672795153 -3.9091742740210713
-1.8077660144028735 -3.507241721884576 0.22390237117782327 -0.2511440796002597 4.977503481267442 -0.4204204694652032 0.5599686621477541 0.2553109973088955
-5.552891143454265 3.377120816057024 4.640191292659061 -4.6255276124636 -3.484897167787834 5.136555148327849 6.465401094237888 -1.7171832833437386
2.0832339396254818 -2.241327307531627 0.777922813801183 0.9012016085260577 -0.48945855670651894 2.473618163916422 -1.2143484813899088 -1.5919960435322393
0.18285073823512352 -11.459092122370995 1.2718139622486238 -2.5704823951977818 1.181146235589407 0.07855639693975881 -2.3978685583401242 0.6869466259022445
-4.0051972605219115 3.210373288073119 2.7087161026304547 -4.6817991775262 1.6590864533490075 2.481150590949644 4.339984295298558 3.8442003008100434
1.766086363990774 -0.2169432735604268 5.549836837428359 -4.046966574127637 1.8655669141291715 1.7268747376216527 3.9425411908402137 0.37700267363417395
3.7494355898405147 1.1335156471480532 0.8087454188106713 -1.7663506494158496 0.8321334451597963 -2.9976849609403704 3.154435524123513 -1.289585134614708
-1.7513878043803757 3.4111282154657596 1.3509510025447626 -1.9589435491438882 2.6009038975131116 0.8369945129952799 -2.5989694849419873 1.8507362008030435
-3.315015464354201 0.9632813824868174 0.6187520728502379 -5.543256155212049 -3.450221249378812 0.9140956551927002 -3.2057007439309797 -2.6671067361879164
-2.111571160615343 0.6553476490639276 1.0734945445141988 1.3867198047125455 -1.2260188181707268 1.5603608414860493 -2.2254160575461226 3.678781035754113
2.249284254270958 2.1076346707703566 -0.19312429462001582 0.1568879830201622 -0.3876783668625265 1.6123183486336996 0.4557914092490443 2.199972720852038
5.818338453007933 -1.638899107813846 0.6629179723518264 -2.961650244107161 2.7485185578687528 2.7179927394724053 3.924682075131733 -4.810268351541722
-1.6431380800310633 -14.196203918665482 -2.055696091710707 2.1027599180911047 0.6252623859613357 -1.9226738543973474 1.6313491422945299 -1.3109057400255573
5.214834872675939 -3.4495626269693007 -3.3979024735356247 2.226532525179608 0.12413367482533745 -0.12382845427228613 -2.1541852911348762 -4.9214462370041225
2.0667068300740077 4.164179639502085 -5.065203735629519 -3.6910267551554545 0.1318750237057618 0.9625020508278503 6.193220608509539 -1.1101163541679326
-0.6778749484157487 2.755132109067287 0.33481554372627903 2.6106781734135582 -0.03459495288929997 -3.8413918756509555 -1.8910936159363771 0.30357582756451873
1.51495808932284 5.4041567498445975 -1.7544345566416835 3.5882316937850307 -1.9840411485974945 -0.3325366456710449 -2.8250371570708164 -0.7250949256585791
00000000: 0686 3218 8fe3 f0bf 2267 056f e045 1cc0
00000010: e15d 354d 5743 2740 0853 1f28 1aae 9cbf
00000020: b76e 0329 13fc f5bf a439 9b92 e3d7 00c0
00000030: 17da bf0f 4f2b f2bf 45da b995 a754 f8bf
00000040: 549c 1974 68ec e6bf 293f 135a 079f b0bf
00000050: cbf0 86a6 08ac d13f 5356 2ab7 73d4 2440
00000060: b425 6e0f 137d 3140 70c1 501c dedc eebf
00000070: c436 2a4e 3fc0 b7bf 7df8 741d 42e5 f2bf
00000080: 586a 444b e76b d43f 41ad de91 f708 be3f
00000090: 88a0 9808 ea22 cdbf a44f 99e8 0d97 f1bf
000000a0: c74f 93a8 d795 c5bf 4ba7 e864 139f cfbf
000000b0: 5c45 d6ce d74a d33f 1bff 8c4f 7420 e3bf
000000c0: c449 8c96 caad c73f 21ba 17dd 6781 d83f
000000d0: 087e 4fe7 bd29 da3f c784 fd74 4a53 02c0
000000e0: e8d7 241c 289d e33f 9ac6 030b bf76 db3f
000000f0: e227 0e14 c2df f1bf b0e7 2573 59f0 f13f
00000100: 4986 6691 def3 f0bf c4cc 56eb 20af efbf
00000110: 68f3 aff8 668e e83f 39e8 86c3 afca f8bf
00000120: 88fb f420 1f0b c0bf d544 d462 000b a6bf
00000130: 3367 dab0 092f f0bf 4534 e537 ffc5 e83f
00000140: ceb8 c2ef 720b f63f 8f98 eb1c c960 e3bf
00000150: 0b23 6389 5782 d7bf 586d 9ac8 610c b2bf
00000160: 868e 8ba4 af76 2ac0 48aa f444 4fa4 f5bf
00000170: d404 8327 8e7d c93f 7d60 fc68 d97b dabf
00000180: bc3e 1936 7994 d63f 01f8 5666 0754 c0bf
00000190: 09e5 25a5 ab98 1240 77b9 138f 7117 e0bf
000001a0: 98c4 488c d137 ccbf 8539 ad0e 25c4 ef3f
000001b0: 8fab 74fa 4773 f4bf 2e18 a0ee 0d66 a0bf
000001c0: e713 aef2 1e7e eabf 5e6b 751f 5d74 d83f
000001d0: 3bf0 5286 c31b cabf d048 19c9 4c8d d1bf
000001e0: 082d 8928 01ed dfbf 7e88 3487 50b1 d8bf
000001f0: ceef 348d 08f2 f2bf 8346 76e0 6d01 f9bf
00000200: 584a 0724 5c99 f13f 047e e459 ed77 1cc0
00000210: d257 1dad 1ea3 2e40 786e d74d 4d60 d73f
00000220: 8bd6 63d2 de4c 0240 bfcd 8a34 9f89 2bc0
00000230: 2854 3369 fefe de3f f38a 52f5 731d 0440
00000240: ff3b 48c4 1387 ddbf f1b6 45ab 0ff3 ff3f
00000250: 8402 5535 2e89 cdbf c657 d40a a4d7 0fc0
00000260: a57d 3ca4 f3a3 ee3f 43a3 5570 984f 14c0
00000270: 89ff 0718 5bd7 cd3f 752a 3079 d2dd bd3f
00000280: 8b7b 6e43 dc56 e1bf 8e1b 266c ee97 08c0
00000290: 68c0 f801 7552 bb3f c0f2 4592 00e6 fb3f
000002a0: af77 2c30 27a9 cfbf d50b 454f 93d9 d23f
000002b0: 4056 3830 5177 e8bf 1032 677f 9fb2 fc3f
000002c0: 2133 f366 40a6 0540 0edb d12f 76b1 f1bf
000002d0: ddba 2861 2ce7 f4bf 6ac4 1630 5e88 1e40
000002e0: 7390 5bfe a1f0 febf c06f cbeb cecd e4bf
000002f0: 2b7c c169 6008 2a40 7d2b 0198 d7ba f3bf
00000300: 1b61 99b9 b2af 1340 70d9 79c0 401e db3f
00000310: cb8d 4f26 a72c e53f 90f4 85ff 1850 d2bf
00000320: 4622 9dd2 2a54 f0bf 89a7 1b8e f785 e3bf
00000330: 6a78 7bb9 ebab e43f 1ee6 5ea0 5b36 edbf
00000340: 3d74 2c8e 1c67 c73f bbb2 0190 069b 10c0
00000350: 5511 72af 8d4f c43f 7fea 86cb c253 f63f
00000360: a529 5926 8968 fe3f 1079 ed70 a329 c33f
00000370: c632 431b 6446 09c0 a484 315e 05f2 e83f
00000380: 29cb 84f0 864b ef3f af22 33f9 6ec8 20c0
00000390: 41f0 c45d 0bfe 22c0 b225 42c6 ca8b ebbf
000003a0: ee37 2a84 ee00 f1bf 0777 f6c9 c744 d13f
000003b0: 6f77 60dd 1cc1 1040 c547 6a29 fd45 0fc0
000003c0: c4e3 6a0e 9cec fcbf b149 75bf d40e 0cc0
000003d0: 3b51 da38 d5a8 cc3f 8fe5 1d9e be12 d0bf
000003e0: 4a14 2fac f6e8 1340 4802 bb41 2be8 dabf
000003f0: 09b4 5666 43eb e13f ee0d f0ef 0357 d03f
00000400: 5589 8d18 2936 16c0 93d8 1ceb 5704 0b40
00000410: 589e 644e 8e8f 1240 c01a 794f 8a80 12c0
00000420: fd92 2cc4 11e1 0bc0 96ac e01c d58b 1440
00000430: ed18 bd1a 92dc 1940 2a30 b32d 9579 fbbf
00000440: 95de 448e 76aa 0040 30d7 eb02 3dee 01c0
00000450: ffd3 8262 bee4 e83f ba1a 77c1 a4d6 ec3f
00000460: ae51 73fb 4953 dfbf 3480 e651 f8c9 0340
00000470: 5145 58ac f86d f3bf 5951 e5d7 d078 f9bf
00000480: d378 622a a767 c73f 8bde 661f 0eeb 26c0
00000490: a843 e798 5959 f43f b78b f212 5990 04c0
000004a0: 7566 5a98 f9e5 f23f a973 bfa3 451c b43f
000004b0: 866b f1b5 d52e 03c0 4020 8b7d 77fb e53f
000004c0: b1e1 3f6e 5205 10c0 eace c130 d8ae 0940
000004d0: 3192 1759 73ab 0540 aea8 4790 29ba 12c0
000004e0: 0cee a53c 9e8b fa3f 6ba3 247b 65d9 0340
000004f0: fad7 d5d7 245c 1140 1e05 5a16 ecc0 0e40
00000500: e407 74c6 e341 fc3f 4ebd 8314 ccc4 cbbf
00000510: 4090 8b6d 0833 1640 9088 6f01 1830 10c0
00000520: 6ff3 4ab1 5cd9 fd3f 2efa a567 47a1 fb3f
00000530: 3955 2e09 538a 0f40 8ada 70d2 cf20 d83f
00000540: 7d96 2616 d8fe 0d40 2715 a04d e122 f23f
00000550: ee9c 9212 3ee1 e93f a626 08e6 f842 fcbf
00000560: f3cf 9b51 d6a0 ea3f 7499 b740 42fb 07c0
00000570: de9b 2bb1 483c 0940 323f a905 24a2 f4bf
00000580: d3d4 e637 af05 fcbf 321b ff96 fd49 0b40
00000590: c7d9 66cc 7e9d f53f dc87 e430 d557 ffbf
000005a0: acdc deb3 a6ce 0440 a9e0 87b7 a8c8 ea3f
000005b0: bc05 6983 b0ca 04c0 ca8e ff8f 9d9c fd3f
000005c0: 9a15 e9d3 2685 0ac0 ae0c 547a 33d3 ee3f
000005d0: db2a a725 d1cc e33f 20f2 6f57 4b2c 16c0
000005e0: bc5e 3099 0d9a 0bc0 a4fc 0e88 4540 ed3f
000005f0: 4992 7f6e 46a5 09c0 7cf2 760e 3c56 05c0
00000600: 4428 b06b 7fe4 00c0 86ae 07a2 9bf8 e43f
00000610: 66f7 919d 082d f13f 534b 1f1b 0130 f63f
00000620: 752e 85e8 c59d f3bf 1544 02ee 3cf7 f83f
00000630: 163b 19ef a6cd 01c0 dfab 6dc0 246e 0d40
00000640: 1903 3cbe 88fe 0140 cafe f690 6fdc 0040
00000650: 695f ba00 4cb8 c8bf fa7e 1aca e714 c43f
00000660: b3a3 c2ec b8cf d8bf 9ff5 2153 0ecc f93f
00000670: f56e 21bb af2b dd3f 8f36 414c 8b99 0140
00000680: c9e9 f283 fa45 1740 9310 5845 ee38 fabf
00000690: b4d0 65c0 9f36 e53f 9e0b e5ae 75b1 07c0
000006a0: 88f6 334c f7fc 0540 3b65 36fa 72be 0540
000006b0: 0d1b 3fb7 bf65 0f40 0f6c 9bfc b63d 13c0
000006c0: f9ba c827 4b4a fabf d407 0cd7 7464 2cc0
000006d0: cf4c e3ca 1072 00c0 d553 bcca 73d2 0040
000006e0: 85ee 6343 2602 e43f 892c d8a8 45c3 febf
000006f0: d733 e88e 011a fa3f 70c6 184c 78f9 f4bf
00000700: e3bb 40ac fddb 1440 2ab2 624a b498 0bc0
00000710: 03aa f67d e72e 0bc0 8203 d948 f0cf 0140
00000720: 0106 b579 39c7 bf3f 45e8 69b9 38b3 bfbf
00000730: 9896 777f c53b 01c0 e4d1 339a 8faf 13c0
00000740: 98b3 2c97 9d88 0040 7552 19b5 1ea8 1040
00000750: 5b6c a0c4 c442 14c0 ee6d 1009 3987 0dc0
00000760: 41dc fce0 47e1 c03f fa6e d419 d1cc ee3f
00000770: c5d8 899f dbc5 1840 137f be5d 09c3 f1bf
00000780: 8025 c7cd 26b1 e5bf f9d3 04b4 820a 0640
00000790: 01cc 9f2c 9e6d d53f ba89 f93c abe2 0440
000007a0: e74b 88fe 6db6 a1bf df53 e8a9 2bbb 0ec0
000007b0: 20f0 2161 eb41 febf 42ba cf4e c96d d33f
000007c0: 653c 87b1 443d f83f 2a29 5c44 db9d 1540
000007d0: fff8 3bf8 2912 fcbf 1a38 7ad1 b2b4 0c40
000007e0: ef4f 72ee a1be ffbf 423c 78c8 4748 d5bf
000007f0: efd4 bc14 ad99 06c0 6d5f 0646 fa33 e7bf

bias f8 [16]
-0.1358162850319086 -0.8999159060404947 0.6935759469166503 -0.026495428621482315 0.11502229138827384 -0.14186636521933713 0.35438353464523936 -0.8624053519892868
0.4138424579429281 -0.24396516431085266 0.20052045042281538 0.06250710105713173 0.25393421876367367 0.27504792747947754 0.6167105855428883 0.010668814543517072
00000000: 25f6 3c93 6d62 c1bf 2403 3371 1ccc ecbf
00000010: 6a93 292f c631 e63f 55ea b01d 9e21 9bbf
00000020: abd8 d2d3 1972 bd3f 2b7d 8253 ad28 c2bf
00000030: 2db3 e246 38ae d63f 330f d61b d398 ebbf
00000040: 95e9 a313 657c da3f 4f08 0a21 403a cfbf
00000050: 1b62 5f74 a7aa c93f c6e2 ce22 7700 b03f
00000060: eb37 3b4f 7540 d03f 09d8 569f 629a d13f
00000070: 701e 80d6 17bc e33f 3576 690c 88d9 853f
